chess_rust/src/chess_cnn_model_final_f16.pt (torch, 174064 bytes, 13 tensors)

conv1.weight f2 [32, 6, 4, 4]
00000000: 552b 40b5 2f34 4bb9 fcb6 2036 843b ebb9
00000010: 972e 8739 6e38 22bd f2b6 c7b6 34b6 09c5
00000020: 4d38 12b5 5e34 18b4 30b5 66a9 7db6 d2b6
00000030: 8cb8 8323 a324 14b8 2db7 17b4 a2bd 37c3
00000040: 80b5 d037 522a 6bb8 e439 78b4 e6b0 21b9
00000050: 3ab2 82a6 66b4 07be a0b6 49b9 f5be 1cc4
00000060: f9ab 1b32 9d37 dab9 e231 43a5 0da0 7a39
00000070: 15b9 81b2 d9b7 68b5 b2b8 75b8 b4bb b3c6
00000080: 87b8 7b3c 98c0 0cbc ecad a3bc 64b9 bec0
00000090: 3030 ebbd 5ec0 e0bd b6c3 91c1 2bc0 32c9
000000a0: 10b5 c139 96af 1fb0 de32 de33 0430 caaf
000000b0: 6232 3aa4 18bc 1ab2 94b0 f7a8 95bc e6ba
000000c0: c3b3 9637 463d cc44 22ab 17b8 50b3 bd41
000000d0: e7b8 40b2 8732 c73d 7db8 f834 3839 8038
000000e0: 3134 853c bead fc44 aeb5 e9b8 5135 2541
000000f0: 723c 20b3 863d 4340 8bb8 183e 3037 a641
00000100: 723b 27bb 4f3d 5744 6326 fe39 da39 7f40
00000110: cd3c aa9c f5ba 1742 2e3c 813c 043c 4845
00000120: 0b32 15b8 5f3d b546 21bc aa38 2b31 af43
00000130: 8639 1a3a 4a35 3b44 633c da3a f03e bb48
00000140: aabc 453b 4bb1 1e47 cd28 233e 51bc 6743
00000150: c9b6 6138 7ab6 e846 9e41 8340 b140 0a4a
00000160: 93b9 10c1 14bb fe46 18bc 40bc 392c c0c2
00000170: b2b4 f836 6c37 2e3f 4c3d a2b6 d63f 0640
00000180: a62d 2434 96ad eeb3 913d a224 ff3d 793c
00000190: bb34 c93d c034 9d33 20c0 71b0 8539 5bbb
000001a0: 623c 7e38 5317 9aba 62be 2437 0739 743d
000001b0: b63d f73c c93a 18be d027 4239 3aba 8838
000001c0: a638 43bd 4c2c 91c0 c335 3f3d 34c0 7432
000001d0: 8a30 9dc0 c53f 61ac 18c5 1bb4 e6b9 b63e
000001e0: 4abc edb5 a031 5d3c 1336 1040 20ba 40ba
000001f0: 6438 c3be 6f33 3239 f4c7 6f3e b63f 893d
0.05728 -0.3281 0.2615 -0.6616 -0.4365 0.3828 0.9395 -0.7397
0.10297 0.691 0.5537 -1.283 -0.434 -0.4236 -0.3877 -5.035
0.5376 -0.317 0.273 -0.2559 -0.3242 -0.04218 -0.4055 -0.4263
-0.5684 0.01467 0.01811 -0.51 -0.4485 -0.2556 -1.408 -3.607
-0.3438 0.4883 0.04938 -0.5522 0.7363 -0.2793 -0.1531 -0.641
-0.1946 -0.02542 -0.275 -1.507 -0.414 -0.6606 -1.739 -4.11
-0.0623 0.1908 0.4758 -0.7314 0.1838 -0.02055 -0.00791 0.6846
-0.6353 -0.2032 -0.4905 -0.338 -0.587 -0.557 -0.963 -6.7
-0.566 1.12 -2.297 -1.012 -0.0925 -1.159 -0.674 -2.371
0.1309 -1.4795 -2.184 -1.469 -3.855 -2.783 -2.084 -10.39
-0.3164 0.719 -0.1185 -0.1288 0.2146 0.2458 0.1255 -0.1217
0.1995 -0.01651 -1.023 -0.1907 -0.1431 -0.0388 -1.1455 -0.8623
-0.2426 0.474 1.318 4.797 -0.05573 -0.511 -0.2285 2.87
-0.613 -0.1953 0.204 1.444 -0.561 0.3105 0.6523 0.5625
0.262 1.13 -0.0897 4.984 -0.355 -0.614 0.3323 2.572
1.111 -0.2227 1.381 2.13 -0.568 1.523 0.4492 2.824
0.9307 -0.894 1.327 4.34 0.02495 0.749 0.7314 2.248
1.2 -0.004555 -0.8696 3.045 1.045 1.126 1.004 5.28
0.1888 -0.5103 1.343 6.707 -1.032 0.583 0.1615 3.842
0.6904 0.7627 0.3306 4.23 1.097 0.8564 1.734 9.46
-1.166 0.9087 -0.1654 7.117 0.0375 1.534 -1.079 3.701
-0.424 0.5474 -0.4048 6.906 2.809 2.256 2.346 12.08
-0.697 -2.531 -0.885 6.992 -1.023 -1.0625 0.066 -3.375
-0.2935 0.4355 0.4639 1.795 1.324 -0.4146 1.959 2.012
0.08826 0.2588 -0.0873 -0.2478 1.392 0.0181 1.499 1.118
0.2957 1.446 0.2969 0.2379 -2.062 -0.1388 0.69 -0.9194
1.096 0.5615 0.001788 -0.825 -1.596 0.4463 0.6284 1.363
1.428 1.241 0.848 -1.523 0.03052 0.657 -0.7783 0.5664
0.581 -1.315 0.06714 -2.283 0.36 1.312 -2.102 0.2017
0.1418 -2.307 1.942 -0.0684 -5.094 -0.2566 -0.7373 1.678
-1.072 -0.3704 0.1758 1.091 0.3796 2.031 -0.7656 -0.7812
0.549 -1.69 0.2323 0.6494 -7.953 1.608 1.928 1.384

conv1.bias f2 [32]
00000000: acab 10b8 19c5 3dbc 22c5 96c6 f9c5 00c8
00000010: 373a 16c8 e445 7042 acc1 f1c4 ceb6 1bc5
00000020: c4b9 d3c8 554a 44c6 1bc5 c2c1 12bf 2dc4
00000030: db47 27c8 94c6 71c9 6ac3 05c9 c540 c6c7
-0.05994 -0.508 -5.098 -1.06 -5.133 -6.586 -5.973 -8.0
0.777 -8.17 5.89 3.219 -2.836 -4.94 -0.4253 -5.105
-0.7207 -9.65 12.664 -6.266 -5.105 -2.879 -1.768 -4.176
7.855 -8.305 -6.58 -10.88 -3.707 -10.04 2.385 -7.773

conv2.weight f2 [32, 32, 3, 3]
00000000: 6fac e6a8 c9aa 9fa6 1c24 c5aa 5c28 6827
00000010: 2c1e a325 f3ad 7ba8 a61a d919 c9a0 e9ae
00000020: 6aad 04a6 e118 7323 8aac 22a8 d0a2 2e26
00000030: f225 f0ac 65a9 9b28 68ac 63a8 0ca4 17ad
00000040: bfaa 2ea8 3fa6 fcab 8d2a a3a8 dcaa 8f22
00000050: 2fa6 132a 0fac caa6 659a 2aa1 9aaa 0f9b
00000060: b3a8 abaa 592f f29b c39d 04a8 b5a4 47aa
00000070: d829 f91c 63a8 c6ac c4ad 8da5 c825 11ac
00000080: 73a9 f223 6a20 67a1 03a4 69a5 a028 1024
00000090: fda8 80af 3924 9ba8 05a7 9a20 6faa 0bac
000000a0: 7dae a5a9 b4ac 409a d2ad 11a8 92a8 a7a7
000000b0: bea5 0d29 3222 0dac 08a9 83a9 eaa3 bfa8
000000c0: 1d2a 22ac 6ea8 81a7 2923 8226 8d18 36aa
000000d0: bcae 73ae 52aa 5fad bb22 f1a5 8921 61af
000000e0: 45a6 f9ad 53a9 a21d 8dac 2d29 3026 f7ab
000000f0: 6125 53a8 86ac 7fa7 19ad 56ad f3a8 7ea5
00000100: 7521 ffac e2a6 8faf cea4 42ac 5ea5 e82b
00000110: b3a9 2c18 91a2 36ad f421 27af 32a9 7b2a
00000120: 671f a6ab 45a7 4ea6 51ae 28ae 87a3 4cad
00000130: 4318 5cad 5029 8f2a 6a9b 6eac 94a7 1fa5
00000140: bda3 27a8 cbac efad 0bb0 6da1 3faa 60af
00000150: bcaa 5ca6 5da9 70a4 c9a0 a29e 2aa2 dfaa
00000160: ef9d 13a2 9429 ebad 9f28 47a8 a125 79a8
00000170: 0fa8 b726 7d24 daac 60ac 5c23 9aac 69ab
00000180: 01ad 71ad 41ac 18a6 f2ad b7ab 12ac eea9
00000190: 4425 a22b 11a5 08ae cba9 0328 aeaa c028
000001a0: f120 c7a5 07a4 dfaa eaa6 4024 a9a7 6da3
000001b0: 552c bf13 e2a8 eba2 f228 d6a8 41ac bba8
000001c0: e7ac ce28 f8a0 b5aa 5caa be9e 6ba8 44ad
000001d0: 48ac d5a9 aaaa 21ab 6fa9 e3aa 89a4 3a22
000001e0: b8a0 27ab 51a4 4ca4 beaa b21d 1823 d6a3
000001f0: 45ac 62a6 cb16 c329 bb9f f3a5 33a8 10ad
-0.0693 -0.03827 -0.053 -0.02586 0.01605 -0.0529 0.03406 0.02893
0.006027 0.02202 -0.09296 -0.035 0.003246 0.002855 -0.009346 -0.108
-0.0846 -0.0235 0.002382 0.01455 -0.0709 -0.0323 -0.013306 0.02414
0.02322 -0.07715 -0.04214 0.03598 -0.06885 -0.03427 -0.01581 -0.0795
-0.0527 -0.03265 -0.0244 -0.06238 0.05118 -0.03622 -0.0536 0.01281
-0.02415 0.04745 -0.0634 -0.02652 -0.003122 -0.010086 -0.05157 -0.003447
-0.0367 -0.0521 0.1148 -0.00388 -0.005627 -0.03137 -0.01839 -0.04904
0.04565 0.004856 -0.03427 -0.0746 -0.0901 -0.02168 0.02258 -0.06354
-0.04257 0.01552 0.00862 -0.01055 -0.01567 -0.02113 0.03613 0.01587
-0.03897 -0.1172 0.0165 -0.03598 -0.02742 0.00899 -0.05026 -0.0632
-0.1014 -0.0441 -0.0735 -0.003052 -0.09094 -0.03177 -0.0357 -0.02989
-0.02243 0.03946 0.0121 -0.0633 -0.0393 -0.04306 -0.01546 -0.03708
0.04776 -0.0646 -0.0346 -0.02931 0.013985 0.02542 0.002222 -0.04852
-0.1052 -0.10077 -0.04938 -0.0839 0.013145 -0.02321 0.01081 -0.1153
-0.02449 -0.0933 -0.0416 0.0055 -0.0711 0.04044 0.02417 -0.06223
0.02101 -0.03378 -0.0707 -0.02928 -0.07965 -0.0834 -0.03867 -0.02145
0.01066 -0.07806 -0.02689 -0.1181 -0.01877 -0.0665 -0.02097 0.06177
-0.04453 0.002037 -0.012825 -0.0814 0.01163 -0.11176 -0.0406 0.05063
0.00723 -0.05975 -0.0284 -0.02463 -0.0987 -0.0962 -0.0147 -0.08276
0.00208 -0.08374 0.0415 0.05124 -0.00362 -0.0692 -0.0296 -0.02
-0.015114 -0.03244 -0.0749 -0.0927 -0.1263 -0.0106 -0.0488 -0.11523
-0.0526 -0.02484 -0.0419 -0.01733 -0.009346 -0.006477 -0.01204 -0.05368
-0.005795 -0.01186 0.04358 -0.09247 0.0361 -0.03342 0.02199 -0.03494
-0.0317 0.02623 0.01753 -0.0758 -0.06836 0.01437 -0.0719 -0.0579
-0.0782 -0.085 -0.06647 -0.0238 -0.0929 -0.06027 -0.0636 -0.04633
0.02057 0.05963 -0.01979 -0.09424 -0.04526 0.03134 -0.0522 0.0371
0.00965 -0.02257 -0.01573 -0.05368 -0.02701 0.0166 -0.02992 -0.0145
0.0677 0.0009456 -0.03815 -0.01351 0.03864 -0.03778 -0.06647 -0.03696
-0.0766 0.03754 -0.009705 -0.0524 -0.04968 -0.006584 -0.03452 -0.0823
-0.0669 -0.04556 -0.05206 -0.0557 -0.04245 -0.0538 -0.01772 0.01216
-0.00922 -0.05588 -0.01686 -0.01678 -0.05267 0.00556 0.013855 -0.015305
-0.0667 -0.02493 0.001658 0.045 -0.00755 -0.02324 -0.0328 -0.0791

conv2.bias f2 [32]
00000000: 72ac 7134 d4c6 54ad b647 09b1 21af 17b3
00000010: 5cb0 7bad dea8 90b0 d0ad 55ae a0ae e3b1
00000020: d2ca 86b3 21ca 3dc0 35bd 0ec8 4ab0 13a7
00000030: 1aa9 dcb5 48ad a43c 0daf 9eaf b0ad cec9
-0.06946 0.2776 -6.83 -0.08325 7.71 -0.1573 -0.1114 -0.2216
-0.1362 -0.08563 -0.03802 -0.1426 -0.0908 -0.09894 -0.1035 -0.184
-13.64 -0.2351 -12.26 -2.12 -1.302 -8.11 -0.134 -0.02763
-0.03986 -0.3662 -0.0825 1.16 -0.11017 -0.119 -0.08887 -11.61

conv3.weight f2 [64, 32, 3, 3]
00000000: f62c 592a 6e27 9325 6624 9f27 4e28 daa5
00000010: 5326 3ab1 03b1 10ad 4231 8231 092e 98a8
00000020: eb2f c530 792e e730 44a4 ad1c dd35 5728
00000030: 1e1c 2327 911f b5ac e526 3426 54a4 2e27
00000040: 1826 422b dcac a6ac 75a7 2db2 fba6 20b4
00000050: fdb6 5db2 5cac 1eb5 03b1 5dad aaa2 90a2
00000060: ada5 9ba8 2398 4928 91a2 ad9e 9da9 2728
00000070: faa4 429c 14ab 7da6 529c 5f26 bca7 dcad
00000080: bcab 5931 69ac 7cb4 a127 809e b3ad a12b
00000090: 3630 582c c0ac 4017 9fa9 4ca9 f428 ab2b
000000a0: 259b 3ba2 e4b1 1c18 ae2c e9b6 5aa5 b8a9
000000b0: c2ac 99ac c9a9 59a5 05a9 f929 5c1c ed29
000000c0: 4529 3a21 da9a cda8 c22a ba2f 8ea0 bea7
000000d0: b429 4395 00b0 9429 2f28 c82a 072a 3da0
000000e0: 4ba2 012a 7b2a b513 472b 8428 b52d 0927
000000f0: 59a0 3e2c a027 6f2b 88aa d32a fd28 f29e
00000100: 8aae 4d29 74a3 7a1a d524 a72d 562d ac9c
00000110: 0eae 27ab 69a4 aba9 d7ae d0aa 0e10 b5ae
00000120: a89f 0632 032c aca8 7334 0033 e729 1531
00000130: 3f2f e7ab 8e33 fab0 dd27 ab31 12aa 07a2
00000140: eb2b d7af 3e31 eb2b 8d9e 0e33 e21d 922c
00000150: d79f 9a2a 88a8 27b0 8fac d8a8 7f30 86b5
00000160: 7126 2428 6f2c baa2 fc34 b734 a433 872f
00000170: 6fb0 2832 282c b32f 692f 5d2d 0a21 e334
00000180: 8930 24af a22c cb9f 7030 4f2c 71a3 98a4
00000190: ab25 2628 30a6 bea8 ff2d 229d 992b a6ad
000001a0: 2624 4fa8 9cab f29d b9ab 1b2d 9a2c 67ad
000001b0: 4ca8 6329 4b28 d429 1c21 f828 c52b 8d2a
000001c0: c32c 8421 9d2d 1b2d 64ac 2eb6 2aac 4ead
000001d0: a5a9 5aa4 3b2b d0ae 302d 1c2f c9af db28
000001e0: c730 b60c 631d 9b29 f426 3d2a 19a4 44af
000001f0: 6faa cfa4 28ad f92e 2f28 a92d 0c11 21a8
0.0775 0.0496 0.02902 0.02177 0.01718 0.02977 0.03363 -0.02286
0.0247 -0.1633 -0.1566 -0.0791 0.1643 0.1721 0.0943 -0.0359
0.1237 0.149 0.10114 0.1532 -0.01666 0.004566 0.3665 0.0339
0.00402 0.02788 0.00739 -0.07355 0.02693 0.02423 -0.0169 0.02805
0.0238 0.0567 -0.0759 -0.07263 -0.02913 -0.193 -0.02727 -0.2578
-0.4368 -0.1989 -0.0681 -0.3198 -0.1566 -0.0838 -0.013016 -0.01282
-0.02217 -0.03598 -0.00202 0.03348 -0.012825 -0.00652 -0.04385 0.03244
-0.01944 -0.004158 -0.0553 -0.02534 -0.00422 0.02489 -0.03021 -0.09155
-0.06042 0.1671 -0.0689 -0.2803 0.0298 -0.006348 -0.08905 0.0596
0.1316 0.0679 -0.0742 0.00177 -0.0439 -0.04138 0.0387 0.0599
-0.003489 -0.01217 -0.1841 0.002007 0.0731 -0.432 -0.0209 -0.04468
-0.07434 -0.07184 -0.0452 -0.02089 -0.0392 0.04666 0.004257 0.0463
0.04117 0.01021 -0.003345 -0.0375 0.0528 0.1207 -0.008896 -0.03024
0.04456 -0.001285 -0.125 0.04358 0.03268 0.05298 0.0471 -0.00828
-0.01229 0.0469 0.05063 0.000941 0.05685 0.03528 0.0892 0.02748
-0.00849 0.0663 0.02979 0.05807 -0.05103 0.0533 0.03897 -0.006783
-0.1022 0.0414 -0.01456 0.003162 0.01888 0.0883 0.0834 -0.004562
-0.0946 -0.05588 -0.01723 -0.04428 -0.1069 -0.05322 0.000495 -0.1048
-0.007477 0.1882 0.0627 -0.0365 0.278 0.2188 0.0461 0.1588
0.1132 -0.06174 0.2361 -0.1555 0.03072 0.1771 -0.04742 -0.01177
0.06186 -0.1225 0.1638 0.06186 -0.006397 0.2205 0.005745 0.0714
-0.007656 0.05157 -0.0354 -0.1298 -0.0712 -0.03784 0.1405 -0.3452
0.02516 0.03235 0.0693 -0.01314 0.3115 0.2947 0.2388 0.1176
-0.1385 0.1924 0.06494 0.1203 0.1158 0.0838 0.00984 0.3054
0.1417 -0.1116 0.0724 -0.00761 0.1387 0.0673 -0.014534 -0.01794
0.02214 0.0324 -0.02417 -0.03705 0.0937 -0.005013 0.05936 -0.08826
0.0162 -0.03366 -0.05945 -0.005806 -0.06033 0.0798 0.0719 -0.0844
-0.03357 0.04208 0.03354 0.04553 0.00998 0.03882 0.0607 0.05118
0.0744 0.01077 0.0877 0.0798 -0.0686 -0.3862 -0.06506 -0.0829
-0.0441 -0.017 0.0565 -0.10645 0.08105 0.1111 -0.12164 0.03793
0.1493 0.0002875 0.00526 0.0438 0.02716 0.04874 -0.016 -0.1135
-0.05026 -0.01878 -0.08057 0.10895 0.03268 0.08844 0.000616 -0.03226

conv3.bias f2 [64]
00000000: 10b5 fab7 43b0 cebb 89af d7b0 cab0 12b0
00000010: 7cb0 48bd f6ad d6b2 52bb c2b4 0caf 79b2
00000020: d5b1 62b6 5b3b 04c4 7bb9 8fac 64c0 65af
00000030: 8eb6 33b1 bbb0 34a8 67b0 13bc aeb0 88ac
00000040: 4bbe b038 adae d1bc 7fb3 e3b5 6ab4 3ea3
00000050: 8ab7 10b1 d9ad cfb2 93bc a6c2 3eaf 83b2
00000060: bcac 93ba 12af b2ba 9cbb efb1 92b6 65ac
00000070: e832 2cb2 06be 27af b2b0 a444 3cb1 7eb1
-0.3164 -0.4985 -0.1332 -0.9756 -0.11774 -0.1512 -0.1497 -0.1272
-0.1401 -1.32 -0.09314 -0.2136 -0.915 -0.2974 -0.1101 -0.2023
-0.1823 -0.399 0.9194 -4.016 -0.685 -0.0712 -2.195 -0.11554
-0.4097 -0.1625 -0.1478 -0.03284 -0.1376 -1.019 -0.1462 -0.0708
-1.573 0.586 -0.1043 -1.204 -0.2343 -0.368 -0.276 -0.014145
-0.4712 -0.1582 -0.0914 -0.2128 -1.144 -3.324 -0.11316 -0.2035
-0.074 -0.822 -0.1105 -0.837 -0.951 -0.1854 -0.4106 -0.06866
0.2158 -0.1929 -1.506 -0.11176 -0.1467 4.64 -0.1636 -0.1716

conv4.weight f2 [64, 64, 3, 3]
00000000: 1527 2026 d0ab 8f28 01a4 32a7 bb9d 2629
00000010: 6b95 a52a d8a4 e7ac e5a3 84ac 9da7 ff9e
00000020: fc9c 32a6 1ca9 2fa9 f820 4694 dd9f 9298
00000030: a19c c0a5 1ba7 1823 28af 3620 42a7 6ba2
00000040: 44a3 732c 2718 bc28 a9a5 f59f 1826 41a4
00000050: 149f 7611 f49c a7a9 85a5 d4a7 f225 89a5
00000060: 0926 2ba9 de27 919f ae9c 5b99 00a8 fea7
00000070: bba8 5227 ef20 7925 1324 22a4 6525 7b27
00000080: 36a6 b724 6126 9ca5 5428 3da7 4228 a228
00000090: 6128 90a2 8ba7 06a5 5ea9 3b24 e29c a628
000000a0: 3620 63a8 28ac 4120 0328 4927 3da6 e1a4
000000b0: 6222 ac25 33a9 3929 f628 599f 1025 5eac
000000c0: 2d22 2c26 b5a8 ba24 9ea2 83a4 f9a4 5a27
000000d0: 42a8 cd25 dda1 9328 b425 611c 40a2 a9a0
000000e0: 2721 1fac 22a4 c42a 7903 5fa5 5f27 7322
000000f0: 58a2 c5a6 0f26 3aa8 ec9d eba9 bc9d 3128
00000100: df25 739c 7d9f 391e 5ea4 e31d c424 7728
00000110: 91a9 8da9 9318 68a7 bb29 6916 cca7 2a26
00000120: 97a8 56ac d39a 131b 89a9 c5a5 82a7 2ca6
00000130: 69a8 2523 23ae baa5 d426 62a2 6da9 8622
00000140: 8cb0 bda7 5aa8 9e27 8025 dfa1 fd32 5f35
00000150: 2425 c5b1 3b23 e326 b5a8 62a3 d92d a0aa
00000160: 2dac 3aa8 c3b4 c101 5ea8 bea7 f8a5 4221
00000170: d31d 13a2 3aa4 559e 5719 1723 04a8 f725
00000180: 9e27 c0a6 3ca3 bf21 e5a8 8c22 c6a2 201d
00000190: 8fac 2b1e e4ab 52aa cc90 eba0 1098 1e26
000001a0: a927 2425 d30e 78a9 1fa4 2928 d395 5925
000001b0: 7528 c518 2ba9 3b28 a29d 5428 c718 45a7
000001c0: 13a8 8821 6828 fd9a 1018 58a8 4ca8 c8a8
000001d0: c426 7024 541d 639a 9e28 8fa4 1c1c 7928
000001e0: e925 6224 ef25 e513 5ea0 e620 25a5 cd27
000001f0: 3726 b59d eba8 3a27 d2a8 7ba4 e324 c324
0.02766 0.02393 -0.06104 0.0356 -0.01564 -0.0281 -0.005596 0.04022
-0.001323 0.0519 -0.01892 -0.0766 -0.01542 -0.07056 -0.02974 -0.006832
-0.004868 -0.0242 -0.03992 -0.0405 0.009705 -0.001043 -0.00768 -0.002232
-0.00452 -0.02246 -0.02776 0.013855 -0.1118 0.008224 -0.02835 -0.012535
-0.01419 0.0695 0.002028 0.037 -0.02211 -0.00777 0.0238 -0.01662
-0.006912 0.0006666 -0.004837 -0.04416 -0.02156 -0.03058 0.02322 -0.02162
0.02357 -0.04037 0.03073 -0.00739 -0.00457 -0.002615 -0.03125 -0.03122
-0.03696 0.0286 0.009636 0.02138 0.01591 -0.01614 0.02107 0.02922
-0.02426 0.01842 0.02492 -0.02191 0.0338 -0.02827 0.03326 0.0362
0.0342 -0.01282 -0.02946 -0.01962 -0.04193 0.01653 -0.00477 0.03632
0.008224 -0.03427 -0.06494 0.00831 0.03134 0.02846 -0.02437 -0.01906
0.01247 0.02216 -0.04062 0.0408 0.03876 -0.007175 0.01978 -0.06824
0.01206 0.02411 -0.03677 0.01846 -0.012924 -0.01762 -0.01942 0.02872
-0.03326 0.02266 -0.01145 0.03574 0.02228 0.004276 -0.01221 -0.0091
0.01006 -0.0644 -0.01614 0.05286 5.3e-05 -0.02098 0.0288 0.012596
-0.01239 -0.02644 0.02367 -0.03302 -0.005783 -0.04623 -0.0056 0.03275
0.02293 -0.004345 -0.007313 0.006077 -0.01706 0.00575 0.01862 0.03488
-0.0435 -0.04337 0.002234 -0.02893 0.04477 0.001565 -0.03046 0.02408
-0.03586 -0.06775 -0.003332 0.003454 -0.04324 -0.02254 -0.02933 -0.02411
-0.03445 0.013954 -0.0959 -0.02237 0.02667 -0.01247 -0.0424 0.01274
-0.1421 -0.03023 -0.034 0.02975 0.02148 -0.01147 0.2184 0.3357
0.02008 -0.1803 0.01412 0.0269 -0.03677 -0.01442 0.0914 -0.05176
-0.06525 -0.03302 -0.2976 2.676e-05 -0.03412 -0.03024 -0.02332 0.01027
0.005688 -0.01186 -0.01651 -0.006184 0.002607 0.01385 -0.03137 0.0233
0.02975 -0.02637 -0.01413 0.01122 -0.03824 0.01279 -0.01323 0.005005
-0.0712 0.006023 -0.06165 -0.04938 -0.0005856 -0.009605 -0.001984 0.0239
0.02992 0.02008 0.0004165 -0.04272 -0.0161 0.0325 -0.001422 0.02089
0.03482 0.002329 -0.04037 0.03305 -0.0055 0.0338 0.002333 -0.0284
-0.03183 0.0108 0.03442 -0.003412 0.001984 -0.03394 -0.03357 -0.03735
0.02643 0.01733 0.005203 -0.003119 0.03607 -0.0178 0.004013 0.03494
0.02309 0.01712 0.02318 0.0009637 -0.00853 0.00957 -0.0201 0.03047
0.02428 -0.005573 -0.03842 0.02823 -0.03766 -0.0175 0.01909 0.0186

conv4.bias f2 [64]
00000000: 13c0 ecbc d7b6 19c3 e2c2 d5c4 6cc7 81c2
00000010: 69bc f9c5 e6b7 6dc5 01c0 a4c0 b2c0 62c3
00000020: 2e46 3fc8 cbc4 c5ba 7dc5 93bc dabb 53ba
00000030: eeba 7ac5 15c5 0fc5 d5be db3e 80bb 52c6
00000040: fbb8 e1c1 30ba 72c4 c5bd 37c4 3cba 1ac0
00000050: bcb9 debd d4c4 1cc2 46b7 b8c0 13b8 3ac5
00000060: 58c6 48bd a3c5 e9b9 f2c1 14b2 d8be e8c0
00000070: e9bd c0c6 e0bd febe 07c3 58bf 62b8 19bc
-2.037 -1.23 -0.4275 -3.549 -3.441 -4.832 -7.42 -3.252
-1.103 -5.973 -0.4937 -5.426 -2.002 -2.32 -2.348 -3.691
6.18 -8.49 -4.793 -0.846 -5.49 -1.144 -0.9814 -0.7905
-0.866 -5.477 -5.082 -5.06 -1.708 1.714 -0.9375 -6.32
-0.6226 -2.94 -0.7734 -4.445 -1.442 -4.215 -0.7793 -2.05
-0.717 -1.467 -4.83 -3.055 -0.4546 -2.36 -0.5093 -5.227
-6.344 -1.32 -5.637 -0.739 -2.973 -0.19 -1.711 -2.453
-1.478 -6.75 -1.469 -1.748 -3.514 -1.836 -0.548 -1.024

fc1.weight f2 [128, 64]
00000000: 6f33 df1c 6991 0d37 eab8 c834 6938 5aad
00000010: 0433 d1b4 b5ab c131 34b7 f9b2 45b2 7caf
00000020: 91b0 26b1 fe36 ff37 6a32 7232 bba9 a5a9
00000030: b8aa fc2d 1434 46b5 77b4 bc2a 03ac 73ad
00000040: 97b1 86bb 8aaf 1232 f82c 062c e232 68ba
00000050: 3830 3f2b cb35 4738 fd18 262e 6833 d59e
00000060: bb2a 2a1f a029 3eb0 9a34 7ab6 dab9 cc33
00000070: 4135 b12e 212b 5db8 6cb8 16b4 56b5 14b3
00000080: 8aa9 efb0 a527 7cb5 60b0 3530 abac 10af
00000090: 9eac 1c2c 012b 73b5 e7a5 2cb0 a9ae d933
000000a0: 84ad 8e36 3dac 8db7 9e2a 53b0 9f26 36a2
000000b0: 8e33 cca1 082a 4333 aa31 15b8 91b3 8f34
000000c0: 9e20 48a9 24a8 0031 14b0 d7a9 78a7 52b3
000000d0: 67ae 1329 5ab3 55b4 7a24 6e34 8e26 802d
000000e0: 0122 1134 d532 47b6 c1a6 dbb0 a7a6 9432
000000f0: 48b5 052e a02c c0b6 d133 d0b0 1c21 ffad
00000100: cdaf b3b1 112e a1a5 5b35 67ac e3ac fda0
00000110: e42d 4d32 e726 2f30 adac d030 df2c d5b4
00000120: 0cb8 e2b4 2cb8 dfb4 3820 74b6 1531 a2a5
00000130: c331 c3b6 abb8 06a7 3d30 4a34 abad 36b7
00000140: 5828 6fb9 1b2e 66b4 bf34 5eb9 7fab 2cc0
00000150: 5432 4ca2 df32 4eb9 e62f aab8 4734 8ebc
00000160: 4cb7 be33 50b4 29b4 12b1 2b2d 852d 1fb0
00000170: b9ba eb33 f732 fcb1 e2af a0b6 6728 2133
00000180: 111c 0aae 872b ddb4 a9b2 5ab5 a0b1 69bb
00000190: 6930 eab1 832b 75ad 90b0 49b0 19b7 f5b4
000001a0: 35b1 68b4 362a f5b9 31b0 e8b0 8033 77a7
000001b0: 2fb6 f3b8 d7b7 11ac 59b4 8b35 e2a9 21b6
000001c0: 8cb2 18b9 96b0 e32e f430 f4ab 67b4 ee2b
000001d0: 64ad 47b1 55b3 e6b6 baa7 47bc a0bc 982c
000001e0: b2b2 49b4 9db4 95b5 21b3 12b6 34ac 99ac
000001f0: dcac 3cb3 0ca0 fbc7 c1b2 9e34 2fa8 8c38
0.2323 0.004757 -0.0006604 0.4407 -0.6143 0.2988 0.5513 -0.0836
0.2192 -0.301 -0.0602 0.1798 -0.4502 -0.2179 -0.1959 -0.11694
-0.1427 -0.1609 0.437 0.4998 0.2004 0.2014 -0.04477 -0.0441
-0.0525 0.0935 0.255 -0.3296 -0.279 0.0526 -0.0627 -0.08514
-0.1747 -0.9404 -0.1178 0.1897 0.07764 0.06287 0.2151 -0.801
0.1318 0.0566 0.362 0.5347 0.002436 0.09607 0.2314 -0.00667
0.05258 0.006996 0.04395 -0.1326 0.2876 -0.4048 -0.7314 0.2437
0.3284 0.10455 0.0557 -0.5454 -0.5527 -0.2554 -0.3335 -0.2212
-0.04327 -0.1542 0.02986 -0.3428 -0.1367 0.1315 -0.07294 -0.11035
-0.07214 0.0642 0.05472 -0.3406 -0.02306 -0.1304 -0.10406 0.2452
-0.0862 0.4097 -0.0662 -0.472 0.0517 -0.1351 0.02586 -0.01213
0.2361 -0.01132 0.04712 0.2269 0.177 -0.5103 -0.2365 0.285
0.00902 -0.04126 -0.03235 0.1562 -0.1274 -0.04562 -0.02917 -0.2288
-0.10004 0.03964 -0.2297 -0.2708 0.01749 0.2769 0.0256 0.08594
0.01173 0.2542 0.2135 -0.3923 -0.02638 -0.1517 -0.02599 0.2056
-0.33 0.09406 0.07227 -0.4219 0.2443 -0.1504 0.00998 -0.0937
-0.1219 -0.1781 0.0948 -0.02199 0.3347 -0.0688 -0.07635 -0.00974
0.09204 0.1969 0.02696 0.1307 -0.07306 0.1504 0.0761 -0.302
-0.506 -0.3052 -0.5215 -0.3044 0.00824 -0.4033 0.1588 -0.022
0.18 -0.4226 -0.5835 -0.02744 0.1324 0.268 -0.08856 -0.4507
0.03394 -0.679 0.0954 -0.275 0.2966 -0.671 -0.05856 -2.086
0.1978 -0.0123 0.2147 -0.663 0.1234 -0.583 0.2673 -1.139
-0.456 0.242 -0.2695 -0.26 -0.1584 0.08075 0.08624 -0.1288
-0.8403 0.2474 0.2177 -0.187 -0.12317 -0.414 0.0344 0.2228
0.00397 -0.09436 0.0588 -0.304 -0.2081 -0.3345 -0.1758 -0.9263
0.1378 -0.1848 0.0587 -0.08527 -0.1426 -0.1339 -0.4436 -0.3098
-0.1627 -0.2754 0.04852 -0.7446 -0.131 -0.1533 0.2344 -0.02916
-0.3865 -0.6187 -0.49 -0.06354 -0.2717 0.3464 -0.04596 -0.383
-0.2046 -0.6367 -0.1433 0.1076 0.1548 -0.06213 -0.2751 0.06195
-0.0842 -0.1649 -0.2291 -0.4312 -0.03018 -1.069 -1.156 0.0718
-0.2092 -0.2678 -0.2883 -0.3489 -0.2228 -0.3794 -0.0657 -0.07184
-0.0759 -0.2261 -0.007904 -7.98 -0.211 0.2886 -0.03268 0.5684

fc1.bias f2 [128]
00000000: 53bc 81bb feb8 a5b8 e6b7 f8ae b8b2 0bbd
00000010: 7532 74bc dea5 12b8 a6bf 87bc e8bd 61b4
00000020: 5fbc 72bc 9ab8 52b9 89bc 30bf 95b8 6fb6
00000030: 18b4 afb0 efbb 3eb3 3b35 10bb 45b9 3bb6
00000040: 72b8 b2b5 0535 6fb7 acb5 92ba a3b8 7ab7
00000050: 67ae 6ab8 9ab3 8bb7 13bf 3ab4 83b5 febc
00000060: 3cb7 bdba 1bb4 e4bc f5b3 9b35 2eb1 94bd
00000070: 2eba 11ba 20b6 80b7 ffbc acb7 47b4 ccb6
00000080: bdb9 10bc 42bb 5eb3 04ba 6db7 78bd 2eb5
00000090: 56bb 97b9 8eb1 a2b8 52b7 61bc 63b6 c3b6
000000a0: 30bd b0c0 b8be cbb2 35b4 18b9 77bf 17b9
000000b0: d4bb 6233 1ebf ecbd 41b7 77b8 bab7 75b6
000000c0: f9bc 51be c1b9 9fbc ccbc cdbf af31 f5b2
000000d0: 57b6 f1ba d02e 88bb f1be adb4 4ebd e8bf
000000e0: b3bc 84b5 51bc 2db5 50bc 4fba 8cba 4eb6
000000f0: fdb7 9db8 dfbf 44b8 bbac ab34 38bd cbb8
-1.081 -0.938 -0.624 -0.5806 -0.4937 -0.1089 -0.21 -1.261
0.2018 -1.113 -0.02292 -0.509 -1.912 -1.132 -1.477 -0.2737
-1.093 -1.111 -0.575 -0.665 -1.134 -1.797 -0.5728 -0.402
-0.2559 -0.1464 -0.9917 -0.2263 0.327 -0.883 -0.6587 -0.3894
-0.5557 -0.356 0.3137 -0.4646 -0.3545 -0.8213 -0.5796 -0.4673
-0.10004 -0.552 -0.2375 -0.4714 -1.769 -0.2642 -0.3445 -1.248
-0.4521 -0.8423 -0.2566 -1.223 -0.2487 0.3503 -0.1619 -1.395
-0.7725 -0.7583 -0.3828 -0.4688 -1.249 -0.4795 -0.2673 -0.4248
-0.7173 -1.016 -0.907 -0.2302 -0.752 -0.464 -1.367 -0.3237
-0.917 -0.6987 -0.1736 -0.579 -0.4575 -1.095 -0.3992 -0.4226
-1.297 -2.344 -1.68 -0.2123 -0.263 -0.6367 -1.866 -0.636
-0.9785 0.2307 -1.779 -1.48 -0.4534 -0.558 -0.483 -0.4036
-1.243 -1.579 -0.719 -1.155 -1.199 -1.95 0.1776 -0.2174
-0.3962 -0.8677 0.10645 -0.9414 -1.735 -0.2922 -1.326 -1.977
-1.175 -0.3447 -1.079 -0.3235 -1.078 -0.7886 -0.8184 -0.394
-0.4993 -0.5767 -1.968 -0.533 -0.0739 0.2917 -1.305 -0.599

fc2.weight f2 [64, 128]
00000000: a43f a237 f235 b633 d434 2a2b 2a39 6bae
00000010: e7bc a334 b32c 5531 1c37 6531 573b b422
00000020: 763c a19f ba36 70bd e0c0 72c4 ee32 efb6
00000030: c22a 9031 b9a8 f133 d8bd 19ba 3635 fd2d
00000040: fca9 d32d 82b9 cbba 9cbe 2c1f ddb5 2bb4
00000050: 46b8 f839 64b9 a9b6 a53b 2237 292b 19c0
00000060: 05bd 5b35 45b4 cdc4 ad36 2cb8 2833 7c34
00000070: fbbf e4b1 d32f 5d30 b334 6eb4 f930 3d31
00000080: deab 6bc1 35c3 a5be b390 f135 df2f 162c
00000090: 9ab2 bf37 ff33 e1c1 71b7 562d 08b9 9934
000000a0: 7bbe 2934 36bd 2db4 05b0 ca25 5bc1 c9b1
000000b0: 612c 2bba cb2e 97c1 d434 d431 faa4 63c0
000000c0: 5332 ac36 a63b e539 19c2 f837 b4bb 3e34
000000d0: 812e 7030 1abc 37ac bbc0 ea35 163c 833a
000000e0: cf3d 922c cabc 8631 f4c1 26c0 a334 792d
000000f0: 5034 9baf 373a 5e30 b129 5cbc 12c2 e038
00000100: a03c a135 a232 43b8 d6b5 7136 a8b0 9fbc
00000110: 0d39 0bb1 cea4 1cac 1835 51b9 d536 9abd
00000120: d338 24be 4e34 dabd cec2 e0c4 e12c 7434
00000130: 7fbb d6b0 d4bf 6ca0 d8c0 abb9 3ca6 b8b2
00000140: b4ad 24b9 6635 e1c0 bab8 4126 5c31 962a
00000150: 86c0 582b ae2f 103b d93c 9f30 cdba cdc1
00000160: 1dc0 72b2 e82f afc4 2a3a 7a33 e1bc 5e33
00000170: 3cc0 692c 25ac 78b0 11b9 492f e6a2 ecae
00000180: 6eb6 b8c1 6bc3 4dbc 14a8 2038 6fac 8fb7
00000190: 3328 d436 14a6 88c1 a8b0 83bf 01be 7036
000001a0: bdc4 a2aa 9dba c330 f2b9 28bc 9abb bcba
000001b0: c637 b738 e6b1 89c2 88ae 7537 2fac 2cbe
000001c0: 30a4 2a39 0aa8 703d 2ec2 e135 d43a f7b0
000001d0: efb0 9db1 973a faac 92c2 10b1 5a39 0f3b
000001e0: 553d 4db4 35c0 19ad 5cc2 31c0 2736 9cab
000001f0: 2634 3ab3 4531 6a1c 52b5 0938 b8c1 69b6
1.91 0.477 0.3716 0.241 0.3018 0.05597 0.6455 -0.1003
-1.226 0.2898 0.0734 0.1666 0.4443 0.1686 0.9175 0.01309
1.115 -0.00745 0.4204 -1.359 -2.438 -4.445 0.2166 -0.4333
0.0528 0.1738 -0.0369 0.2482 -1.461 -0.762 0.3257 0.09357
-0.04675 0.091 -0.6885 -0.849 -1.652 0.007004 -0.3665 -0.2605
-0.534 0.746 -0.674 -0.4163 0.9556 0.4458 0.05594 -2.049
-1.255 0.3347 -0.2668 -4.8 0.4172 -0.5215 0.2236 0.2803
-1.995 -0.1841 0.12225 0.1364 0.2937 -0.2769 0.1554 0.1637
-0.06146 -2.709 -3.604 -1.661 -0.0005736 0.3713 0.123 0.06384
-0.2063 0.4841 0.2499 -2.94 -0.465 0.0834 -0.629 0.2874
-1.62 0.26 -1.303 -0.261 -0.1256 0.02261 -2.678 -0.1808
0.0684 -0.771 0.10614 -2.795 0.3018 0.1821 -0.01944 -2.193
0.1976 0.417 0.956 0.737 -3.049 0.498 -0.963 0.2651
0.1016 0.1387 -1.025 -0.06586 -2.365 0.3696 1.021 0.814
1.452 0.0714 -1.197 0.1726 -2.977 -2.074 0.2898 0.0855
0.2695 -0.11884 0.777 0.1365 0.04446 -1.09 -3.035 0.6094
1.156 0.3518 0.2073 -0.5327 -0.3647 0.4026 -0.1455 -1.155
0.6313 -0.1576 -0.01877 -0.0642 0.3184 -0.6646 0.427 -1.4
0.603 -1.535 0.269 -1.463 -3.402 -4.875 0.07623 0.2783
-0.937 -0.1511 -1.957 -0.00864 -2.422 -0.7085 -0.02435 -0.21
-0.0891 -0.6426 0.3374 -2.44 -0.591 0.02443 0.1675 0.05145
-2.262 0.05737 0.12 0.883 1.212 0.1444 -0.85 -2.9
-2.057 -0.2014 0.12354 -4.684 0.7705 0.2336 -1.22 0.2302
-2.117 0.0689 -0.06476 -0.1396 -0.6333 0.11383 -0.01347 -0.10815
-0.4019 -2.86 -3.709 -1.075 -0.03186 0.5156 -0.0693 -0.4724
0.0328 0.4268 -0.02374 -2.766 -0.1455 -1.878 -1.501 0.4023
-4.74 -0.05182 -0.8267 0.1488 -0.743 -1.039 -0.95 -0.842
0.4858 0.5894 -0.1843 -3.268 -0.10205 0.466 -0.06537 -1.543
-0.01636 0.6455 -0.03156 1.359 -3.09 0.3674 0.8535 -0.1552
-0.1542 -0.1754 0.8237 -0.07776 -3.285 -0.1582 0.669 0.8823
1.333 -0.2688 -2.104 -0.07965 -3.18 -2.096 0.3845 -0.05945
0.2593 -0.2258 0.1647 0.00431 -0.3325 0.5044 -2.86 -0.4006

fc2.bias f2 [64]
00000000: 8f2c 839e 1330 4026 f031 4c30 9926 362e
00000010: be2d 3da1 4728 e32b 142b 1ba9 7031 702c
00000020: e1a9 e1b0 032c ff8c eda1 f324 2e2c 3230
00000030: 912e 2d2d db2c 6a2b 4d2d 8c2d a328 3922
00000040: bbaa 8930 60b2 b92f eba9 5f2d 5eb1 2019
00000050: 4631 c92d 232e 4f2d acb0 c924 8da6 2623
00000060: 6b33 9230 d5b7 522a 992d 1a2d d229 c12d
00000070: 5530 1a2d 672f d831 1f31 789b fca5 432b
0.0712 -0.00636 0.1273 0.02441 0.1855 0.1343 0.02577 0.09705
0.0897 -0.01023 0.03342 0.0616 0.0553 -0.0399 0.1699 0.06934
-0.04593 -0.1525 0.0627 -0.000305 -0.01157 0.01933 0.0653 0.1311
0.1026 0.0809 0.07587 0.05792 0.0828 0.0867 0.03622 0.01215
-0.05258 0.1417 -0.1992 0.12067 -0.04623 0.0839 -0.1677 0.002502
0.1648 0.0904 0.0959 0.08295 -0.146 0.01869 -0.02559 0.01396
0.2318 0.1428 -0.4895 0.04938 0.08746 0.0797 0.04547 0.0899
0.1354 0.0797 0.11566 0.1826 0.16 -0.003647 -0.02338 0.05673

fc3.weight f2 [1, 64]
00000000: eda3 fa2f 762c 162f 9fa9 c3ad bda8 7baa
00000010: c22d dcaa f72d 86ab f030 59a7 bdad bd2c
00000020: 46ac a3ac 0f2f df30 1a2d 23a8 c0a7 43ac
00000030: 052c 73ad 552d 3ea4 36ac 30a5 352d b52d
00000040: bfac 85a6 cdad dba5 9da6 cb2d bfa0 332d
00000050: aca7 f4a5 cea8 8a2d bba9 b12c d9a8 562f
00000060: 7da8 42aa 9fa7 f62e 9e20 172d 67ad 6b29
00000070: bb2c 0d30 5fac 792c 09aa eda6 e0a9 4dac
-0.01548 0.12463 0.0697 0.1107 -0.0439 -0.09 -0.03702 -0.05063
0.08997 -0.0536 0.0932 -0.05878 0.1543 -0.0287 -0.08966 0.07404
-0.0668 -0.07245 0.1103 0.1522 0.0797 -0.03232 -0.03027 -0.0666
0.0628 -0.08514 0.0833 -0.01657 -0.0658 -0.02026 0.08136 0.0892
-0.07416 -0.02547 -0.09064 -0.02287 -0.02583 0.0905 -0.00927 0.08124
-0.02997 -0.02325 -0.03754 0.08655 -0.04477 0.0733 -0.03787 0.1146
-0.03506 -0.0489 -0.02977 0.10876 0.00902 0.0795 -0.0844 0.04233
0.0739 0.1266 -0.0683 0.0699 -0.04715 -0.02705 -0.0459 -0.0672
