chess_rust/src/chess_cnn_checkpoint_epoch_15.pt (torch, 342968 bytes, 13 tensors)

conv1.weight f4 [32, 6, 4, 4]
0	0xbef98b97	-0.4873931
1	0xbe4c6edf	-0.19964169
2	0xbe86873f	-0.2627506
3	0xbea04799	-0.31304625
4	0x3e08e6e3	0.13369326
5	0x3f07d16e	0.5305394
6	0xbf00b0d5	-0.50269824
7	0xbf20e4de	-0.62849224
8	0xbe45749b	-0.19282763
9	0x3d16d680	0.036825657
10	0x3ee06aaf	0.43831393
11	0xbe236776	-0.15957436
12	0x3d8a81a2	0.06763007
13	0x3e9573af	0.29189822
14	0x3dca3529	0.09873421
15	0x3da7dd96	0.08196561
16	0x3ec3d952	0.3825174
17	0x3e06390e	0.13107702
18	0x3e546267	0.20740663
19	0x3e1a1081	0.15045358
20	0x3d96f653	0.07371201
21	0x3de001fd	0.10937879
22	0x3eadc470	0.33938932
23	0x3e35214f	0.17688487
24	0x3eafcf1a	0.34337693
25	0x3e0761a4	0.1322084
26	0x3ea806e0	0.32817745
27	0xbc12fd91	-0.008971588
28	0xbd91173d	-0.070845105
29	0xbdf6613d	-0.120302655
30	0xbda75ded	-0.08172212
31	0x3e6b19ec	0.22959107
32	0x3da0ab2c	0.078451484
33	0xbe2a385a	-0.16623059
34	0xb95e4982	-0.00021198954
35	0xbf12930b	-0.5725562
36	0x3e3a3876	0.181856
37	0x3d9ffd10	0.0781194
38	0x3e0e1c28	0.13877928
39	0xbf0f8a5a	-0.5607048
40	0x3e1882dc	0.14893669
41	0x3ebf1630	0.37321615
42	0xbe9da56d	-0.30790272
43	0x3ea666b3	0.32500228
44	0x3e2b38b8	0.16720855
45	0xbd44d6e6	-0.048056506
46	0x3ed01ede	0.4064855
47	0xbeac1e76	-0.3361699
48	0x3e4afe02	0.19823459
49	0xbecb0105	-0.39649215
50	0x3d532af1	0.051554624
51	0x3ec46e0e	0.38365215
52	0x3d81739b	0.06320878
53	0xbd94b0d9	-0.072602935
54	0x3ca6170b	0.02027466
55	0x3eb3b233	0.35096893
56	0x3e56a82d	0.20962591
57	0xbea71f62	-0.3264113
58	0x3db5a1a9	0.08868725
59	0x3f06b06a	0.52612936
60	0x3e938634	0.28813326
61	0x3e7e7b1a	0.24851647
62	0x3e67a7c3	0.2262259
63	0x400e35ee	2.2220416
64	0xbe7652f2	-0.24055079
65	0xbe7bd5e0	-0.24593306
66	0xbe4764e5	-0.19472082
67	0x3e504bd0	0.2034142
68	0x3c4ec9e0	0.012621373
69	0xbe8bb01f	-0.27282807
70	0xbf0a5c31	-0.5404692
71	0x3f1a23db	0.6021096
72	0x39c95ddf	0.00038407647
73	0xbec13e29	-0.37742737
74	0xbe512c95	-0.20427163
75	0x3ee1c299	0.4409378
76	0x3de68092	0.112549916
77	0x3e3f0868	0.1865555
78	0x3a952a0a	0.0011380326
79	0x4019b1ab	2.401469
80	0x3f0d417b	0.5517804
81	0xbda10083	-0.07861426
82	0x3e061a03	0.1309586
83	0xbf27a737	-0.65489525
84	0x3e055013	0.13018827
85	0x3e993acf	0.2992768
86	0x3e8208a6	0.25397223
87	0x3eb6e784	0.35723507
88	0x3e15f964	0.14645916
89	0x3dc61665	0.0967224
90	0x3d0a1f8f	0.033721503
91	0xbcd9b650	-0.026576191
92	0x3e44c266	0.19214782
93	0x3e5ae16c	0.21375054
94	0x3dda3e29	0.10656387
95	0x3ea1fbfe	0.31637567
96	0x3f558f60	0.834219
97	0xbe093be9	-0.1340176
98	0x3ed89a91	0.42305425
99	0x3e5be5b5	0.21474345
100	0x3f4c195c	0.79726195
101	0xbe72d310	-0.23713326
102	0xbc254720	-0.010087758
103	0x3deae548	0.11469513
104	0xbdd4c7aa	-0.103896454
105	0xbf00d4c4	-0.50324655
106	0xbe173081	-0.14764597
107	0x3e1f8208	0.15576947
108	0x3da24a60	0.07924342
109	0x3f108f2c	0.5646846
110	0xbebfa61c	-0.3743142
111	0x3eaf6ad0	0.3426118
112	0x3d09ba74	0.03362508
113	0xbe67295d	-0.22574373
114	0x3e0c9b06	0.13731012
115	0xbe99846d	-0.29983845
116	0xbe01c6ae	-0.12673447
117	0xbe86b74b	-0.26311716
118	0xbe04d445	-0.129716
119	0xbe6286cb	-0.22121732
120	0x3d8fa03a	0.07012983
121	0x3e259d71	0.1617334
122	0xbf3a6634	-0.728122
123	0xbe8e61f2	-0.278091
124	0xbea69bee	-0.3254084
125	0xbe589716	-0.21151385
126	0xbdd84008	-0.10559088
127	0x3e22d574	0.15901738
128	0x3eb0f014	0.34558165
129	0x3e7cd4bd	0.24690528
130	0xbeb68ed9	-0.3565586
131	0x3d072978	0.032998532
132	0xbe00bded	-0.12572451
133	0x3e0197b1	0.12655522
134	0xbe624334	-0.22095948
135	0xbce1b466	-0.027551841
136	0x3f035b79	0.5131145
137	0xbe83f868	-0.25775456
138	0xbf171920	-0.5902271
139	0x3ec3bfbc	0.3823222
140	0xbefe9b26	-0.49727744
141	0x3e5ca5d7	0.21547638
142	0x3e1c1031	0.15240552
143	0x3ee9881b	0.45611653
144	0xbda73227	-0.08163863
145	0x3dc95b13	0.09831824
146	0xbdb08f64	-0.086210996
147	0xbd507343	-0.050891172
148	0xbf19c134	-0.6006043
149	0x3dc4fdb1	0.096187
150	0x3d1ae82a	0.037819065
151	0x3e9d6685	0.3074228
152	0xba92b685	-0.0011193311
153	0x3e684e8c	0.22686213
154	0xbcdddc02	-0.027082447
155	0x3d99c0d2	0.07507481
156	0xbeeff0ec	-0.46863496
157	0x3efca490	0.493443
158	0x3d92c666	0.07166748
159	0x3d9e51d8	0.07730454
160	0x3d8918b0	0.06694162
161	0x3e3d0ea4	0.18462616
162	0xbe3a41e9	-0.18189205
163	0x3e3f81e3	0.18701892
164	0x3e1a9d6d	0.15099116
165	0xbdb833e0	-0.08994269
166	0xbb30d281	-0.002698094
167	0x3e2f5262	0.1712127
168	0x3e2c9877	0.16855036
169	0xbc8a58c2	-0.016888026
170	0xbb89ef3f	-0.0042094286
171	0x3e1e19cb	0.15439527
172	0x3e03b495	0.12861855
173	0x3e7ce841	0.24697973
174	0x3e3ec8ef	0.18631338
175	0x3eb1821a	0.34669572
176	0x3f807869	1.0036746
177	0x3f9e5a41	1.2371293
178	0x3ef58ec5	0.47960487
179	0x3f1897a0	0.5960636
180	0x3f887901	1.0661927
181	0x3f4296ed	0.76011544
182	0x3ed97527	0.42472193
183	0x3e9d370d	0.30706063
184	0xbd81074a	-0.063002184
185	0x3ecf3662	0.40471178
186	0x3e358981	0.17728235
187	0xbe2d5686	-0.16927537
188	0x3f27ea94	0.6559231
189	0x3e0e1dc6	0.13878545
190	0x3d971836	0.07377665
191	0xbe37d899	-0.17953719
192	0x3ebf3420	0.37344456
193	0x3e93c7d4	0.28863394
194	0x3e597326	0.21235332
195	0x3e8ce861	0.2752104
196	0x3e60e936	0.21963963
197	0xbc8fc99f	-0.017552195
198	0x3dd80e39	0.10549588
199	0x3c242410	0.010018364
200	0x3e9d42b5	0.30714956
201	0xbd8225ed	-0.0635489
202	0x3e753203	0.23944859
203	0x3e4a3188	0.19745457
204	0x3e62d7dc	0.22152656
205	0x3e8cafc5	0.27477852
206	0xbe2d6756	-0.16933951
207	0x3e9a5122	0.30140024
208	0x3d2ca68a	0.04215101
209	0x3f0535d6	0.5203527
210	0x3e806366	0.25075835
211	0x3eaf1202	0.34193426
212	0x3e52ca41	0.20584966
213	0x3d219c46	0.039455675
214	0x3eb21223	0.34779462
215	0x3e318409	0.17335524
216	0xbe6cc6fe	-0.23122784
217	0x3e94ab50	0.2903695
218	0x3e822a4e	0.254229
219	0x3e341e83	0.17589764
220	0x3e57aaab	0.21061198
221	0x3ebd768a	0.370045
222	0xbc891124	-0.016731806
223	0x3ef72f3f	0.48278233
224	0x3e87c1f9	0.26515177
225	0x3e9756fe	0.29558557
226	0xbf40190e	-0.7503823
227	0x3e49a53c	0.19691938
228	0x3dff4fbc	0.1246638
229	0x3e8a6c8f	0.2703595
230	0x3d3f2356	0.04666456
231	0x3d7dd9e4	0.061975375
232	0xbe5e4cb3	-0.21708946
233	0x3e0a5d74	0.13512212
234	0xbefb2906	-0.49054736
235	0xbcd239bb	-0.025662294
236	0x3db6c96e	0.089251384
237	0xbe3e8fb7	-0.1860951
238	0x3cf11176	0.029427271
239	0x3e26ceb6	0.16289791
240	0xbd0e9e36	-0.03481885
241	0x3f74a497	0.95563644
242	0x3edab3b0	0.42715216
243	0x3fac74e0	1.3473167
244	0x3d2c2fa8	0.042037636
245	0x3f026a9a	0.5094391
246	0x3eca7418	0.39541698
247	0x3f90c163	1.1309017
248	0x3ee8858f	0.45414397
249	0x3f115c28	0.56781244
250	0x3dca076d	0.098646976
251	0xbc5a8491	-0.01333727
252	0x3e6c4849	0.2307445
253	0x3ea443fd	0.3208312
254	0x3e7b4ed5	0.24541791
255	0x3ecdebe2	0.40219027

conv1.bias f4 [32]
0	0xbf05e4a3	-0.52301997
1	0x3d704bf1	0.058666173
2	0xbea9418c	-0.3305782
3	0xbe80c1ac	-0.2514776
4	0x3e03873e	0.1284456
5	0xbe7d325b	-0.2472624
6	0x3de1c823	0.11024501
7	0x3e45bba1	0.19309856
8	0x3dc11b09	0.09428985
9	0xbea214c7	-0.31656477
10	0xbd4c8edc	-0.04994093
11	0xbe664996	-0.22489008
12	0x3eb996d3	0.36247882
13	0x3d822cda	0.06356211
14	0x3cb7df35	0.0224453
15	0x3e0616ed	0.13094683
16	0x3ebf1354	0.37319434
17	0xbe26de85	-0.16295822
18	0x3ed63f29	0.41845062
19	0xbed88cb7	-0.42294857
20	0xbec8d014	-0.3922125
21	0xbf233a41	-0.63760763
22	0x3e5e3ac4	0.21702105
23	0xbe22e3e8	-0.15907252
24	0xbf87a705	-1.0597845
25	0x3f0933cb	0.53594655
26	0xbd9f8e98	-0.077908695
27	0xbe2f38c6	-0.17111501
28	0xbf755679	-0.9583507
29	0xbd9d4c59	-0.07680578
30	0x3e6a2670	0.22866225
31	0xbe64e1e7	-0.223518

conv2.weight f4 [32, 32, 3, 3]
0	0xbdacc1f2	-0.0843543
1	0xbda730a6	-0.08163576
2	0xbd9f3983	-0.07774641
3	0x3cc4a832	0.024005983
4	0xbb4c18ca	-0.0031142705
5	0xbbb27295	-0.005445788
6	0xbdd4e686	-0.10395531
7	0x3cea4890	0.028599054
8	0x3d7f20f1	0.062287275
9	0xbda8c382	-0.08240415
10	0x3cdafdab	0.026732286
11	0xbdb9d3cf	-0.090736024
12	0x3c6796ca	0.014135072
13	0xbd1eb57f	-0.038747307
14	0xbd83134d	-0.06400166
15	0xbda78d80	-0.08181286
16	0xbe175e98	-0.14782178
17	0xbd811ce1	-0.06304336
18	0xbd888a03	-0.06666949
19	0x3d4add7c	0.04952763
20	0xbb313e18	-0.0027045067
21	0x3d2df82e	0.04247301
22	0xbc83cec7	-0.01608981
23	0xbcaaa682	-0.02083135
24	0xbd777eb2	-0.06042356
25	0xbdc26123	-0.094911836
26	0xbdd97506	-0.106180236
27	0x3d277340	0.040881395
28	0xbcf0fde0	-0.029417932
29	0xbc3f0f0d	-0.011661303
30	0xbdb210d9	-0.0869462
31	0xbd631aa9	-0.055445347
32	0xbd3cdd75	-0.046109635
33	0x3c94bdb5	0.018156866
34	0xbc9cf890	-0.019161493
35	0x3cbf3db0	0.023344845
36	0xbe0528f0	-0.13003898
37	0xbd487a15	-0.04894455
38	0xbd813453	-0.06308808
39	0xbc94a627	-0.018145634
40	0xbd90c22d	-0.07068286
41	0xbdbdf0f1	-0.092744716
42	0xbd543024	-0.051803723
43	0xbdb081c4	-0.08618501
44	0xbc3dbbf8	-0.01158046
45	0xbe2447e5	-0.1604305
46	0xbe01a04e	-0.12658808
47	0xbdf3f85f	-0.119126074
48	0xbe26bb20	-0.1628232
49	0xbe10962a	-0.14119783
50	0xbdfd7754	-0.12376276
51	0xbc75d125	-0.015003477
52	0xbda9ce5c	-0.08291313
53	0xbd8c969e	-0.068646654
54	0xbbc964d6	-0.006146054
55	0xbdcc0141	-0.09961177
56	0xbe123a08	-0.1427995
57	0xbe2feecb	-0.17180936
58	0xbae6b19d	-0.001760054
59	0xbd9dbf82	-0.07702543
60	0xbdb3bbc3	-0.08776047
61	0xbe135d22	-0.14390996
62	0xbd928af8	-0.071554124
63	0xbda69fe7	-0.08135968
64	0x3d08d937	0.033410277
65	0xbd88b804	-0.06675723
66	0xbcca09da	-0.0246629
67	0xbd31b647	-0.043386724
68	0x3d089737	0.033347335
69	0xbd350bf2	-0.044200845
70	0xbd7bbdc0	-0.061460257
71	0x3cdcc568	0.0269496
72	0xbd87966f	-0.0662049
73	0x39c67b1d	0.0003785723
74	0x3c1941bf	0.009354054
75	0xbda1576b	-0.07878002
76	0xbd5029e8	-0.050821215
77	0xbcb45688	-0.022013918
78	0xbe0b4b88	-0.13603032
79	0xbdbce7b5	-0.09223882
80	0x3c1cce89	0.009570726
81	0x3d4d7a07	0.050165202
82	0xbdd6ff5f	-0.10497927
83	0xbdebba86	-0.11510186
84	0x3d691c68	0.056911856
85	0xbdd8da6f	-0.10588538
86	0x3cd4a7d4	0.025958933
87	0xbdef15fb	-0.11674114
88	0x3c099903	0.008398297
89	0xbc3d6d1d	-0.011561659
90	0x3b493f4d	0.0030707896
91	0xbdd58518	-0.10425776
92	0x3d4ce819	0.050026033
93	0xbb08dc64	-0.0020883316
94	0xbda39a1d	-0.07988379
95	0xbd0cc0b8	-0.03436348
96	0xbd6e75c5	-0.058217783
97	0xbd9bec41	-0.07613421
98	0xbe0f4a4f	-0.1399319
99	0xbd0b5845	-0.034019727
100	0xbddc762d	-0.10764728
101	0x3d5326fd	0.051550854
102	0x3d804110	0.0626241
103	0xbc6cd770	-0.014455661
104	0xbdb0f788	-0.08640963
105	0x3daa99c8	0.08330113
106	0x3d168f37	0.036757674
107	0x3c91ece6	0.017813157
108	0xbdfaaf8b	-0.122405134
109	0xbca48f8b	-0.020087978
110	0xbd37f354	-0.04490979
111	0xbe036b16	-0.12833819
112	0xbdf5e5e1	-0.120067365
113	0xbd95ce10	-0.07314694
114	0xbdeb2642	-0.114819065
115	0xbe037ffa	-0.12841788
116	0xbe0a62a5	-0.13514192
117	0xbdcee129	-0.1010154
118	0xbdd78052	-0.10522522
119	0xbceedc3a	-0.029157747
120	0xbdb83f2c	-0.08996424
121	0xbdae847e	-0.08521365
122	0xbe003d14	-0.125233
123	0xbd6cd2c7	-0.0578182
124	0xbe0f734d	-0.14008828
125	0xbd7adb80	-0.061244488
126	0xbcbc6b59	-0.023000406
127	0xbe0a8d03	-0.13530354
128	0xbd6ca47f	-0.057774063
129	0xbd43975c	-0.04775177
130	0xbd1f1763	-0.038840663
131	0xbd5185d3	-0.051153015
132	0xbd7555c3	-0.059896242
133	0xbd9a1bb8	-0.07524818
134	0xbdca6637	-0.09882777
135	0xbd6df49e	-0.058094613
136	0xbdc375d6	-0.0954396
137	0xbdebaf96	-0.115081
138	0xbd949690	-0.0725528
139	0xbcbd18b2	-0.023083065
140	0xbdc0d902	-0.09416391
141	0xbe2627c7	-0.16226111
142	0xbdd7e3a3	-0.10541465
143	0xbd4894d5	-0.048970062
144	0xbd167b20	-0.036738515
145	0xbcf25609	-0.02958204
146	0xbd92ecf6	-0.07174103
147	0xbd4556de	-0.048178546
148	0xbd1cfce3	-0.03832711
149	0x3c02765f	0.007962792
150	0xbce61104	-0.028084286
151	0xbdb7fa0c	-0.089832395
152	0xbdbfc495	-0.09363667
153	0xbd973e13	-0.073848866
154	0xbd394c01	-0.0452385
155	0xbdc6ae82	-0.097012535
156	0xbcbb4b0c	-0.022862934
157	0xbdc60c81	-0.09670354
158	0xbdb06b92	-0.086142674
159	0xbd64912a	-0.0558025
160	0xbd81bde7	-0.06335049
161	0xbd676af9	-0.0564985
162	0xbd50d33f	-0.05098271
163	0xbc97bcc5	-0.01852263
164	0xbc23f6eb	-0.0100076
165	0xbd2ce9b4	-0.042215064
166	0xbd72009e	-0.05908262
167	0xbd90eb95	-0.07076184
168	0xbd40ddd9	-0.04708657
169	0xbd84ef7c	-0.064909905
170	0xbd211de4	-0.039335147
171	0xba470857	-0.00075924903
172	0xbd6001c8	-0.0546892
173	0x3af614db	0.0018774526
174	0xbdd14b2c	-0.10219416
175	0xbda1abcd	-0.078940965
176	0xbd832d8c	-0.06405172
177	0xbd9a04c1	-0.07520438
178	0xbd72d5d0	-0.05928594
179	0xbe03c254	-0.12867099
180	0xbd7d6354	-0.061862305
181	0xbddc4a48	-0.107563555
182	0xbd2c7e02	-0.042112358
183	0xbd6b593a	-0.05745814
184	0x3da00105	0.078126945
185	0x3d2e12a4	0.042498246
186	0xbdd2e877	-0.102982454
187	0x3db87006	0.09005742
188	0xbbf7ccaf	-0.007562242
189	0xbd8487b5	-0.064711966
190	0xbdc303ef	-0.09522235
191	0xbdb9a1a9	-0.09064037
192	0xbb249fe7	-0.0025119723
193	0xbde0e4c2	-0.10981132
194	0x3ceb206f	0.028701989
195	0xbd85968f	-0.065228574
196	0xbdd692e6	-0.104772374
197	0x3dac8c96	0.08425252
198	0xbdc5c4ac	-0.09656653
199	0x3cc58ca8	0.024114922
200	0x3a423327	0.0007408135
201	0x3cb6b3cd	0.022302533
202	0xbd9c6f62	-0.07638432
203	0xbd2bc481	-0.041935448
204	0xbdc02615	-0.093822636
205	0xbe020a22	-0.12699178
206	0xbdf79f3a	-0.12090917
207	0xbcb87070	-0.022514552
208	0xbc82e0a7	-0.015976263
209	0xbd922368	-0.071356595
210	0xbd5c78a8	-0.053826004
211	0xbb9e6ebc	-0.004834978
212	0xbdf735cb	-0.12070807
213	0xbd1212ff	-0.035662647
214	0x3cf50de1	0.029913845
215	0x3cd8d379	0.026468026
216	0xbdac3743	-0.08408978
217	0x3cd09c5e	0.025465187
218	0xbc2d5c18	-0.010581039
219	0x3d95a502	0.07306863
220	0xbd60f84c	-0.054924294
221	0xbdba02d2	-0.09082569
222	0x3d39d65e	0.045370452
223	0xbce074d5	-0.02739946
224	0x3bfe11ef	0.0077536027
225	0xbd5beb95	-0.053691465
226	0xbd08a4bd	-0.03336023
227	0xbde90b4b	-0.11379107
228	0xbdc87d5c	-0.097895354
229	0xbdaec6c3	-0.085340045
230	0x3cbd50bc	0.023109786
231	0xbdf3f7e9	-0.119125195
232	0xbdb30ca3	-0.08742645
233	0xbbbd8ed7	-0.00578485
234	0xbd0a39fb	-0.0337467
235	0xbc55eff5	-0.0130576985
236	0xbde12fd5	-0.10995451
237	0x3cb90695	0.022586146
238	0xbd4e6dcd	-0.050397683
239	0xbc8d79a4	-0.017269917
240	0x3ad7ab82	0.0016454312
241	0xbdff945e	-0.12479471
242	0xbdb54a33	-0.08852043
243	0x3d64cfc3	0.0558622
244	0xbdbf5c4c	-0.09343776
245	0xbc989927	-0.018627716
246	0xbd23e8ee	-0.04001706
247	0x3bb09f0a	0.0053900527
248	0xbc34eedf	-0.011043279
249	0x3cd74973	0.02628014
250	0xbbacfaaa	-0.005278905
251	0xbcc211c7	-0.023690118
252	0x3d13388e	0.035942607
253	0x3c45a553	0.012063342
254	0xbe0df9fe	-0.13864896
255	0xbd0c69fd	-0.034280766

conv2.bias f4 [32]
0	0xbe1e0d9c	-0.15434879
1	0xbf41aedb	-0.75657433
2	0xbe0f3e03	-0.139885
3	0x3d9fd4c7	0.07804256
4	0xbe9c2474	-0.30496562
5	0x3e4a5b06	0.19761285
6	0xbf94eeed	-1.1635414
7	0x3f0a0860	0.5391903
8	0xbd525165	-0.051347155
9	0xbcfb2c6b	-0.030660829
10	0x3d92f818	0.071762264
11	0xbf9e0f47	-1.2348412
12	0xbd8abf74	-0.06774798
13	0x3e76af90	0.2409041
14	0xbf77ccce	-0.9679688
15	0xbec6c1b1	-0.3881965
16	0xbdc34fdd	-0.09536717
17	0x3e4e62e8	0.20154917
18	0x3eff5e9a	0.49876863
19	0xbe4b0ac5	-0.19828327
20	0xbdcd38e0	-0.10020614
21	0x3e8b5729	0.27214935
22	0xbf810879	-1.0080711
23	0xbf990cb0	-1.1956997
24	0x3f2f1287	0.68387645
25	0xbf859ca2	-1.0438426
26	0xbe752f04	-0.23943716
27	0xbf1201f8	-0.57034254
28	0xbdb54d06	-0.08852582
29	0xbfa98e5e	-1.3246572
30	0xbb990c02	-0.004670621
31	0xbd711c54	-0.058864906

conv3.weight f4 [64, 32, 3, 3]
0	0xbe73650e	-0.23769018
1	0xbdbb2cc1	-0.091393955
2	0xbdaad4ce	-0.083413705
3	0xbd86d5cf	-0.065837495
4	0xbdafdd11	-0.08587087
5	0xbcbd3bdd	-0.023099834
6	0xbcf3baac	-0.029752098
7	0xb907a8d6	-0.000129375
8	0xbd7d8966	-0.06189861
9	0xbf35f511	-0.71077067
10	0xbe979b8e	-0.29610866
11	0x3f023070	0.5085516
12	0xbfa90de1	-1.320736
13	0xbff5a252	-1.9190161
14	0xbedaff37	-0.42772838
15	0xbc28cb82	-0.010302426
16	0xbe640de7	-0.22270928
17	0x3d3ae89a	0.045631982
18	0xbd890fe7	-0.06692486
19	0x3bbbb753	0.005728641
20	0x3e0f0ef3	0.13970546
21	0x3e1b5337	0.15168463
22	0x3f6b2f30	0.9186888
23	0xbee5a25d	-0.44850436
24	0x3f4ef70a	0.808457
25	0xbee5720c	-0.44813573
26	0x3f7a8fe9	0.9787584
27	0x3e18abb3	0.14909248
28	0xbeb08007	-0.34472677
29	0x3dd15427	0.10221129
30	0xbeb387a2	-0.35064417
31	0xbc99ece8	-0.018789724
32	0xbf5ebc71	-0.8700629
33	0x3e9f6954	0.31135046
34	0xbef755a1	-0.48307517
35	0xbe1710e4	-0.14752537
36	0xbe1e4361	-0.1545539
37	0xbd61852a	-0.055058636
38	0xbea94c16	-0.3306586
39	0x3e3549ce	0.17703936
40	0x3f318bc5	0.69353896
41	0x3c853122	0.01625878
42	0xbe3ef704	-0.18648916
43	0x3ec0b37e	0.37636942
44	0xbf7dc0f2	-0.99122536
45	0xbd825576	-0.06363957
46	0x3ec4d1fb	0.38441452
47	0xbde13707	-0.10996824
48	0xbf4bc554	-0.79597974
49	0xbdff61e4	-0.12469843
50	0xbeea4f5f	-0.4576368
51	0xbdd4db66	-0.103934094
52	0xbf5cdf46	-0.8627819
53	0xbe1d0b3f	-0.15336321
54	0xbf1a10eb	-0.60182065
55	0xbe241973	-0.16025333
56	0xbf287adc	-0.6581247
57	0x3c52e212	0.012871282
58	0x3dfeb07c	0.124360055
59	0x3ef87a9b	0.4853104
60	0x3f76734c	0.9626968
61	0xbee900fe	-0.4550857
62	0x3f2cb90e	0.6746987
63	0x3ea42de1	0.32066253
64	0x3ef02834	0.46905673
65	0x3e0b2711	0.13589121
66	0xbe5cafd5	-0.2155145
67	0x3d5319e4	0.051538363
68	0xbf128c09	-0.57244927
69	0x3df060b6	0.11737196
70	0xbe564c5a	-0.20927563
71	0x3f310db2	0.6916152
72	0xbd47b061	-0.048752192
73	0x3b857b43	0.004073532
74	0xbd20275c	-0.039100036
75	0xbbedbd4e	-0.007255233
76	0xbd880b1e	-0.066427454
77	0xbd0f3ad5	-0.034968216
78	0x3c5ea702	0.013589622
79	0xbc8af978	-0.01696466
80	0x3d0e79f4	0.034784272
81	0xbd271b6b	-0.040797632
82	0xbd118eb6	-0.03553649
83	0xbdd3dbe8	-0.10344678
84	0xbd371b75	-0.04470392
85	0xbd8b58e4	-0.06804064
86	0x3c99f4d6	0.018793505
87	0xbca67146	-0.020317685
88	0xbc083d26	-0.00831536
89	0xbced7557	-0.028986616
90	0xbf280e08	-0.6564641
91	0xbf806328	-1.003026
92	0xbf1b0f23	-0.6056997
93	0xbed7263f	-0.42021367
94	0xbf93b47b	-1.1539453
95	0xbf33268d	-0.699807
96	0xbe68f698	-0.22750318
97	0xbe323fa5	-0.17407091
98	0x3e39e5f9	0.18154134
99	0xbe0be93c	-0.1366319
100	0x3e8e43b7	0.27786037
101	0x3f3cd61c	0.73764205
102	0xbe384d86	-0.17998323
103	0xbdfe2c72	-0.12410821
104	0xbdcf0e1c	-0.10110113
105	0x3f0af4af	0.5427961
106	0x3ec4f869	0.38470772
107	0x3f69f8e4	0.913954
108	0xbcda9cb1	-0.026686044
109	0xbd19516f	-0.037431177
110	0x3d271b5c	0.040797576
111	0xbd79ff80	-0.06103468
112	0x3c797582	0.01522577
113	0xbd55bb0d	-0.05218034
114	0xbd171fee	-0.036895685
115	0x3cd2e81b	0.025745442
116	0xbcfeaed8	-0.031089231
117	0xbf320d4a	-0.6955153
118	0xbe92a59f	-0.28641984
119	0x3ef81ade	0.48457998
120	0xbeba0fff	-0.3634033
121	0xbee27804	-0.4423219
122	0xbebbc706	-0.3667528
123	0x3f9162b3	1.1358246
124	0x3ea3ef31	0.32018426
125	0xbed719ac	-0.42011774
126	0xbe95d344	-0.29262745
127	0x3e5c43bd	0.21510215
128	0x3f22fe19	0.6366897
129	0x3dfaf600	0.12253952
130	0x3efa3d2b	0.48874792
131	0x3dd4e5aa	0.103953674
132	0xbcb81f26	-0.02247579
133	0xbf19cc2c	-0.60077167
134	0x3f3c8757	0.7364401
135	0x3f11413e	0.56740177
136	0x3f349bf5	0.7055047
137	0x3f283e9b	0.6572053
138	0x3e92f02a	0.28698856
139	0x3f0deaa5	0.55436164
140	0x3dbfb2e6	0.09360294
141	0x3d4669fa	0.04844091
142	0x3e01d4a7	0.12678777
143	0x3eb3b25d	0.35097018
144	0x3d60dcae	0.054897957
145	0x3cbd9568	0.023142532
146	0x3d400bed	0.046886373
147	0x3d9fc343	0.07800915
148	0xbce838fc	-0.028347485
149	0xbd27f2f0	-0.041003168
150	0xbd54a869	-0.05191842
151	0xbd95c712	-0.0731336
152	0xbc1c76c7	-0.009549803
153	0xbf2a0cc2	-0.66425717
154	0xbe981ec2	-0.29710966
155	0xbf60240a	-0.8755499
156	0xbe83a009	-0.25708035
157	0xbebbf2b1	-0.36708596
158	0xbdfecc63	-0.124413274
159	0x3fa154e9	1.2604038
160	0x3f502569	0.81307083
161	0x3c1bdddf	0.009513347
162	0x3e98e178	0.2985952
163	0x3f271c4e	0.65277565
164	0x3dfb68cc	0.12275848
165	0x3e73364c	0.23751181
166	0xbee1dafd	-0.44112387
167	0xbf60e829	-0.8785425
168	0xbf0782c0	-0.52933884
169	0xbf256ec6	-0.6462215
170	0x3f7e64b7	0.9937243
171	0x3f00a167	0.5024628
172	0xbdeff965	-0.1171749
173	0xbfc68351	-1.5508825
174	0x3ebd3408	0.3695376
175	0x3da577ef	0.08079516
176	0xbecb5e6f	-0.39720485
177	0x3fd1f4c3	1.640282
178	0xbf6dd415	-0.92901736
179	0x3af99a8e	0.0019043253
180	0xbc61d7a2	-0.013784321
181	0xbd70f09b	-0.05882321
182	0xbd695dbb	-0.056974154
183	0x3cf71229	0.030160027
184	0xbd603d1f	-0.05474579
185	0xbda8f6ca	-0.08250196
186	0x3d48ab64	0.048991576
187	0xbc934c42	-0.017980698
188	0xbd754aca	-0.059885778
189	0xbfd96ca0	-1.6986275
190	0xbd1bcdf0	-0.038038194
191	0xbf063159	-0.5241905
192	0xbe07a7b0	-0.13247561
193	0x3eab16ea	0.3341592
194	0x3cc027e0	0.023456514
195	0x3f9c7523	1.2223247
196	0xbcaeebb4	-0.021352626
197	0x3e185058	0.14874399
198	0x3ec54cc6	0.38535136
199	0x3e3cafd4	0.18426448
200	0x3e1ae8e1	0.15127899
201	0x3df00bef	0.11721026
202	0x3efef75f	0.49798104
203	0x3d00ad4f	0.03141528
204	0x3f20ffe5	0.62890464
205	0xbef18c5c	-0.47177398
206	0x3f238c73	0.63886184
207	0x3ef75de9	0.48313835
208	0x3d821793	0.06352153
209	0xbece722b	-0.40321478
210	0x3e2b0939	0.16702737
211	0x3ecafae7	0.39644548
212	0x3f1fb1ff	0.62380975
213	0x3ece3b1c	0.40279472
214	0xbe4d214a	-0.2003223
215	0xbd7e36aa	-0.06206385
216	0x3f4dd10b	0.803971
217	0xc02ca4dd	-2.6975625
218	0x3f27c375	0.6553262
219	0x3f24129a	0.64090884
220	0xbfb3fb1b	-1.4061006
221	0x3e8d4a4e	0.27595752
222	0xbeeaf175	-0.45887342
223	0xbc5910a8	-0.0132486
224	0x401db302	2.4640508
225	0xbe5b761c	-0.21431774
226	0x3dda8caa	0.10671361
227	0xbe97354b	-0.29532847
228	0x3eb25664	0.34831536
229	0x3e538627	0.20656644
230	0xbe14278c	-0.14468211
231	0xbf3019e5	-0.6878951
232	0xbe589cd9	-0.21153583
233	0x3ef95807	0.48699972
234	0xbebae1eb	-0.36500487
235	0xbe438a0d	-0.19095631
236	0xbe92eb6f	-0.28695247
237	0xbf47a4f9	-0.77986103
238	0x3e07a29d	0.13245626
239	0x3e39a020	0.18127489
240	0xbe939f7f	-0.28832623
241	0xbea9d55f	-0.33170602
242	0xbdd4ae31	-0.10384787
243	0x3e9cf606	0.3065645
244	0xbefbb5dc	-0.49162185
245	0x3f2911f2	0.6604301
246	0xbe9b360b	-0.3031467
247	0xbe7a1372	-0.2442148
248	0x3f96b757	1.1774701
249	0x3ea78f18	0.3272636
250	0xbe491254	-0.19635898
251	0x3fa6e709	1.3039256
252	0x3cacdaca	0.02110042
253	0x3d86ea0f	0.06587612
254	0x3ad2499e	0.0016043668
255	0xbcacacce	-0.021078493

conv3.bias f4 [64]
0	0xbe7f93e4	-0.2495876
1	0xbd8c9457	-0.06864231
2	0xbe9fa179	-0.3117788
3	0xbf81469b	-1.0099672
4	0xbf25a419	-0.6470352
5	0xbddf2fac	-0.108977646
6	0x3f46bdea	0.77633536
7	0x3da173de	0.07883428
8	0xbfa998d1	-1.3249761
9	0xbf992627	-1.1964768
10	0xbeb2a13d	-0.3488864
11	0x3fdfb598	1.7477293
12	0x3e54a2de	0.20765254
13	0xbfadf615	-1.3590723
14	0xbf3fb250	-0.7488146
15	0xbdb60147	-0.088869624
16	0x3e89e8f4	0.26935542
17	0xbfa1b59d	-1.2633549
18	0x3f8f55cd	1.1198059
19	0xbdad4365	-0.0846012
20	0x3c2c26fd	0.010507342
21	0xbf937be4	-1.1522183
22	0xc006d825	-2.1069424
23	0x3ee1662f	0.44023272
24	0xbd2f98c5	-0.0428703
25	0x3f62a219	0.8852859
26	0x3f388490	0.72077274
27	0xbdbef456	-0.09323947
28	0xbfa32d9e	-1.2748296
29	0x3f076039	0.528812
30	0xbef64cfe	-0.48105615
31	0x3e0223bb	0.12708943
32	0xbdd47df3	-0.103755854
33	0xbe00bbab	-0.1257159
34	0xc026fdc9	-2.6092398
35	0xbdd02804	-0.101638824
36	0x3e125115	0.14288743
37	0xbe138745	-0.1440707
38	0x3f8d417e	1.1035612
39	0xbee2b502	-0.44278723
40	0xbf4fe31a	-0.81205904
41	0xbe82c8d9	-0.2554386
42	0xbe3b7736	-0.18307194
43	0x3f89d548	1.0768213
44	0x3f8b988e	1.0905931
45	0xbf21b4eb	-0.63166684
46	0xbf0ed246	-0.557896
47	0x3cd85689	0.02640845
48	0xbe64bf56	-0.22338614
49	0x3e1eb17f	0.15497397
50	0x400b3a34	2.1754274
51	0xbf9ca199	-1.2236816
52	0x3f5db641	0.8660622
53	0xbbbdacb6	-0.005788411
54	0xbfe8d7f5	-1.8190905
55	0xbf803ce3	-1.0018581
56	0xbf3fa77f	-0.74864954
57	0xbff14ee8	-1.8852205
58	0xbdca2123	-0.098696016
59	0xbdf70d62	-0.120630994
60	0xbda076f9	-0.07835192
61	0xbda8a41d	-0.08234427
62	0xbf8d2925	-1.1028181
63	0xbf7f0de2	-0.9963056

conv4.weight f4 [64, 64, 3, 3]
0	0x4005b8d8	2.089407
1	0x3f57f6be	0.84360874
2	0x3f25e7cb	0.64806813
3	0x3f8b9d9d	1.0907475
4	0x3f8448c1	1.0334703
5	0x3f6f3ca2	0.93451893
6	0x3f24ea0d	0.64419633
7	0x3f0c0642	0.5469705
8	0x3f7c15c9	0.9847074
9	0x3ce882a8	0.028382614
10	0x3c9d6f3e	0.019218083
11	0x3d29b5fe	0.041433327
12	0xbb62ffc0	-0.0034637302
13	0xbbaabbb9	-0.0052103666
14	0x3c80f1c7	0.015740288
15	0x3aff9256	0.0019498568
16	0xbceb58ab	-0.028728804
17	0xbd084e50	-0.03327781
18	0x3fc3b23d	1.5288769
19	0x3fc6f80f	1.5544451
20	0x3d7b91a7	0.0614182
21	0x3c3aeb82	0.0114086885
22	0xbe20fea1	-0.15722133
23	0x3f8e5556	1.1119792
24	0xbe37639c	-0.17909092
25	0x3f089de9	0.5336595
26	0x3feea110	1.8642902
27	0x3f52093b	0.82045335
28	0x3fe4cc19	1.7874786
29	0x3eda7890	0.42670107
30	0x3f2776e9	0.6541582
31	0x3f09f949	0.53896004
32	0x3fa79449	1.3092128
33	0x3f72a17d	0.9477766
34	0x3f4ce7f8	0.80041456
35	0x3fca6a5a	1.5813706
36	0x3fa3f090	1.2807789
37	0x3f8950eb	1.0727819
38	0x3dc00316	0.093755886
39	0xbe86102f	-0.26184222
40	0xbf80264f	-1.0011691
41	0x3c10f6c4	0.008847896
42	0x3e71153d	0.23543258
43	0x3c564c28	0.0130796805
44	0x3d2815b9	0.04103634
45	0x3d187436	0.037220202
46	0x3cd60f2e	0.026130285
47	0xbbcf9bd6	-0.0063357158
48	0x3d183a68	0.037165076
49	0x3ce3d71b	0.027812531
50	0xbd192f28	-0.037398487
51	0x3d173988	0.0369201
52	0xbc8b3b00	-0.016995907
53	0x3c3c7206	0.011501795
54	0x3f904dbd	1.1273724
55	0x3ed4510e	0.4146809
56	0x3ebc4998	0.36774898
57	0xbe5e28c7	-0.21695243
58	0xbf76503f	-0.96216196
59	0x3f04d64b	0.51889485
60	0xbe1bb6ce	-0.15206453
61	0xbf457452	-0.77130616
62	0x3caa3453	0.020776903
63	0xbdead1e8	-0.11465818
64	0xbee446b1	-0.44585183
65	0x3dc6f193	0.097140454
66	0x3f8eb701	1.1149598
67	0xbe6a11f3	-0.2285841
68	0xbe96a4ab	-0.29422507
69	0x3f5c1cef	0.8598165
70	0x3f2d4cde	0.67695415
71	0x3e118969	0.14212574
72	0x3ff8d026	1.9438522
73	0x3f9de5d7	1.2335767
74	0x3f4aaffd	0.79174787
75	0x3fd6946e	1.6764047
76	0xbbc73cb5	-0.006080235
77	0x3f7e4f5f	0.9933986
78	0x3f43aff1	0.7644034
79	0x3f22adf4	0.6354668
80	0x3f728868	0.9473939
81	0x3f7a8df8	0.9787288
82	0x3f27707f	0.6540603
83	0xbbe50884	-0.0069895405
84	0x3f67203c	0.9028356
85	0xbd8f62e0	-0.07001281
86	0x3e5224f2	0.20521906
87	0x3ee3f87c	0.44525516
88	0x3eff1011	0.49816945
89	0x3ee2ba8e	0.44282955
90	0x3f3d9c09	0.74066216
91	0x3ef67280	0.48134232
92	0x3f18665f	0.59531206
93	0x3f0c5c81	0.5482865
94	0x3e247ee5	0.16064031
95	0x3d7e03e8	0.062015444
96	0x3f2b2cb8	0.6686511
97	0xbed1899c	-0.409253
98	0xbe6d0c5e	-0.23149249
99	0xbe0e46e3	-0.13894229
100	0xbf161e13	-0.5863964
101	0x3f0aae96	0.54172647
102	0x3da004f2	0.07813443
103	0xbf60e757	-0.87852997
104	0xbf08053b	-0.5313298
105	0x3f8bf87c	1.0935206
106	0xbeb3ab67	-0.35091707
107	0x3e06b64e	0.13155481
108	0x3f72acc0	0.94794846
109	0x3edf0d1f	0.43564698
110	0x3f63bc1f	0.88958925
111	0x3f64fde2	0.89449894
112	0x3f11c1ec	0.56936526
113	0x3f666547	0.89998287
114	0x3ef8a370	0.48562193
115	0x3f35cd2a	0.7101618
116	0x3e545373	0.20734958
117	0x3cd748c3	0.026279813
118	0x3d340d1f	0.043957826
119	0x3c715208	0.01472903
120	0x3f4e3915	0.8055585
121	0x4033bc19	2.8083556
122	0x3e5c5bcd	0.21519394
123	0x3ed5eb56	0.4178111
124	0x3f171280	0.59012604
125	0x3f026f29	0.50950867
126	0x3fad61d6	1.3545482
127	0x3fad0765	1.3517882
128	0x3f7d570d	0.98960954
129	0x3f10316a	0.563254
130	0x3f80e3ce	1.006952
131	0x3f92c15a	1.1465256
132	0x3f2949a2	0.6612798
133	0x3f3588a5	0.7091163
134	0x3f5ce993	0.86293906
135	0x3ae77700	0.0017659366
136	0x3d2905ab	0.04126517
137	0xbcc51087	-0.024055732
138	0x3ce3b23e	0.027794953
139	0xbce34ab6	-0.027745586
140	0xbc2fa6c5	-0.010720913
141	0x3c90ed40	0.017691255
142	0x3bdc2d96	0.0067193015
143	0xbb8cf48c	-0.004301613
144	0x3f6ddc9a	0.92914736
145	0xbf6be9bd	-0.9215353
146	0xbd9f17c9	-0.077682085
147	0x3ebbada5	0.36655918
148	0xbebd7907	-0.370064
149	0x3de39709	0.11112792
150	0x3e94d60c	0.29069555
151	0x3f9ca897	1.223895
152	0x3f73102e	0.94946563
153	0xbc4fe677	-0.012689224
154	0x3f06c3a2	0.5264226
155	0x3f8b7eeb	1.0898107
156	0xbf629197	-0.885034
157	0xbf483d48	-0.7821851
158	0x3df5f416	0.12009446
159	0xbf48808b	-0.7832114
160	0xbf03df3a	-0.5151249
161	0x3ec4920e	0.3839268
162	0x3e913b9b	0.28365788
163	0xbeb935f8	-0.36173987
164	0x3ec21722	0.37908274
165	0xbf4ea114	-0.80714536
166	0x3d6f42b3	0.05841322
167	0x3f917956	1.1365154
168	0x3eaecd1c	0.3414086
169	0x3effdb48	0.49971986
170	0x3f185f51	0.5952044
171	0xbc783a2b	-0.015150587
172	0xbc921de6	-0.017836522
173	0xbc94d246	-0.018166672
174	0x3cf632a0	0.030053437
175	0xbd13945b	-0.036030155
176	0x3cf9b853	0.0304834
177	0x3c5b6ef0	0.013393149
178	0xbc084a31	-0.00831847
179	0x3c2fc230	0.01072745
180	0x3f9ce25e	1.2256582
181	0x3f1d7b0a	0.6151587
182	0x3f9dc488	1.2325602
183	0x3ecd636f	0.40114924
184	0xbea7f946	-0.32807368
185	0x3fac4a95	1.3460261
186	0x3f923e32	1.142523
187	0x3fccbedd	1.5995747
188	0x3df98f27	0.12185507
189	0x3f253ba6	0.6454414
190	0x3ef0b763	0.47014913
191	0x3f0f1682	0.5589372
192	0x3ee27b10	0.44234514
193	0xbef723c7	-0.48269483
194	0x3fe34c15	1.7757593
195	0x3fb036a3	1.3766674
196	0x3fe81b46	1.8133323
197	0x3fd15146	1.6352928
198	0x3eca4efd	0.39513388
199	0x3f64dd41	0.89400107
200	0x3d89b1fb	0.067234
201	0x3f709755	0.93980914
202	0x3fbab8d6	1.4587657
203	0x3f39db39	0.7260013
204	0x3fa77325	1.3082014
205	0x3f8777aa	1.0583394
206	0x3f14cc7f	0.58124536
207	0x3dc643b6	0.096808836
208	0x3d849ebf	0.06475591
209	0x3ea9576a	0.33074504
210	0x400cb4fd	2.1985466
211	0x3fcd836f	1.6055735
212	0x3f48db5a	0.78459704
213	0x3fc9c68d	1.5763718
214	0x3f71b952	0.944234
215	0x3f6cbac4	0.9247248
216	0x3ccad4db	0.0247597
217	0xbc215a6b	-0.0098482175
218	0xbc6715d4	-0.014104325
219	0xbc407f4b	-0.011749099
220	0x3a2f5f37	0.00066899083
221	0x3b4cfeef	0.0031279882
222	0x3cd7aa99	0.026326464
223	0xb9d0ede2	-0.00039850088
224	0x3ca604a1	0.02026588
225	0x3c914b0a	0.017735977
226	0x3feb92fe	1.8404233
227	0x3f281a6b	0.6566531
228	0x3f4f949a	0.81086123
229	0x3f162274	0.5864632
230	0x3e02babe	0.12766549
231	0x3ede3276	0.43397874
232	0x3eef3716	0.46721715
233	0x3f369543	0.71321505
234	0x3fa40d1d	1.2816502
235	0x3d488757	0.048957195
236	0x3e8ac93a	0.2710665
237	0x3f4fca89	0.8116842
238	0x3eab14a0	0.33414173
239	0x3d76b893	0.060234617
240	0x3fcc5fcb	1.5966734
241	0x3f9bfddb	1.2186846
242	0x3f0119d2	0.50430024
243	0x3cba4036	0.022735696
244	0x3c25646b	0.010094742
245	0xbb7b9640	-0.0038389117
246	0xbc7832d0	-0.015148833
247	0x3cd82020	0.026382506
248	0x3c452ad4	0.012034137
249	0xbcc1cdd3	-0.023657715
250	0x3d53563d	0.051595915
251	0xbcdff1f2	-0.027337048
252	0x3e04528b	0.12922113
253	0x3f4c74be	0.79865634
254	0x3ef1a2c1	0.47194484
255	0x3f77afcf	0.9675264

conv4.bias f4 [64]
0	0xc023041a	-2.5471253
1	0xbf6f028d	-0.9336327
2	0xbfab7290	-1.3394337
3	0xbfc233d5	-1.5172068
4	0xbfc9aad8	-1.5755262
5	0xbf7d906c	-0.99048495
6	0xbe16281b	-0.14663737
7	0xbfcb9090	-1.5903492
8	0xc009235b	-2.142783
9	0xbf8eb82d	-1.1149956
10	0xbf1fcab7	-0.62418693
11	0xbe4b0d25	-0.19829233
12	0xbf113f9c	-0.56737685
13	0xbf60881e	-0.877077
14	0xbe30a6d5	-0.17251141
15	0xbff907a9	-1.9455463
16	0xbf0d6b69	-0.5524202
17	0xc05a56ba	-3.4115434
18	0xbf9ec2c2	-1.2403185
19	0xbfc6e362	-1.5538142
20	0xbf8bf8c8	-1.0935297
21	0xbfb34240	-1.4004593
22	0xbebef7cf	-0.37298438
23	0xbf25079a	-0.64464724
24	0xbfb111c7	-1.383355
25	0xbfcd0cdf	-1.6019553
26	0xbfe5a00c	-1.7939467
27	0x3f3f49bd	0.7472189
28	0xbe240f32	-0.16021422
29	0xc02d21c8	-2.7051868
30	0xbfa6229a	-1.297931
31	0xc01bbdcc	-2.4334593
32	0xbfb263db	-1.3936723
33	0xbf59ff28	-0.8515496
34	0xbdcb156d	-0.09916196
35	0xbdb990c6	-0.090608165
36	0xc006df15	-2.1073658
37	0xc0037ee6	-2.0546203
38	0xbf6103fa	-0.8789669
39	0xbf1195f5	-0.5686944
40	0x3f03824c	0.5137069
41	0xbe5bef0c	-0.21477908
42	0xbe311f12	-0.17297009
43	0x3f5e269e	0.86777675
44	0xbf120805	-0.57043487
45	0xbf78ad49	-0.9713941
46	0xc0038d77	-2.0555093
47	0xbe26a82d	-0.16275091
48	0xbea10d35	-0.3145539
49	0xbe8353ea	-0.2564996
50	0xbf01bd23	-0.50679225
51	0xbfb91277	-1.445876
52	0xbf43ad55	-0.7643636
53	0xbfdc86c6	-1.722863
54	0x3e2758b5	0.16342433
55	0xbdd8c40c	-0.10584268
56	0xc00534fa	-2.0813584
57	0xbfd04395	-1.6270624
58	0x3f1ae98b	0.6051261
59	0xbf414faa	-0.7551218
60	0xbdc06a31	-0.093952544
61	0xbf86abac	-1.052114
62	0xbfe448da	-1.7834733
63	0x3f857a6b	1.0427984

fc1.weight f4 [128, 64]
0	0x3e4d08b4	0.20022851
1	0x3d4bcda1	0.04975665
2	0xbd1f6b6c	-0.038920805
3	0xbe43c055	-0.19116338
4	0xbbf86958	-0.0075809173
5	0x3e64b0cd	0.22333069
6	0x3de2311e	0.110445246
7	0xbe80886e	-0.25104088
8	0xbef26e5f	-0.4734983
9	0x3e839ea4	0.2570697
10	0xbe11f5d6	-0.14253935
11	0xbd016e91	-0.031599585
12	0x3e51fc6f	0.20506452
13	0xbd856c78	-0.065148294
14	0xbda10a55	-0.07863299
15	0xbebd4abe	-0.36971086
16	0x3cf26e68	0.029593661
17	0xbf6537f3	-0.89538497
18	0xbe01d18e	-0.12677595
19	0xbe51bc73	-0.20482044
20	0xbe0220da	-0.12707844
21	0x3e58f81d	0.21188398
22	0xbe7cbefe	-0.24682233
23	0x3d9cad1d	0.07650206
24	0xbed49687	-0.41521093
25	0xbe7a14bb	-0.2442197
26	0xbd51e7ee	-0.051246576
27	0x3d857f84	0.06518462
28	0xbc455c99	-0.012046003
29	0x3be01e02	0.0068395147
30	0xbe5d290a	-0.21597686
31	0x3e9b47b7	0.30328152
32	0x3e3aec52	0.18254212
33	0xbb57f151	-0.0032950232
34	0xbe8ffc36	-0.2812211
35	0xbc320e4c	-0.010867666
36	0xbe9acddb	-0.3023518
37	0x3d8cf34d	0.068823434
38	0x3ea30c99	0.3184555
39	0xbd82511b	-0.06363126
40	0x3cfcb3bb	0.03084742
41	0x3d152cd0	0.03641969
42	0xbd0c39c1	-0.034234766
43	0xbdd4aa9e	-0.10384105
44	0x3ea1e271	0.31618074
45	0xbd4e5010	-0.050369322
46	0x3e910937	0.28327343
47	0x3d9d0da6	0.07668619
48	0x3dd790ce	0.10525666
49	0x3dfe5fb4	0.12420598
50	0xbd26de59	-0.04073939
51	0x3dae5bc9	0.085136004
52	0x3df98dcc	0.12185249
53	0xbe300cbd	-0.1719236
54	0xbec2bcc8	-0.38034654
55	0xbbd66f84	-0.0065440554
56	0xbe5aa718	-0.21352804
57	0x3c62d7a1	0.013845355
58	0x3dc09be0	0.09404731
59	0x3ea7a6e1	0.32744506
60	0x3d62faf0	0.055415094
61	0x3c9c505a	0.019081283
62	0xbdf898ae	-0.12138496
63	0xbe686663	-0.22695307
64	0x3da8c6cf	0.08241045
65	0xbcb6df1f	-0.02232319
66	0x3db1723b	0.08664366
67	0x3e575026	0.21026668
68	0x3e57df07	0.21081172
69	0x3e80a2c3	0.25124177
70	0xbde46956	-0.11152904
71	0x3e877c88	0.26462197
72	0xbdccd080	-0.10000706
73	0x3e2e24e6	0.17006263
74	0x3eacb626	0.33732718
75	0x3daa31c2	0.08310272
76	0xbe3645b2	-0.17800024
77	0xbd41fee7	-0.047362234
78	0x3d6b0e94	0.05738695
79	0x3e96e503	0.29471597
80	0xbdde265a	-0.10847159
81	0xbcd5426d	-0.02603265
82	0x3bff8fcf	0.0077991257
83	0x3eabb427	0.33535883
84	0x3e37e06f	0.17956708
85	0x3cba0acc	0.022710226
86	0xbe39e430	-0.18153453
87	0x3e2cd572	0.16878298
88	0x3e02a67b	0.1275882
89	0x3d172ccf	0.036907967
90	0x3e19c30b	0.15015809
91	0xbdf016b1	-0.11723078
92	0x3d02a28f	0.03189331
93	0x3e0b7bde	0.1362147
94	0x3dd65a37	0.10466426
95	0xbd80df4f	-0.06292593
96	0x3c52c424	0.012864146
97	0x3e46b00b	0.19403093
98	0x3e11cf81	0.14239313
99	0xbdcc8098	-0.09985465
100	0x3e3abc88	0.18235981
101	0xbc9c25c6	-0.01906098
102	0x3d1a099c	0.03760682
103	0xbe3da493	-0.18519811
104	0xbe511201	-0.20417024
105	0x3db475ea	0.08811553
106	0x3d2b91f8	0.041887254
107	0xbea227d9	-0.31671026
108	0x3d6f842e	0.058475666
109	0xbbd10f07	-0.006379965
110	0x3e3c179b	0.1836838
111	0xba889880	-0.0010421425
112	0xbeb72f43	-0.35778245
113	0xbc3546a4	-0.011064205
114	0x3e8b8fa5	0.2725803
115	0xbe866269	-0.26246956
116	0x3e369f42	0.1783419
117	0x3e4cdd78	0.20006359
118	0xbea17883	-0.31537256
119	0xbb8df600	-0.004332304
120	0x3ea00c4f	0.3125939
121	0xbd5f3244	-0.054491296
122	0x3c3072dc	0.010769572
123	0x3c1408c3	0.009035292
124	0x3de4fe7c	0.111813515
125	0x3c1536de	0.00910732
126	0xbe8c6120	-0.2741785
127	0xbf1d5b56	-0.6146749
128	0x3cfb67da	0.030689169
129	0x3d529aac	0.051417038
130	0x3e193780	0.14962578
131	0xbe0fda72	-0.14048174
132	0x3e4d7e42	0.20067695
133	0x3e0abee5	0.13549383
134	0x3c15c92d	0.009142202
135	0xbd868295	-0.06567875
136	0xbcac64b0	-0.021044105
137	0x3e4be14d	0.19910164
138	0x3e960b7e	0.29305643
139	0xbd6742d9	-0.056460235
140	0x3ea03f84	0.3129846
141	0xbe1ccba5	-0.15312059
142	0xbd3cf9ad	-0.046136547
143	0xbe5ed6ad	-0.2176158
144	0xbea3fdd4	-0.32029593
145	0xbec83564	-0.39103234
146	0xbdaae644	-0.08344701
147	0x3dc5b13b	0.09652945
148	0xbdec0314	-0.115240246
149	0xbdb59cba	-0.08867784
150	0xbf191451	-0.59796625
151	0x3de3012d	0.11084209
152	0xbe6c5912	-0.23080853
153	0xbec53854	-0.38519537
154	0x3e0a7cf3	0.13524227
155	0xbc5d4b2d	-0.013506693
156	0xbdf7f517	-0.12107294
157	0x3e37f2fe	0.17963788
158	0xbe7ca6a5	-0.24672945
159	0x3bb022c1	0.0053752367
160	0xbd1837d2	-0.03716261
161	0xbd4219d5	-0.047387917
162	0xbd311d44	-0.0432408
163	0xbd858e02	-0.065212265
164	0xbe20f017	-0.15716587
165	0x3e67f2e8	0.22651255
166	0xbe1efb50	-0.15525556
167	0xbd8ee53b	-0.06977316
168	0x3d047f1f	0.032347795
169	0xbd934d2a	-0.07192452
170	0xbc8179c6	-0.015805136
171	0xbe91ccb4	-0.2847649
172	0x3e8c5f34	0.27416384
173	0xbe4463d4	-0.19178706
174	0x3ccfbb06	0.025357734
175	0x3da9eb3a	0.08296819
176	0x3df0470b	0.117323
177	0xbe1ca37d	-0.15296741
178	0x3e236109	0.15954985
179	0x3e26fb71	0.16306855
180	0xbca6859c	-0.020327382
181	0x3c173738	0.009229474
182	0xbd45c7ed	-0.048286367
183	0x3dd1db93	0.102469586
184	0xbbea5d8e	-0.007152266
185	0xbdec8f94	-0.11550823
186	0x3ce97927	0.028500153
187	0xbdebcc38	-0.11513561
188	0x3df85742	0.12126018
189	0x3e7819dc	0.24228615
190	0xbe8d138c	-0.27553976
191	0xbe1d4756	-0.15359244
192	0x3e423a66	0.1896759
193	0xbed8ba38	-0.42329574
194	0xbb131409	-0.0022442362
195	0x3e28d84d	0.16488762
196	0xbe152d7a	-0.14568129
197	0xbe213d41	-0.15746023
198	0xbde04b6c	-0.109518856
199	0xbd809cc5	-0.062799014
200	0x3e0c7777	0.13717447
201	0x3dc3b98a	0.09556873
202	0x3decda0b	0.11565026
203	0x3da41106	0.080110595
204	0xbdbbe48a	-0.0917445
205	0xbf25580e	-0.64587486
206	0x3c1475b1	0.009061263
207	0xbd0a5a25	-0.033777375
208	0xbe734991	-0.23758532
209	0x3d44c51c	0.04803954
210	0xbe700b23	-0.23441748
211	0x3dc4ff0d	0.096189596
212	0x3d04a874	0.032387212
213	0x3dc728d1	0.09724582
214	0xbdc4620e	-0.09589015
215	0xbde36ae6	-0.11104374
216	0x3cf22b94	0.029561795
217	0xbc1bdbee	-0.009512885
218	0x3e6b2b25	0.22965677
219	0xbdeceb93	-0.1156837
220	0x3895e753	7.147961e-05
221	0xbe356473	-0.177141
222	0x3ddfbd2f	0.10924756
223	0xbd7a1046	-0.061050676
224	0xbe3a7675	-0.1820925
225	0xbd8dadb2	-0.069178954
226	0x3e016355	0.12635548
227	0xbd02a946	-0.031899713
228	0x3e05e5df	0.1307597
229	0xbe8a1684	-0.26970303
230	0xbe8acb9d	-0.2710847
231	0x3e77c5dc	0.24196571
232	0xbe2bad75	-0.16765387
233	0xbd805c26	-0.06267576
234	0x3d2c9aae	0.0421397
235	0x3dae6983	0.085162185
236	0xbca70336	-0.020387273
237	0x3d798b44	0.06092383
238	0x3d100c55	0.03516801
239	0xbd2aa63b	-0.041662436
240	0xbe62c60d	-0.22145863
241	0xbd4613a5	-0.04835858
242	0xbf4a1da8	-0.789515
243	0xbe67c2b2	-0.22632864
244	0x3e6974e4	0.22798496
245	0x3e14c8d7	0.1452974
246	0x3d6ef0e4	0.0583352
247	0x3d896c82	0.06710149
248	0xbc42f801	-0.011899949
249	0x3d5fc14b	0.054627698
250	0xbd4c0f01	-0.049818996
251	0xbeab0eff	-0.3340988
252	0xbe03e9bf	-0.12882136
253	0xbd93992e	-0.07206951
254	0x3cedaaa7	0.029012037
255	0x3da3fdc3	0.080073856

fc1.bias f4 [128]
0	0x3e0d6445	0.13807781
1	0xbf7cbfa7	-0.9872994
2	0xbee663d5	-0.4499804
3	0xbf06f350	-0.52715015
4	0xbee00b14	-0.43758452
5	0xbd9dba34	-0.07701531
6	0x3f227cbf	0.634716
7	0x3ed51015	0.41613832
8	0xbfa62eab	-1.2982992
9	0xbf07bdca	-0.5302397
10	0xbeffb457	-0.49942276
11	0xbf32edcf	-0.6989412
12	0xbedbe56e	-0.42948478
13	0x3f4a6e58	0.7907462
14	0x3f0c90ed	0.5490864
15	0xbcb960e5	-0.02262921
16	0xbeddc120	-0.43311405
17	0xbcd9184c	-0.026500843
18	0xbec14d26	-0.37754172
19	0xbe928e78	-0.2862432
20	0xbf09287c	-0.535774
21	0xbec835c0	-0.39103508
22	0xbeb868b7	-0.3601739
23	0x3ea44cc7	0.32089826
24	0xbebf35cd	-0.37345734
25	0xbee00462	-0.43753344
26	0xbe9e3863	-0.30902395
27	0xbea21f9d	-0.31664744
28	0xbf081045	-0.53149825
29	0xbed26a8d	-0.41096917
30	0x3e77204b	0.24133413
31	0xbede1c6b	-0.43381056
32	0x3e4e31e6	0.20136222
33	0x3ec91e0b	0.39280733
34	0xbdb74eb9	-0.08950562
35	0xbeb71908	-0.35761285
36	0xbf4cd105	-0.8000644
37	0x3e9a28d9	0.3010929
38	0xbea81639	-0.32829455
39	0xbed9662d	-0.42460766
40	0xbeb62ccc	-0.35581052
41	0x3d35a2ea	0.04434482
42	0xbf0b464d	-0.54404145
43	0xbe70f4fb	-0.23530953
44	0xbf26a9bf	-0.6510276
45	0x3f3a66e9	0.7281328
46	0xbeadb485	-0.33926788
47	0x3dd168a7	0.10225039
48	0xbebc07a6	-0.36724585
49	0x3f37195b	0.71523064
50	0x3e2af2d2	0.16694191
51	0xbea27e37	-0.3173692
52	0x3f1ae5f8	0.60507154
53	0xbed1b1b8	-0.409559
54	0xbe944518	-0.28958964
55	0x3f32fe30	0.6991911
56	0xbd884f6e	-0.06655775
57	0x3dfc339a	0.1231453
58	0x3e9b02df	0.30275628
59	0x3e151d59	0.14561976
60	0xbee531cd	-0.44764557
61	0xbecf3c07	-0.40475485
62	0xbe3b5e15	-0.18297608
63	0x3dae6d62	0.08516957
64	0xbefde6bc	-0.495901
65	0xbea4923b	-0.32142815
66	0xbf179642	-0.5921365
67	0x3d8aec44	0.06783345
68	0xc0031a78	-2.0484905
69	0x3f1a4eca	0.6027647
70	0x3e0271a7	0.12738667
71	0x3f73de9a	0.9526154
72	0xbf00d3e3	-0.50323313
73	0xbeb9aa7c	-0.36262882
74	0xbee90dcf	-0.45518348
75	0xbee1b5cf	-0.4408402
76	0x3db36fc2	0.087615505
77	0xbefa5ee1	-0.48900512
78	0xbee74dd0	-0.45176554
79	0x3f60d596	0.87825906
80	0xbeb1c63f	-0.34721562
81	0xbee8c0f3	-0.4545971
82	0xbe9f391b	-0.31098256
83	0xbeff7017	-0.49890205
84	0xbe1a03d2	-0.1504052
85	0xbe5e7c1d	-0.21727033
86	0xbea5399e	-0.3227052
87	0xbe9d049e	-0.30667585
88	0x3eccb971	0.3998523
89	0xbc365d7c	-0.011130687
90	0xbe4fad11	-0.20280863
91	0x3efc5c12	0.49288994
92	0xbf0d0649	-0.55087715
93	0x3dd8cc78	0.10585874
94	0x3de3bd69	0.111201115
95	0xbf21c4d8	-0.63190985
96	0xbed255f7	-0.4108121
97	0xbea3eef9	-0.3201826
98	0xbeb4675d	-0.3523511
99	0xbf00ce6c	-0.50314975
100	0xbeb1a49b	-0.34695897
101	0xbed66788	-0.41875863
102	0xbf2e085a	-0.67981493
103	0x3dd9b215	0.106296696
104	0xc03a62a0	-2.9122696
105	0x3f2294ca	0.63508284
106	0xbeeb8dbc	-0.46006572
107	0x3e350d13	0.17680769
108	0xbe45076e	-0.19241115
109	0xbec21785	-0.3790857
110	0xbe8f0dd2	-0.27940232
111	0xbedccf52	-0.43126923
112	0xbfbfc2ba	-1.4981301
113	0xbeafa39c	-0.34304512
114	0xbea066e0	-0.31328487
115	0xbdac2360	-0.08405185
116	0xbed6b6a9	-0.41936234
117	0xbd815e71	-0.063168414
118	0xbeadc4bf	-0.33939168
119	0xbf32594c	-0.69667506
120	0xbffadde7	-1.9598969
121	0xbf0177de	-0.5057353
122	0x3f199edc	0.60008025
123	0xbef7cd4d	-0.4839882
124	0x3f163575	0.5867532
125	0xbefbc2c9	-0.49172047
126	0xbf0cd5af	-0.55013555
127	0xbd75360e	-0.059866004

fc2.weight f4 [64, 128]
0	0xbedb8cd1	-0.42880872
1	0x3d878e2e	0.066189155
2	0xbed1fe91	-0.4101453
3	0xbd157373	-0.036487054
4	0xbed3931b	-0.4132317
5	0xbf30720c	-0.6892402
6	0x3e3b165f	0.18270253
7	0xbf956954	-1.1672769
8	0xbda6c0db	-0.08142253
9	0xbcc1482b	-0.023593983
10	0x3d8d7405	0.069068946
11	0xbe3d3ea2	-0.18480924
12	0x3d98e9a5	0.07466439
13	0xbd1c22fd	-0.038119305
14	0xbeb64777	-0.35601398
15	0x3c5ee5e8	0.013604619
16	0xbd52c0ee	-0.051453523
17	0xbf972cea	-1.1810582
18	0x3d81bb8b	0.06334599
19	0xbe647075	-0.22308524
20	0xbee97191	-0.45594457
21	0x3cf76475	0.030199269
22	0xbf809abf	-1.0047225
23	0xbd9fb3aa	-0.0779794
24	0x3deead3c	0.116541356
25	0xbc0ec3b9	-0.008713656
26	0xbe5f2c09	-0.21794142
27	0xbebd1073	-0.36926612
28	0x3cbf7e35	0.02337561
29	0x3e0d6731	0.13808896
30	0xbdfd4de8	-0.12368375
31	0xbc034009	-0.008010873
32	0xbf20ecc0	-0.6286125
33	0x3da06843	0.07832386
34	0xbe14b254	-0.14521152
35	0x3ca73023	0.020408696
36	0xbea32f9d	-0.31872264
37	0x3d4c79a9	0.04992071
38	0x3d77916f	0.06044143
39	0xbd896fa4	-0.06710747
40	0xbd0b801e	-0.03405773
41	0xbf3d9fb6	-0.74071825
42	0x3dafbb3e	0.085806355
43	0xbf58dab1	-0.84708697
44	0xbe79239d	-0.24329992
45	0xbdcfbe4f	-0.1014372
46	0xbf30b6cc	-0.69028926
47	0xbf6e5ccf	-0.93110365
48	0x3df6400f	0.12023937
49	0x3ca059c8	0.019574061
50	0x3e02ed7b	0.12785904
51	0xbcfeb7a7	-0.031093432
52	0xbee6bba3	-0.4506503
53	0x3d20e63d	0.039282072
54	0x3e1699f9	0.14707173
55	0x3bcc1225	0.006227749
56	0xbf7842e0	-0.96977043
57	0x3d628e2b	0.055311363
58	0xbeca1c7b	-0.39474854
59	0xbdaebb68	-0.08531839
60	0xbeec706f	-0.4617953
61	0x3df9c9c0	0.12196684
62	0xbd238d49	-0.039929662
63	0x3db626a5	0.088940896
64	0xbd63bafd	-0.055598248
65	0xbe82e444	-0.25564778
66	0xbe1d77bc	-0.15377706
67	0xbf0521b2	-0.5200454
68	0xbd018242	-0.031618364
69	0xb970768f	-0.0002293235
70	0xbea9ea54	-0.3318659
71	0xbc0c48a1	-0.008562238
72	0x3e2f2209	0.17102827
73	0x3e1bf856	0.15231451
74	0xbf4ca674	-0.7994149
75	0x3d6706bc	0.056402907
76	0xbd7c541e	-0.061603658
77	0xbf029329	-0.510058
78	0x3cf28aed	0.02960726
79	0xbcc587e8	-0.024112657
80	0x3d45c865	0.048286814
81	0x3e230bda	0.1592249
82	0x3d3002e5	0.04297151
83	0xbe7d90f4	-0.24762326
84	0x3d7a83cd	0.06116085
85	0xbf3d637a	-0.73979914
86	0xbf5fa072	-0.87354195
87	0x3e134351	0.14381148
88	0xbe2e38bd	-0.17013831
89	0xbf9b6645	-1.2140585
90	0xbcfb3707	-0.030665888
91	0xbf7daad2	-0.99088776
92	0xbe9e8266	-0.3095886
93	0x3da95acb	0.082692705
94	0xbf3b164c	-0.730809
95	0x3f104bc6	0.5636562
96	0x3c8e7a58	0.017392322
97	0xbe2adc49	-0.16685595
98	0xbf365795	-0.7122739
99	0xbf5f447b	-0.8721387
100	0x3d74ae93	0.0597368
101	0x3d7aa9a3	0.061196934
102	0xbd3b8c37	-0.045788016
103	0xbf877358	-1.0582075
104	0x3e896e91	0.26842168
105	0xbe92fadd	-0.28707018
106	0xbf5e41bc	-0.8681905
107	0x3c54e343	0.012993637
108	0xbd22a6d6	-0.03970989
109	0x3dc7b151	0.09750617
110	0x3dac0d04	0.0840092
111	0xbc432764	-0.011911247
112	0x3d658dc5	0.056043405
113	0xbd692bbd	-0.056926478
114	0xbf9a770a	-1.2067578
115	0xbf1a0cf2	-0.60176
116	0xbf0dfa40	-0.55459976
117	0xbc8af43d	-0.016962165
118	0x3dc73d99	0.09728546
119	0xbe404ff6	-0.18780503
120	0xbd683552	-0.056691475
121	0xbeb76e0a	-0.3582614
122	0xbe5c6b9a	-0.21525422
123	0xbe924614	-0.2856909
124	0xbe0ca262	-0.13733819
125	0x3e2e1adc	0.17002434
126	0xbf2244aa	-0.63386023
127	0xbfb6102f	-1.4223689
128	0xbf6a861f	-0.916109
129	0xbdfb2307	-0.1226254
130	0xbec09c4f	-0.37619254
131	0xbd4e3694	-0.05034502
132	0xbf6d77d1	-0.9276095
133	0xbf48e112	-0.7846843
134	0xbeca747d	-0.39541999
135	0xbf2ca8e2	-0.67445195
136	0x3c7b8e0f	0.015353694
137	0xbf0b2fd4	-0.54369855
138	0x3d19009a	0.03735409
139	0xbe511518	-0.20418203
140	0x3b69fed4	0.0035704868
141	0xbe113266	-0.14179382
142	0x3d8f9204	0.07010272
143	0xbc96ec48	-0.018423215
144	0x3d689a9b	0.05678807
145	0xbf66282e	-0.8990506
146	0x3df57d46	0.11986785
147	0xbdf58338	-0.119879186
148	0xbf9c7421	-1.222294
149	0x3db0dab3	0.086354636
150	0xbf3e1359	-0.7424827
151	0xbe564c7a	-0.20927611
152	0xbc6d3f25	-0.014480387
153	0x3e162f26	0.14666423
154	0xbf19f41a	-0.60138094
155	0xbe8ac6c7	-0.2710478
156	0xbd400cf6	-0.04688736
157	0xbf0a109a	-0.5393158
158	0xbf85a6cc	-1.0441527
159	0xbb8a0aa4	-0.0042126942
160	0xbef57c55	-0.4794642
161	0xbdf67766	-0.12034492
162	0x3d32ad31	0.0436222
163	0xbd29a266	-0.04141464
164	0xbe027f4c	-0.12743872
165	0x3df37859	0.11888189
166	0xbde86336	-0.11347048
167	0xbe1a2a44	-0.15055186
168	0xbc6ad7e4	-0.014333699
169	0xbf1a659f	-0.6031131
170	0xbea8e601	-0.3298798
171	0xbf951734	-1.1647706
172	0xbe3e163a	-0.18563166
173	0x3d881e56	0.06646411
174	0xbeb4e8d4	-0.35333884
175	0xbdaacd83	-0.083399795
176	0xbd100b50	-0.03516704
177	0xbcf77923	-0.03020913
178	0x3daa5431	0.083168395
179	0x3d64ce26	0.05586066
180	0xbd641fb0	-0.055694282
181	0xbea4098b	-0.3203853
182	0x3d04fd59	0.032468174
183	0x3d875e51	0.06609786
184	0xbfa3eddc	-1.2806964
185	0xbadf9aa3	-0.0017059635
186	0xbf87d70f	-1.0612506
187	0x3df073a6	0.11740808
188	0xbd342f14	-0.04399021
189	0x3d843c5d	0.06456826
190	0xbfa079a3	-1.253712
191	0x3c0d9250	0.008640841
192	0xbd4d4c0b	-0.05012135
193	0x3e8d17a7	0.27557108
194	0xbe5dd424	-0.21662956
195	0xbff6cf7f	-1.9282073
196	0xbe7539fc	-0.239479
197	0xbc705861	-0.014669509
198	0xbe931400	-0.28726196
199	0x3cd764d4	0.026293196
200	0xba5466c2	-0.00081024703
201	0xbf272c9a	-0.6530243
202	0xbfa59668	-1.2936525
203	0x3cb28a6e	0.021794524
204	0xbe8e5195	-0.27796617
205	0x3e94f195	0.29090562
206	0x3cd49515	0.025949994
207	0x3c488b0c	0.012240183
208	0x3d8bdde8	0.06829435
209	0xbf2cb77e	-0.67467487
210	0x3d2a103c	0.04151939
211	0xbe58dd3a	-0.21178141
212	0x3d11c30f	0.035586413
213	0xbf05e6ed	-0.5230549
214	0xbf7e118e	-0.99245536
215	0x3d3032f4	0.043017343
216	0x3d98fa11	0.074695714
217	0xbf532293	-0.8247463
218	0x3d6a33d4	0.057178333
219	0xbfb1fa27	-1.3904465
220	0xbf5a98f6	-0.8538965
221	0x3d6fafd3	0.05851729
222	0xbf994f33	-1.1977295
223	0xbe84810d	-0.25879708
224	0xbbed1988	-0.0072357096
225	0xbd902135	-0.07037584
226	0x3ee68572	0.45023686
227	0xbf7cabcd	-0.9869965
228	0xbd22e9d5	-0.03977378
229	0xbc536dcf	-0.012904598
230	0xbc8d9aff	-0.017285822
231	0xbff50e34	-1.914496
232	0x3dd4124e	0.10355054
233	0xbe14aa37	-0.14518057
234	0x3e38188f	0.17978118
235	0x3d6cb223	0.057787072
236	0x3c1307df	0.008974045
237	0x3dbf228a	0.0933276
238	0xbd8e7615	-0.06956116
239	0x3da7ff45	0.08202986
240	0xbdd2db08	-0.10295683
241	0x3d5ae300	0.05343914
242	0xbea3d215	-0.31996217
243	0xbf43e8c1	-0.7652703
244	0xbf41c23f	-0.7568702
245	0x3d864cef	0.06557643
246	0x3d6cc8bf	0.057808634
247	0x3d0b9719	0.034079645
248	0x3e402307	0.18763362
249	0xbf71fb12	-0.9452373
250	0x3dacfe7c	0.084469765
251	0xbf54af2b	-0.83079785
252	0x3e81f0bf	0.25378987
253	0xbe62e56e	-0.22157833
254	0x3d4458e5	0.04793634
255	0xbffe41a4	-1.9863782

fc2.bias f4 [64]
0	0x3f5ae72a	0.8550898
1	0x3f51ca5a	0.8194939
2	0x3f3f037e	0.74614704
3	0x3ef4a61b	0.47782978
4	0x3f82f52a	1.0231068
5	0x3f83c2a1	1.0293771
6	0x3f020d4c	0.5080154
7	0x3f0a3c00	0.539978
8	0x3f5bfa12	0.8592845
9	0x3f2e3fd8	0.6806617
10	0x3f072857	0.5279593
11	0x3f601ce8	0.8754411
12	0x3ed6fd14	0.41989958
13	0x3f76457a	0.9619976
14	0x3f81890f	1.0119952
15	0x3f728b03	0.94743365
16	0x3f63d55b	0.8899743
17	0x3f02b500	0.51057434
18	0x3f0a33d4	0.53985333
19	0x3f4787cb	0.7794158
20	0x3f37a82e	0.71740997
21	0x3f56f83b	0.8397252
22	0x3f04dff3	0.5190422
23	0x3f50952a	0.81477606
24	0x3f517787	0.8182301
25	0x3f27ac60	0.654974
26	0x3f12b23f	0.5730323
27	0x3f8a6670	1.0812511
28	0x3f0062b0	0.50150585
29	0x3f485032	0.7824737
30	0x3ecaebc9	0.39633015
31	0x3ee06e10	0.4383397
32	0x3f5da4d3	0.86579627
33	0x3f4c4e33	0.7980682
34	0x3f72bed8	0.94822454
35	0x3f510479	0.8164745
36	0x3f68597e	0.90761554
37	0x3edd8195	0.43262926
38	0x3eff5650	0.4987054
39	0x3f7aa6a4	0.97910523
40	0x3f00d230	0.5032072
41	0x3ee8eaab	0.45491537
42	0x3ec5e1fb	0.38648972
43	0x3f2ab25d	0.6667841
44	0x3f2d351b	0.6765916
45	0x3ee1f1c2	0.4412976
46	0x3f85cb2a	1.0452626
47	0x3f24e0ab	0.64405316
48	0x3f742ded	0.9538258
49	0x3f63551e	0.88801754
50	0x3f0fb63f	0.5613746
51	0x3f6328f3	0.8873436
52	0x3f0cc54e	0.54988563
53	0x3f7f22c9	0.9966245
54	0x3efcd898	0.49383998
55	0x3f54e5c2	0.8316308
56	0x3f0c32ca	0.54765
57	0x3f5c704a	0.8610884
58	0x3f3cca99	0.7374664
59	0x3f4ee34c	0.8081558
60	0x3eff0a6d	0.49812642
61	0x3f31f898	0.6951995
62	0x3f63b524	0.88948274
63	0x3f3762f5	0.7163537
