chess_rust/src/chess_cnn_model_final_3x3x3x3_f16.pt (torch, 220672 bytes, 13 tensors)

conv1.weight f2 [32, 6, 3, 3]
000000 5a 33 9b 2d f9 b6 f3 33 64 ac 80 b1 32 34 bc af
       0.2297 0.0876 -0.4358 0.2484 -0.0686 -0.1719 0.2622 -0.12085
000010 23 b8 2d b4 ae b1 57 ad 1d b5 76 bd 49 a7 0c b7
       -0.517 -0.261 -0.1775 -0.08344 -0.3196 -1.365 -0.02846 -0.4404
000020 3b b5 ee b2 45 39 41 b9 96 ae b4 b9 2d a8 ac aa
       -0.327 -0.2166 0.6587 -0.6567 -0.1029 -0.713 -0.03262 -0.05212
000030 30 31 d7 b1 17 b1 cc af 5c bc 5b 2c a4 2c 2b be
       0.1621 -0.1825 -0.159 -0.1218 -1.09 0.06805 0.0725 -1.542
000040 75 32 d9 b4 47 b4 fb b7 84 39 05 bc b5 bc 4d bc
       0.2018 -0.303 -0.2673 -0.4988 0.6895 -1.005 -1.177 -1.075
000050 1e c0 9b 33 0f 36 75 ac 84 b8 9f b2 09 2d 34 b8
       -2.059 0.2377 0.3787 -0.06964 -0.5645 -0.2069 0.0787 -0.5254
000060 9b 2a 23 b5 c6 37 89 2a 58 b2 a9 b6 7a 35 98 b7
       0.0516 -0.321 0.4858 0.05106 -0.1982 -0.4163 0.3423 -0.4746
000070 04 30 f0 33 3c b7 80 1f 8b 30 bc 30 bb ab 4a 36
       0.1255 0.248 -0.4521 0.007324 0.142 0.148 -0.0604 0.393
000080 f4 34 90 38 29 b1 51 39 89 b1 cd 33 6a b4 fe 2f
       0.3096 0.5703 -0.1613 0.6646 -0.173 0.2438 -0.276 0.1249
000090 3e 31 63 b8 63 30 45 3b 57 b7 62 b9 26 b5 e7 2b
       0.1638 -0.5483 0.1371 0.9087 -0.4587 -0.673 -0.3218 0.06174
0000a0 b7 b9 7c 39 c7 38 54 21 cf 38 12 3b f6 2c 5d ad
       -0.7144 0.6855 0.597 0.01041 0.601 0.884 0.0775 -0.0838
0000b0 1a 39 6f a5 52 38 70 3a 71 2f 7c 38 4e 3e 9a 30
       0.6377 -0.02122 0.54 0.8047 0.1163 0.5605 1.576 0.1438
0000c0 09 34 16 3d 73 2b 72 b7 97 b4 c0 b6 99 29 35 b5
       0.2522 1.271 0.0582 -0.4653 -0.2869 -0.4219 0.04373 -0.3254
0000d0 03 b1 cc b4 1d b4 89 b4 15 aa 98 35 e7 2d 39 31
       -0.1566 -0.2998 -0.257 -0.2834 -0.04752 0.3496 0.0922 0.1632
0000e0 4a 32 0a 2c 38 af 0c 30 6b 09 dc 31 9d 35 88 37
       0.1965 0.0631 -0.1128 0.1265 0.0001653 0.1831 0.3508 0.4707
0000f0 0f 3b ec 34 b8 34 76 34 b4 39 16 34 ab 1c 5a 37
       0.8823 0.3076 0.295 0.2788 0.713 0.2554 0.00456 0.4595
000100 70 a8 1e 37 fc 39 fe 39 d2 20 5a 39 88 a2 17 3c
       -0.03467 0.4448 0.748 0.749 0.009415 0.669 -0.01276 1.022
000110 c3 39 de 32 93 2f 0e 3e 3b 35 c5 38 5e 38 56 30
       0.72 0.2146 0.11835 1.514 0.327 0.596 0.546 0.1355
000120 90 3b 77 3c 84 3a 76 3d 7f 40 bb 3a c3 3b 9e 3e
       0.9453 1.116 0.8145 1.365 2.248 0.8413 0.97 1.654
000130 6c 3a b3 38 da 32 4e 39 8a 31 a6 b4 02 39 aa 2f
       0.8027 0.5874 0.2141 0.663 0.1731 -0.2905 0.626 0.11975
000140 e4 38 76 38 40 20 07 b3 dd ac 45 29 b1 b8 f9 ad
       0.6113 0.5576 0.0083 -0.2196 -0.076 0.04117 -0.5864 -0.0933
000150 5f 2b 6d b2 07 2c 51 b8 2f b6 72 b6 e3 b2 0f b2
       0.0576 -0.2008 0.0629 -0.5396 -0.3865 -0.4028 -0.2152 -0.1893
000160 19 b1 fb b4 4e b8 e4 a6 13 bb 19 b2 ec b5 b9 30
       -0.1593 -0.3113 -0.538 -0.02692 -0.8843 -0.1906 -0.37 0.1476
000170 fd bc f2 b7 73 b8 f7 ac 42 ba f5 bb 42 b9 0e b6
       -1.247 -0.4966 -0.556 -0.0776 -0.782 -0.9946 -0.657 -0.3784
000180 ce b8 8a b8 1a bb 25 b5 4b b8 06 b7 78 bf 36 be
       -0.6006 -0.5674 -0.8877 -0.3215 -0.5366 -0.439 -1.867 -1.553
000190 0b c0 e7 b9 0c be 9c bd 4c ba f4 bc e6 b8 d1 bb
       -2.021 -0.738 -1.512 -1.402 -0.787 -1.238 -0.6123 -0.977
0001a0 13 38 2c b6 91 32 50 30 d2 27 01 30 82 99 51 b8
       0.5093 -0.3857 0.2052 0.1348 0.03055 0.1251 -0.00269 -0.5396
0001b0 f5 bb d5 b4 b6 39 2d bc 83 38 ec ad 95 b4 69 2c
       -0.9946 -0.302 0.714 -1.044 0.564 -0.0925 -0.2864 0.0689
0001c0 b3 2f d1 35 ca b1 cc b6 f9 b9 64 28 1d b8 2e 38
       0.1203 0.3635 -0.1809 -0.4248 -0.7466 0.0343 -0.514 0.5225
0001d0 85 3d 36 bc c6 35 26 37 0e bb 95 2e 0e b8 fa b4
       1.38 -1.053 0.3608 0.4468 -0.882 0.10284 -0.507 -0.311
0001e0 f4 32 0c 36 c0 34 35 b9 cc b7 c5 b4 ba b6 61 31
       0.2173 0.378 0.2969 -0.651 -0.4873 -0.298 -0.4204 0.1681
0001f0 a4 b1 aa b6 93 b1 e6 b4 60 a6 86 b2 ba 34 23 b0
       -0.1763 -0.4165 -0.1742 -0.3062 -0.0249 -0.2039 0.2954 -0.1293

conv1.bias f2 [32]
000000 51 b6 64 b0 08 35 12 34 3f b9 6c ba ca b7 7c 31
       -0.3948 -0.1372 0.3145 0.2544 -0.656 -0.8027 -0.4868 0.1714
000010 b6 b3 e8 ba 7d b1 3c b9 01 b4 06 b7 03 b4 1e b9
       -0.241 -0.8633 -0.1715 -0.6543 -0.2502 -0.439 -0.2507 -0.6396
000020 41 ad 72 bd 8f b7 b3 b0 d8 ba ad ba e6 bd 2f b3
       -0.0821 -1.361 -0.4724 -0.1469 -0.8555 -0.8345 -1.475 -0.2245
000030 a4 2c bf b9 ba 34 27 b5 3c b5 11 bb 53 b7 62 b6
       0.0725 -0.7183 0.2954 -0.322 -0.3271 -0.8833 -0.4578 -0.399

conv2.weight f2 [32, 32, 3, 3]
000000 94 36 09 b5 23 b2 57 36 26 36 15 b9 ea 36 3c c5
       0.4111 -0.3147 -0.1918 0.3962 0.3843 -0.6353 0.4321 -5.234
000010 42 b2 a2 b7 53 a7 9d b6 60 20 b5 38 25 ab b1 b6
       -0.1956 -0.477 -0.02861 -0.4133 0.008545 0.5884 -0.05582 -0.4182
000020 53 c4 9d b6 60 31 6b 31 a6 b4 8e 34 a2 3a 8a 30
       -4.324 -0.4133 0.168 0.1693 -0.2905 0.2847 0.829 0.1418
000030 69 ae 77 bf cf be 86 2b aa bd 75 a5 d9 32 4d be
       -0.10016 -1.866 -1.702 0.05878 -1.416 -0.02132 0.214 -1.575
000040 cd b8 34 b6 42 ba 95 2b 7c aa 0b 34 f1 35 98 30
       -0.6 -0.3877 -0.782 0.05923 -0.05066 0.2527 0.3713 0.1436
000050 2b b9 e6 39 0b 39 b0 3b be 3f c7 b7 2c b2 7a 38
       -0.646 0.7373 0.6304 0.961 1.936 -0.486 -0.1929 0.5596
000060 35 b9 65 27 94 b4 7b b7 e6 30 76 b5 41 38 b6 b2
       -0.651 0.02888 -0.2861 -0.4675 0.1531 -0.3413 0.5317 -0.2097
000070 7d 2e 73 33 3f 39 37 ab da 38 ed bf ca b9 4d b6
       0.1014 0.2328 0.656 -0.05637 0.6064 -1.981 -0.7236 -0.3938
000080 e8 2d 00 36 8a a9 86 39 4e 37 37 ba 72 ba 33 a3
       0.0923 0.375 -0.04327 0.6904 0.4565 -0.777 -0.8057 -0.01406
000090 70 28 b3 36 af 23 2f 30 b4 30 a7 39 c0 a8 9b bd
       0.03467 0.4187 0.01501 0.1307 0.147 0.7065 -0.0371 -1.401
0000a0 49 bc e4 38 73 ba d9 38 fe 39 6f 38 6d 3d 0a ba
       -1.071 0.6113 -0.806 0.606 0.749 0.554 1.356 -0.755
0000b0 55 30 c1 b7 1d 2f 7f 3c 87 36 0e be 10 b5 b9 9d
       0.1354 -0.4846 0.11115 1.124 0.408 -1.514 -0.3164 -0.00559
0000c0 99 ae 7f bb 2a b8 18 b4 c7 a2 89 30 ab b0 0b 3d
       -0.1031 -0.937 -0.5205 -0.2559 -0.01324 0.1417 -0.1459 1.261
0000d0 f8 35 c1 39 19 3b c5 3b 44 30 7e 35 ef b5 c2 39
       0.373 0.719 0.887 0.971 0.1333 0.3433 -0.3708 0.7197
0000e0 aa 30 d8 b8 c4 be a7 c1 1e b8 00 32 58 b6 02 b5
       0.1458 -0.6055 -1.691 -2.826 -0.5146 0.1875 -0.3965 -0.313
0000f0 2a b9 ff b6 be 2e 64 b4 6b ba 22 34 77 b4 7f bc
       -0.6455 -0.4373 0.10535 -0.2744 -0.8022 0.2583 -0.279 -1.124
000100 78 b6 21 3c 2d 34 91 b8 71 b9 c8 b2 5f bd f7 b1
       -0.4043 1.032 0.261 -0.571 -0.68 -0.2119 -1.343 -0.1864
000110 47 3d cf b4 38 37 bf a8 a8 b7 30 a4 36 33 c7 39
       1.319 -0.3005 0.4512 -0.03708 -0.4785 -0.01636 0.2253 0.722
000120 1a 36 fe bd d9 36 58 bc 99 b6 77 38 29 bd 29 34
       0.3813 -1.498 0.428 -1.086 -0.4124 0.558 -1.29 0.26
000130 d0 b4 68 2f 89 35 9b ba af ae 23 b6 52 ab f9 3c
       -0.3008 0.1157 0.346 -0.8257 -0.10443 -0.3835 -0.0572 1.243
000140 53 ad e8 38 aa ae 2f 34 51 c1 02 3c 8f c2 97 3b
       -0.0832 0.6133 -0.1041 0.2615 -2.658 1.002 -3.28 0.9487
000150 8e b7 02 bd 9a b1 05 39 25 bc 6f 3b da 35 c1 32
       -0.4722 -1.252 -0.175 0.6274 -1.036 0.929 0.3657 0.211
000160 be b7 f2 34 cc b9 aa bc ed 37 c3 3b 32 b6 25 34
       -0.484 0.309 -0.7246 -1.166 0.4954 0.97 -0.3872 0.259
000170 ea 3a 0a 38 28 2c 93 be c5 b5 59 bb 1e 35 d7 2e
       0.8643 0.505 0.06494 -1.644 -0.3606 -0.9185 0.3198 0.1069
000180 80 3c 0d 39 5f 3a 79 c1 87 3d 09 ae a0 35 67 33
       1.125 0.6313 0.7964 -2.736 1.382 -0.0943 0.3516 0.2313
000190 91 38 e0 3f d5 c1 77 c0 03 ba f5 3a a9 b7 e4 af
       0.571 1.969 -2.916 -2.232 -0.7515 0.8696 -0.4788 -0.1233
0001a0 1a b0 60 b4 25 30 e8 32 4f 2f 0d bf e6 c1 2f b3
       -0.1282 -0.2734 0.1295 0.2158 0.1142 -1.763 -2.95 -0.2245
0001b0 75 2d 0c ad d4 ae a1 b5 aa 2b a2 b7 1d be 91 ba
       0.08527 -0.07886 -0.1067 -0.3518 0.05988 -0.477 -1.528 -0.821
0001c0 23 b9 d3 a7 5f 36 4d 2e b2 bc 5e 34 f2 b0 2f b0
       -0.642 -0.03056 0.3982 0.09845 -1.174 0.273 -0.1545 -0.1307
0001d0 16 c1 ab bd 37 33 05 3c 14 39 68 bb 75 bb 0d b8
       -2.543 -1.417 0.2255 1.005 0.635 -0.926 -0.932 -0.5063
0001e0 14 bc e6 bb b9 b6 58 39 20 bb 43 38 06 b4 5e 38
       -1.02 -0.9873 -0.4202 0.668 -0.8906 0.5327 -0.2515 0.546
0001f0 53 37 d7 bc 9e 32 3b c4 39 b3 2f 31 49 b7 6c bb
       0.4578 -1.21 0.2068 -4.23 -0.2257 0.162 -0.4553 -0.9277

conv2.bias f2 [32]
000000 b7 2a 1f ae 8a 3f 80 b4 55 b2 d6 34 29 33 cd 38
       0.05246 -0.09564 1.885 -0.2812 -0.1979 0.3022 0.2238 0.6
000010 f4 ad e2 ae 5e af 7e 3a 77 31 f4 ac 67 ac 04 ac
       -0.093 -0.10754 -0.1151 0.8115 0.1708 -0.0774 -0.0688 -0.06274
000020 a5 aa 12 b1 8d a9 be bc a5 a5 4e b0 ee af 45 af
       -0.0519 -0.1584 -0.04337 -1.186 -0.02205 -0.1345 -0.1239 -0.1136
000030 f1 1f 5b ab 7f ac 31 af 48 24 b1 31 cf ae f8 af
       0.007755 -0.05746 -0.07025 -0.11237 0.01672 0.1779 -0.1064 -0.1245

conv3.weight f2 [64, 32, 3, 3]
000000 7e b7 db b8 cb bb 19 38 55 b7 55 33 97 37 ef b5
       -0.4683 -0.607 -0.974 0.512 -0.4583 0.2291 0.4744 -0.3708
000010 d6 35 90 9f a3 26 78 2c e6 26 77 a8 4a a6 5e a0
       0.3647 -0.007385 0.02592 0.0698 0.02695 -0.03488 -0.02457 -0.00853
000020 7a 2d 31 ad cd aa 7a b0 57 32 db b4 b5 30 91 a3
       0.0856 -0.0811 -0.05313 -0.1399 0.1981 -0.3035 0.1471 -0.01478
000030 e3 ab 90 ae 93 bc 8d 2e b6 ad a4 2c 68 ae 45 b2
       -0.0616 -0.10254 -1.144 0.10236 -0.08923 0.0725 -0.1001 -0.1959
000040 f7 b2 2d 26 78 22 48 b0 50 bc 2b bf 29 3a ce bf
       -0.2177 0.02412 0.012634 -0.1338 -1.078 -1.792 0.77 -1.951
000050 9f b3 fd 35 b9 b5 51 b9 b6 38 a7 b5 d0 32 9f 37
       -0.2382 0.3743 -0.3577 -0.6646 0.589 -0.3533 0.2129 0.4763
000060 0e b3 87 b5 dd 36 0a b7 48 3a 9b 36 4b 35 47 3a
       -0.2205 -0.3455 0.429 -0.44 0.785 0.4128 0.3308 0.7847
000070 ad b9 1a b4 a4 32 ab b8 ea 3a 13 3c 8c c1 3c be
       -0.7095 -0.2563 0.2075 -0.5835 0.8643 1.019 -2.773 -1.559
000080 a2 b9 2e 3c e3 b6 70 36 2a c0 a6 ac 88 b6 40 3c
       -0.704 1.045 -0.4304 0.4023 -2.082 -0.07263 -0.4082 1.0625
000090 00 2b 37 a2 17 ae da 2d ed a4 03 a6 e8 2c 09 a0
       0.0547 -0.01214 -0.09515 0.09143 -0.01924 -0.02348 0.07666 -0.00788
0000a0 80 a7 54 aa 62 2c b2 25 ff 28 0c 2d ac a7 22 1f
       -0.0293 -0.04944 0.0685 0.02225 0.03903 0.07886 -0.02997 0.006966
0000b0 8d 15 4e 2a 6d a3 07 a2 12 29 09 2d ac a5 d5 1e
       0.001355 0.04926 -0.0145 -0.01177 0.0396 0.0787 -0.02216 0.00667
0000c0 45 a9 8d 23 65 9d 50 37 f6 37 6f ba ec af 86 a2
       -0.04117 0.01475 -0.00527 0.457 0.4976 -0.804 -0.1238 -0.01274
0000d0 3a ba 16 b8 f6 3a be b8 e6 be 48 b6 56 bf bf 38
       -0.7783 -0.5107 0.87 -0.593 -1.725 -0.3926 -1.834 0.5933
0000e0 0d 34 04 c0 16 b4 34 b5 4c be 75 b1 bf 38 23 b8
       0.2532 -2.008 -0.2554 -0.3252 -1.574 -0.1705 0.5933 -0.517
0000f0 39 b6 92 32 eb 2a 11 b6 2d bb 37 bb 5b ae bc 2c
       -0.389 0.2053 0.05405 -0.3792 -0.897 -0.902 -0.0993 0.074
000100 ce 29 d1 2a b9 a7 fb 2a ea ab 5d a2 de 27 3a 85
       0.04535 0.05325 -0.03017 0.05453 -0.06183 -0.01243 0.03073 -7.975e-05
000110 02 aa da ac 1a a2 f9 18 05 25 6b 2a 1b 2b fc 23
       -0.04694 -0.0758 -0.01192 0.002428 0.0196 0.05014 0.0555 0.015594
000120 8b 2a bd a9 90 26 1e a6 7f a8 87 a0 47 25 4c a3
       0.05112 -0.04483 0.02563 -0.0239 -0.03513 -0.00884 0.02061 -0.01425
000130 4f 28 a6 21 ea ac e7 28 f9 a7 77 a2 2b aa 8c 1f
       0.03366 0.01103 -0.0768 0.0383 -0.03114 -0.01263 -0.0482 0.00737
000140 44 31 0b b0 8d 96 66 a7 fe ab 0a 2c 36 27 e5 a8
       0.1646 -0.1263 -0.001599 -0.0289 -0.06244 0.0631 0.02817 -0.03824
000150 da 97 d1 2c 39 22 6d bb 7d b4 04 38 b5 bc a8 3c
       -0.001917 0.07526 0.01215 -0.928 -0.2805 0.502 -1.177 1.164
000160 d3 ba b6 31 4c ad 0c b2 90 0e 6e 2b 81 a9 59 a8
       -0.853 0.1785 -0.08276 -0.189 0.0004005 0.05804 -0.043 -0.03397
000170 54 a7 e1 ac 2f 26 a9 a5 91 28 6b a0 f2 a9 4a a7
       -0.02863 -0.07623 0.02415 -0.02211 0.03568 -0.00863 -0.04645 -0.02847
000180 37 20 e7 25 25 b0 a4 25 3b 2d e4 a8 8f 25 fa a7
       0.00823 0.02306 -0.1295 0.02203 0.0817 -0.0382 0.02171 -0.03116
000190 07 24 6f 1e 37 2d 9b a2 e3 2a 37 24 50 a8 34 2b
       0.01573 0.006283 0.0815 -0.0129 0.0538 0.01646 -0.0337 0.05627
0001a0 13 a5 dd a4 83 aa 76 ab 2e 2b 7e 2b 3b 29 ae a0
       -0.01982 -0.019 -0.05087 -0.0583 0.0561 0.05853 0.04086 -0.00914
0001b0 88 2c c6 3a 3f c0 3c 1f 13 35 b4 3d ec ba d4 33
       0.0708 0.8467 -2.123 0.007065 0.3171 1.426 -0.865 0.2446
0001c0 51 c1 ce 2a ed a5 c4 9d 75 a3 16 ab 01 aa 50 23
       -2.658 0.05316 -0.02315 -0.00563 -0.014565 -0.05536 -0.0469 0.01428
0001d0 32 94 35 25 46 27 ba a4 23 af f4 a8 1e af 36 ae
       -0.001024 0.02034 0.02841 -0.01846 -0.1115 -0.0387 -0.1112 -0.09705
0001e0 df ab 66 29 02 a3 6b 28 d2 33 fb b5 98 a4 b2 b2
       -0.0615 0.04218 -0.01369 0.03452 0.2444 -0.3738 -0.01794 -0.2092
0001f0 d4 ba 39 b6 c5 39 58 bd 7a b9 ea ba b2 3c e1 2d
       -0.8535 -0.389 0.721 -1.336 -0.6846 -0.8643 1.174 0.09186

conv3.bias f2 [64]
000000 6d 33 13 c0 8a bc 93 ab 6f ad 28 bf 0a bc 14 37
       0.232 -2.037 -1.135 -0.05917 -0.0849 -1.789 -1.01 0.4424
000010 07 3a f6 b9 95 bf 7b b9 15 b7 d0 b0 f2 af ba ad
       0.7534 -0.745 -1.8955 -0.685 -0.4426 -0.1504 -0.12415 -0.0895
000020 6a 3f 05 bd 01 b6 5b bc 67 c0 b7 b0 d9 c0 48 af
       1.854 -1.255 -0.3752 -1.089 -2.201 -0.1473 -2.424 -0.1138
000030 d7 bd cd bf da bf b6 af 58 be af 34 ff c0 35 39
       -1.46 -1.95 -1.963 -0.1205 -1.586 0.2927 -2.498 0.651
000040 53 b0 98 b9 16 bc 79 bc ad af 47 ba 07 be ff 40
       -0.1351 -0.699 -1.021 -1.118 -0.11993 -0.7847 -1.507 2.498
000050 ea ad c4 3f 11 c0 bc 3b 7b b0 2f ac dd be 39 bc
       -0.0924 1.941 -2.033 0.967 -0.14 -0.06537 -1.716 -1.056
000060 59 b2 96 b0 99 b0 99 bb 94 b1 3b b1 78 b1 51 37
       -0.1984 -0.1433 -0.1437 -0.9497 -0.1743 -0.1635 -0.1709 0.4573
000070 f2 b5 86 bd 04 ae 26 c2 d1 bb ee b4 27 43 1b 3a
       -0.3716 -1.381 -0.094 -3.074 -0.977 -0.308 3.576 0.763

conv4.weight f2 [64, 64, 3, 3]
000000 12 c1 2e bd b4 3c c0 b4 3d ad 80 3d 11 c0 a2 41
       -2.535 -1.295 1.176 -0.2969 -0.08185 1.375 -2.033 2.816
000010 9f 32 11 2a 59 39 04 40 92 37 3c bb 1d 3d ca 3f
       0.2069 0.0474 0.6685 2.008 0.4731 -0.9043 1.278 1.947
000020 0c 3a fe b5 4e c3 04 be bc a5 cd c0 36 36 2a 33
       0.756 -0.3745 -3.652 -1.504 -0.0224 -2.4 0.3882 0.2239
000030 4c c2 bc bd 20 c4 f9 a5 1f aa 2d a8 67 28 13 a4
       -3.148 -1.434 -4.125 -0.02333 -0.04782 -0.03262 0.0344 -0.01591
000040 de 23 c1 25 f1 24 b2 9b fe 21 3b 2b 4e 9b 13 a6
       0.015366 0.02248 0.0193 -0.003757 0.0117 0.0565 -0.003567 -0.02373
000050 33 a5 de 22 20 27 e7 a1 3b ae b2 3b b7 bc 94 37
       -0.02031 0.01341 0.02783 -0.01153 -0.09735 0.962 -1.179 0.4736
000060 c3 bb 65 bf 90 36 26 be 59 bf 14 30 d2 3e a9 c0
       -0.97 -1.849 0.4102 -1.537 -1.837 0.1274 1.705 -2.33
000070 35 40 cc b9 f5 38 42 3c 1e c2 d1 c1 9f bc b0 c0
       2.104 -0.7246 0.6196 1.064 -3.059 -2.908 -1.155 -2.344
000080 9b bc 32 bc 00 bf c8 b5 2e 38 b9 c4 36 bd 84 3e
       -1.151 -1.049 -1.75 -0.3613 0.5225 -4.723 -1.303 1.629
000090 1a 31 eb b8 b6 2d 49 3c a5 37 4c 37 23 b6 86 31
       0.1594 -0.6147 0.08923 1.071 0.4778 0.456 -0.3835 0.1726
0000a0 6d 37 bf 3d ab 3d c6 b7 bb 3f 10 35 e8 b1 5d bb
       0.464 1.437 1.417 -0.4858 1.933 0.3164 -0.1846 -0.9204
0000b0 ea b9 a1 41 62 33 ec 3c 1a 3c 9f 3c 6c 3a 3c b9
       -0.7393 2.814 0.2307 1.23 1.025 1.155 0.8027 -0.6543
0000c0 94 31 2a bd 94 ba f2 3f 54 40 54 c1 f7 36 0b bf
       0.1743 -1.291 -0.8223 1.986 2.164 -2.664 0.4353 -1.761
0000d0 65 38 d2 3a 8a c1 ec b9 21 c1 65 3a fa be d4 ba
       0.5493 0.8525 -2.77 -0.74 -2.564 0.7993 -1.744 -0.8535
0000e0 5c 3d 5a b2 5d b4 af 3d b9 ba c2 a1 20 a7 00 a8
       1.34 -0.1985 -0.2727 1.421 -0.8403 -0.011246 -0.02783 -0.03125
0000f0 39 a8 fb a5 95 25 37 21 fd 25 89 24 de 20 4c 2a
       -0.033 -0.02336 0.0218 0.010185 0.02339 0.01772 0.00951 0.0492
000100 f9 a8 e4 28 8e 24 fb 28 be 28 55 a5 1b 29 05 a1
       -0.03885 0.0382 0.01779 0.0389 0.03705 -0.02083 0.0399 -0.0098
000110 d4 a7 ed 17 35 22 38 aa 2f 23 01 a4 44 24 b2 20
       -0.03058 0.001935 0.01212 -0.04858 0.01403 -0.01564 0.01666 0.00917
000120 57 c0 6b b7 36 2c 7d 31 28 b0 59 be e3 bf be ac
       -2.17 -0.4636 0.0658 0.1715 -0.1299 -1.587 -1.972 -0.0741
000130 78 ac c1 34 05 3e 2b 40 81 b5 4e b7 82 38 9e 3a
       -0.0698 0.297 1.505 2.084 -0.344 -0.4565 0.5635 0.827
000140 0f ba 91 ac 3a 2b 32 a7 f9 a8 f8 b1 9f ae 1a 2e
       -0.7573 -0.07135 0.05646 -0.0281 -0.03885 -0.1865 -0.10345 0.09534
000150 ad b3 57 af 88 b4 f1 b5 94 3f 78 3f ae 3d 4e b7
       -0.2399 -0.1147 -0.2832 -0.3713 1.895 1.867 1.42 -0.4565
000160 89 b7 75 40 f8 bc dc 41 7a b4 03 3c d2 3b c5 c5
       -0.471 2.229 -1.242 2.93 -0.2798 1.003 0.9775 -5.77
000170 41 c4 ab be 10 c0 ef bd cf c1 89 3b a0 b5 3b c0
       -4.254 -1.667 -2.031 -1.483 -2.904 0.942 -0.3516 -2.115
000180 ac 31 31 37 93 b7 df bb 13 b9 8c 3c 4d 3c 3a bc
       0.1772 0.4495 -0.4734 -0.984 -0.6343 1.137 1.075 -1.057
000190 dc 3e 7c 3b 51 bb 0e 38 7a b9 21 c0 83 bd a2 27
       1.715 0.9355 -0.9146 0.507 -0.6846 -2.064 -1.378 0.02982
0001a0 40 2b ef a0 62 9f 68 1e 8d 9c 04 24 7a 22 f6 a3
       0.05664 -0.009636 -0.00721 0.006256 -0.004444 0.01569 0.01265 -0.01555
0001b0 ac 3e 45 41 e5 42 55 bb 50 bb 86 c1 44 be 49 c1
       1.668 2.635 3.447 -0.9165 -0.914 -2.762 -1.566 -2.643
0001c0 bc b4 65 af 63 b0 be b9 66 c0 87 bc ca 3c 12 bc
       -0.296 -0.11554 -0.1371 -0.718 -2.2 -1.132 1.197 -1.018
0001d0 57 c0 ba 3b 08 3c bb 39 86 b0 b2 bb da 2e d0 39
       -2.17 0.966 1.008 0.7163 -0.1414 -0.962 0.10706 0.7266
0001e0 3d b7 c7 bb a1 3e 7e a3 fc a4 71 a4 70 a9 b0 90
       -0.4524 -0.972 1.657 -0.01463 -0.01947 -0.01735 -0.04248 -0.000572
0001f0 a6 a9 56 1d 09 a8 89 9f 28 ba 24 3d 29 41 28 1d
       -0.04413 0.00521 -0.03152 -0.00736 -0.7695 1.285 2.58 0.005035

conv4.bias f2 [64]
000000 fe bd c5 b2 13 ba 0f b0 c2 af 08 b7 97 bc 2b 22
       -1.498 -0.2115 -0.7593 -0.1268 -0.1212 -0.4395 -1.147 0.01205
000010 74 b1 01 c3 35 bf fe c1 4e af 26 bc 86 ac 7d be
       -0.1704 -3.502 -1.802 -2.996 -0.11414 -1.037 -0.0707 -1.622
000020 db ac 85 aa c4 b8 da c0 6c bf 37 b1 e6 c0 4b bf
       -0.07587 -0.05093 -0.5957 -2.426 -1.855 -0.163 -2.45 -1.823
000030 c4 b9 4e 33 89 c1 8e b0 b6 b0 59 c0 73 be 25 c0
       -0.7207 0.2283 -2.768 -0.1423 -0.1472 -2.174 -1.612 -2.072
000040 3e c1 58 ba 1d af 83 c1 44 af 5d b1 69 b0 e8 ad
       -2.621 -0.793 -0.11115 -2.756 -0.1135 -0.1676 -0.1378 -0.0923
000050 c5 aa 12 b0 3a af 35 ad d2 ac 81 b1 83 bf e0 c1
       -0.0529 -0.1272 -0.1129 -0.08136 -0.0753 -0.172 -1.878 -2.938
000060 46 b9 88 bf 9a a1 ab c0 51 ac 32 af fb ac a3 be
       -0.659 -1.883 -0.01094 -2.334 -0.06744 -0.1124 -0.0778 -1.659
000070 cf b0 74 aa 25 c1 f1 bc bd ad 12 c2 a2 b0 ca ad
       -0.1503 -0.0504 -2.572 -1.235 -0.08966 -3.035 -0.1448 -0.09045

fc1.weight f2 [128, 256]
000000 31 3e 6d b6 54 3b 8b b1 e8 26 b6 29 83 aa 31 a7
       1.548 -0.4016 0.916 -0.1732 0.02698 0.04462 -0.05087 -0.02809
000010 07 25 62 2c 65 aa 4b 33 d1 20 8f 2a d3 ab a7 2d
       0.01964 0.0685 -0.04996 0.2279 0.00941 0.05124 -0.06113 0.0883
000020 38 2d 3c a8 21 23 38 2a e3 31 43 ac a2 af 91 2a
       0.08154 -0.03308 0.01392 0.04858 0.184 -0.0666 -0.11926 0.0513
000030 ed 3b 51 35 74 38 19 3c e0 ac c7 38 b9 b9 98 a9
       0.9907 0.3323 0.5566 1.024 -0.0762 0.597 -0.7153 -0.0437
000040 c8 2c a5 25 6a 1c 32 a8 24 38 10 39 8b 37 d0 3c
       0.0747 0.02205 0.00431 -0.03278 0.5176 0.633 0.4714 1.203
000050 73 3a 26 34 29 39 ca 33 fe 34 07 ad cf 3a 0c 3c
       0.806 0.2593 0.645 0.2434 0.312 -0.07855 0.851 1.012
000060 dc 19 36 20 e3 a6 3c 24 a8 3c 9b 3c f3 37 4b 39
       0.002861 0.008224 -0.0269 0.01654 1.164 1.151 0.4968 0.6616
000070 01 28 c4 a1 9a 9b 32 24 4e 3a 77 34 61 39 65 33
       0.03128 -0.01126 -0.003712 0.01639 0.788 0.279 0.6724 0.2311
000080 5e aa 75 a0 1a 9d 94 25 83 ad 18 1e bb a5 ad 26
       -0.04974 -0.008705 -0.004982 0.02179 -0.0861 0.00595 -0.02238 0.02608
000090 59 39 78 3b 56 b7 ce b1 4d 36 60 39 80 36 f9 36
       0.6685 0.9336 -0.4585 -0.1814 0.3938 0.672 0.4062 0.4358
0000a0 1c 2e d6 3b ff 34 0c 3c 6a ab 64 0e 21 a7 e7 9f
       0.09546 0.9795 0.3123 1.012 -0.05792 0.00039 -0.02785 -0.007717
0000b0 0a 37 39 39 a8 39 2a 39 12 3b 01 3c df 39 1f 3c
       0.44 0.653 0.707 0.6455 0.884 1.001 0.734 1.03
0000c0 16 b2 dc ad 4b 30 5c a1 0c b0 22 35 65 b6 83 b8
       -0.1902 -0.09155 0.1342 -0.01047 -0.1265 0.3208 -0.3997 -0.564
0000d0 0b 2e 18 3a 2f 37 1f 39 4a 2a 93 29 9a a5 ac ab
       0.0944 0.7617 0.449 0.64 0.04913 0.04355 -0.02188 -0.05994
0000e0 0a 1f 07 2e 8f ae ac ad f2 39 4e 39 d7 38 eb 3a
       0.006874 0.0942 -0.1025 -0.0886 0.743 0.663 0.605 0.8647
0000f0 fe 38 42 3d ed 38 ab 3a 90 3b 82 3d 65 36 c9 39
       0.624 1.314 0.6157 0.8335 0.9453 1.377 0.3997 0.723
000100 5c 34 23 33 3a 35 1e 39 6f ab 3e 33 90 2a 6c 35
       0.2725 0.223 0.3267 0.6396 -0.05807 0.2263 0.05127 0.3389
000110 69 a5 a9 ac eb a9 33 25 cd 36 f0 af 3f 31 c0 36
       -0.02113 -0.0728 -0.04623 0.02031 0.425 -0.124 0.164 0.4219
000120 da 2b 3b 2a 45 2a e9 28 4a ac 63 9e 60 a9 39 97
       0.06134 0.04868 0.04898 0.03836 -0.067 -0.006237 -0.042 -0.001763
000130 12 ac 49 ad 72 a4 ea 26 c1 a8 44 1f 56 9d 0a ab
       -0.0636 -0.0826 -0.01736 0.02701 -0.03714 0.007095 -0.00521 -0.055
000140 19 a2 08 2c e2 ab 4c a0 ab 1f c8 2d 31 a4 59 2c
       -0.01191 0.063 -0.06158 -0.00839 0.00749 0.09033 -0.01637 0.06793
000150 59 1f fb a8 28 a2 24 29 48 37 86 38 1c 3b 5a 34
       0.007175 -0.0389 -0.012024 0.04016 0.455 0.5654 0.8887 0.272
000160 4e aa d2 11 93 24 71 20 4b aa 89 a4 05 ad 96 aa
       -0.04926 0.0007105 0.01787 0.008675 -0.04916 -0.01772 -0.0784 -0.05145
000170 f7 3b 47 38 f0 35 15 36 3f 39 22 34 da ac 6c b0
       0.9956 0.5347 0.371 0.3801 0.656 0.2583 -0.0758 -0.1382
000180 87 30 5e 29 85 34 b2 38 de 3a f4 3d d8 34 83 38
       0.1415 0.04193 0.2825 0.587 0.8584 1.488 0.3027 0.564
000190 10 ac 33 1c ab a8 db a1 96 3a c1 3b ef 38 99 39
       -0.0635 0.0041 -0.03647 -0.01144 0.823 0.969 0.6167 0.6997
0001a0 1c a8 cb ab c7 27 21 aa c3 28 8e 2c 13 29 6a 26
       -0.0321 -0.06088 0.03038 -0.04788 0.0372 0.07117 0.03964 0.02505
0001b0 1a 24 fd 17 a1 a0 54 a8 55 3b 0c ad f6 3b 5e 3c
       0.01602 0.00195 -0.00904 -0.0338 0.9165 -0.07886 0.995 1.092
0001c0 65 ad d0 a8 83 25 86 2c 73 21 cb 9e 63 ac d0 28
       -0.0843 -0.0376 0.02153 0.0707 0.01064 -0.006634 -0.06854 0.0376
0001d0 f4 37 8a 39 b5 39 bf 36 c1 33 cc 38 4b 36 81 30
       0.497 0.6924 0.7134 0.4216 0.2423 0.5996 0.3933 0.1407
0001e0 81 a4 81 29 2a ac 2a ac af 39 5b 3c 2b 39 98 3b
       -0.0176 0.043 -0.06506 -0.06506 0.7104 1.089 0.646 0.949
0001f0 fc a8 62 28 5f aa 66 26 6f ab 93 a7 02 2c b8 a8
       -0.03894 0.03424 -0.04977 0.025 -0.05807 -0.02959 0.0626 -0.03687

fc1.bias f2 [128]
000000 62 b9 30 b8 16 b3 55 0e d6 b2 26 3c 00 b8 a5 ba
       -0.673 -0.5234 -0.2214 0.0003865 -0.2136 1.037 -0.5 -0.8306
000010 05 3b 28 3f dd 3e 12 3c 65 ae 9c 37 81 3a 2a 3f
       0.8774 1.789 1.716 1.018 -0.0999 0.4756 0.813 1.791
000020 e7 37 a2 a3 2d b5 32 41 12 40 74 3f be 3d fd 3e
       0.494 -0.01491 -0.3235 2.598 2.035 1.863 1.436 1.747
000030 08 3f 32 bb cb 3d 6f 3c 5f b3 fc ae 5e 38 05 40
       1.758 -0.8994 1.448 1.108 -0.2303 -0.10913 0.546 2.01
000040 41 3d 85 3f 86 b6 76 3a e8 b5 97 b1 90 b2 42 40
       1.313 1.88 -0.4077 0.8076 -0.3691 -0.1747 -0.2051 2.129
000050 3e 33 5d bf cb 3b cc b6 16 b0 3a af 6a 36 eb 3d
       0.2263 -1.841 0.974 -0.4248 -0.1277 -0.1129 0.401 1.4795
000060 ee af 56 40 3d be b9 b7 20 3e 46 3e f2 ae 56 3a
       -0.1239 2.168 -1.56 -0.4827 1.531 1.568 -0.1085 0.792
000070 1e 3d c0 b1 7a 3c e0 af 02 40 2c 3d 37 b6 0a 35
       1.279 -0.1797 1.119 -0.12305 2.004 1.293 -0.3884 0.315
000080 ac 40 1d 3e d1 af 83 3f 39 3d 61 ae 43 b0 60 b3
       2.336 1.528 -0.12213 1.878 1.306 -0.0997 -0.1332 -0.2305
000090 fe af 39 ba fd b4 12 3f 74 3d 3e 3f f3 bc 95 3d
       -0.1249 -0.778 -0.3118 1.768 1.363 1.811 -1.237 1.3955
0000a0 d7 3c 25 40 4d bc c4 b5 a6 2b b6 ad ef bd fe 38
       1.21 2.072 -1.075 -0.3604 0.05975 -0.08923 -1.483 0.624
0000b0 b3 3d ca af 45 b2 04 b8 df 3e d5 a4 bd 3e 99 a8
       1.425 -0.1217 -0.1959 -0.502 1.718 -0.01888 1.685 -0.03592
0000c0 ed 37 0c b1 77 b0 94 29 26 bc 9f 36 93 3d 20 a8
       0.4954 -0.1577 -0.1395 0.04358 -1.037 0.4138 1.394 -0.03223
0000d0 64 b5 a6 a2 d5 ae 43 3d 3b ad e2 bf f3 3f 02 ba
       -0.337 -0.012985 -0.10675 1.315 -0.0817 -1.971 1.987 -0.751
0000e0 00 af f7 a5 3b ac ec ac 24 40 0f 29 10 3e 07 3a
       -0.1094 -0.0233 -0.0661 -0.0769 2.07 0.03952 1.516 0.7534
0000f0 7f bd ba 3f 30 3e c2 b8 6a 3c 1e 3d 4c 3e 2c b8
       -1.374 1.932 1.547 -0.5947 1.104 1.279 1.574 -0.5215

fc2.weight f2 [64, 128]
000000 3f 35 ba 33 c6 a6 7e ac 70 ae db a8 77 2b 17 3a
       0.328 0.2415 -0.02646 -0.0702 -0.1006 -0.03793 0.05832 0.761
000010 28 ae 1d b0 e2 ba 7a b6 65 a4 79 20 44 b8 df 35
       -0.0962 -0.1285 -0.8604 -0.4048 -0.01717 0.008736 -0.533 0.367
000020 b6 2c 31 ab 08 ae fb 35 85 ad bb b4 92 b8 d5 af
       0.0736 -0.05618 -0.09424 0.3738 -0.08624 -0.2957 -0.5713 -0.1224
000030 f9 b4 1e 38 69 2b 0d 31 b1 2d cf 2a 4c 3a 4f 2e
       -0.3108 0.5146 0.0579 0.1578 0.0889 0.0532 0.787 0.0986
000040 bb 2d f9 2c c8 3a da ad fa 38 8a af 2b 31 8b 24
       0.08954 0.0777 0.8477 -0.09143 0.622 -0.1178 0.1615 0.01775
000050 44 34 53 2a 3e 2d 50 28 9c b0 9f ac 18 2b b3 2c
       0.2666 0.0494 0.0819 0.0337 -0.144 -0.0722 0.05542 0.0734
000060 8b 28 36 b0 9c 37 78 39 f7 b3 81 a7 ea 9c 66 2e
       0.0355 -0.1316 0.4756 0.6836 -0.2489 -0.02931 -0.0048 0.1
000070 7b a4 cd b0 52 2f 19 28 64 b4 90 bb 94 3b 57 3c
       -0.0175 -0.15 0.1144 0.032 -0.2744 -0.9453 0.9473 1.085
000080 32 b2 3f b6 17 27 96 2e eb ae f7 29 8c 96 1c 27
       -0.1936 -0.3904 0.0277 0.1029 -0.1081 0.0466 -0.001598 0.02777
000090 01 ae 19 34 5e 38 f5 2c 2f ab bf 2b f3 31 5d ac
       -0.0938 0.256 0.546 0.07745 -0.05612 0.06052 0.1859 -0.0682
0000a0 6d 30 2f b8 9c 3a 93 3c 39 31 97 28 58 3b 44 9d
       0.1383 -0.523 0.826 1.144 0.1632 0.03586 0.918 -0.005142
0000b0 77 b5 be 2e c4 ac 5d 3a cf ae 6f a3 35 1c 0f 3a
       -0.3416 0.10535 -0.07446 0.7954 -0.1064 -0.01452 0.00411 0.7573
0000c0 e7 22 0b 2e fa 2e 34 b1 99 37 2a b5 f9 2d 16 a5
       0.01348 0.0944 0.109 -0.1626 0.4749 -0.3228 0.0933 -0.01987
0000d0 62 2c 4c 3c 35 23 9b b9 35 2c 26 b0 c1 2d c9 2f
       0.0685 1.074 0.01408 -0.7007 0.06573 -0.1296 0.0899 0.12164
0000e0 ad 28 fb 2d fc 3a d6 ac 43 2d 63 35 1d 35 3c 35
       0.03653 0.09344 0.873 -0.07556 0.0822 0.3367 0.3196 0.3271
0000f0 11 34 b6 b7 34 b3 0b ac 84 b5 af 36 f8 15 70 31
       0.2542 -0.482 -0.2251 -0.0632 -0.3447 0.4177 0.001457 0.1699
000100 00 3a 87 38 55 a9 2b 29 ea 9d d4 24 51 a7 8a 3b
       0.75 0.566 -0.04166 0.04037 -0.005775 0.01886 -0.02858 0.9424
000110 0b b7 ce b2 c5 1e 1f b3 46 b0 55 26 53 bd 8c 36
       -0.4402 -0.2126 0.00661 -0.2225 -0.1335 0.02473 -1.331 0.4092
000120 25 31 f2 2c 38 b4 fb 36 6d b6 9c ac 82 b6 65 b4
       0.1608 0.0773 -0.2637 0.4363 -0.4016 -0.072 -0.4067 -0.2747
000130 e8 30 b1 b1 fa b2 f3 ac 8c a8 a0 28 1c 3a 7f 2c
       0.1533 -0.1779 -0.218 -0.07733 -0.03552 0.03613 0.7637 0.07025
000140 5a 32 5b ba 2b 39 e5 b0 e9 3a 0f 30 5b 34 80 b3
       0.1985 -0.7944 0.646 -0.153 0.864 0.1268 0.2722 -0.2344
000150 a6 34 3f 36 e0 99 54 b8 fd 2b e3 27 84 b3 32 2d
       0.2905 0.3904 -0.002869 -0.541 0.0624 0.0308 -0.2349 0.0812
000160 2f 1a e8 b0 9c 33 0d 3a 3d b2 d5 b4 60 2d c5 28
       0.00302 -0.1533 0.2378 0.7563 -0.195 -0.302 0.084 0.03726
000170 85 31 d0 30 c6 ac 45 a9 cd ae 50 b4 7e 3a 9a 39
       0.1725 0.1504 -0.0746 -0.04117 -0.10626 -0.2695 0.8115 0.7
000180 b7 af 88 b4 37 a0 f2 25 f7 bb af a7 4c ac 95 31
       -0.12054 -0.2832 -0.00823 0.02322 -0.9956 -0.03001 -0.06714 0.1744
000190 ee a7 74 34 5e 38 93 34 da ae 86 2c f2 31 5f ab
       -0.03098 0.2783 0.546 0.286 -0.10706 0.0707 0.1858 -0.0576
0001a0 c5 2c db ac ee 37 40 37 63 31 da a9 72 3b f2 23
       0.0745 -0.07587 0.4956 0.4531 0.1683 -0.04572 0.9307 0.01552
0001b0 fe b6 be 27 ee ac ab 3c 0d b2 42 24 01 32 e3 37
       -0.437 0.03024 -0.077 1.167 -0.1891 0.01663 0.1876 0.493
0001c0 62 2a dd ac ec 9b 6d 2f 84 3a 96 b0 75 b4 2f 2d
       0.04987 -0.076 -0.003868 0.116 0.8145 -0.1433 -0.2786 0.081
0001d0 57 29 98 3a e2 27 80 b7 3c 24 3e 36 c4 2d 26 36
       0.04172 0.824 0.03079 -0.4688 0.01654 0.3901 0.0901 0.3843
0001e0 14 ad 88 9c 54 3b c9 2b 24 31 08 b5 ee 35 ca 3a
       -0.07935 -0.004425 0.916 0.06082 0.1606 -0.3145 0.3706 0.8486
0001f0 db 2e e8 b0 47 b0 0a 37 3c b5 e6 2a b5 31 a2 a7
       0.1071 -0.1533 -0.1337 0.44 -0.3271 0.0539 0.1783 -0.02982

fc2.bias f2 [64]
000000 e7 37 f9 32 51 38 1b 39 0f 39 d2 38 41 34 95 38
       0.494 0.2179 0.5396 0.638 0.6323 0.6025 0.2659 0.5728
000010 7f 39 eb 3a 47 39 a5 38 5d 36 9b 3b b1 38 87 3a
       0.687 0.8647 0.6597 0.5806 0.3977 0.9507 0.5864 0.816
000020 32 39 af 38 44 39 75 3b db 35 c7 36 6c 39 a6 37
       0.6494 0.5854 0.658 0.932 0.366 0.4236 0.6777 0.478
000030 fd 34 94 39 82 38 95 39 c1 38 48 37 ac 37 df 39
       0.3118 0.6973 0.5635 0.6978 0.594 0.455 0.4795 0.734
000040 05 3b 0a 38 f7 3a e7 38 57 3b 45 3a db 38 f3 37
       0.8774 0.505 0.8706 0.613 0.9175 0.7837 0.607 0.4968
000050 e9 3a 2f 39 cf 38 22 39 d3 38 93 39 46 39 60 38
       0.864 0.648 0.601 0.6416 0.603 0.697 0.659 0.547
000060 45 31 22 38 06 37 63 3a 1b 39 df 37 48 38 a2 38
       0.1647 0.5166 0.439 0.7983 0.638 0.492 0.535 0.579
000070 d5 31 77 3b bd 39 85 37 9b 33 ea 36 7c 32 84 36
       0.1823 0.933 0.7173 0.47 0.2377 0.4321 0.2026 0.4072

fc3.weight f2 [1, 64]
000000 15 25 68 25 7d 21 66 a0 1f a1 da 9e cb 22 32 a1
       0.01985 0.02112 0.01072 -0.00859 -0.01 -0.00669 0.01327 -0.01015
000010 3f a0 ed 21 d3 9e c2 a1 eb 22 92 21 26 a2 b7 23
       -0.00829 0.01157 -0.006664 -0.011246 0.01351 0.01088 -0.01201 0.01507
000020 41 24 77 a2 1f 24 32 21 c1 23 c6 20 80 a1 1b 24
       0.01662 -0.01263 0.0161 0.01015 0.015144 0.00932 -0.01074 0.01604
000030 10 25 64 24 1f 23 b1 9d 20 a0 eb 25 95 22 0f 24
       0.01978 0.01715 0.01391 -0.005558 -0.00806 0.02312 0.012856 0.01585
000040 66 22 b6 23 67 22 09 a3 9b 22 64 24 cf a2 2a 24
       0.0125 0.01506 0.012505 -0.01374 0.0129 0.01715 -0.0133 0.01627
000050 32 22 2e 25 f4 a1 71 21 99 9f c6 9e e2 a0 20 a1
       0.0121 0.02023 -0.01163 0.01063 -0.00742 -0.006615 -0.00954 -0.01001
000060 5f 23 f5 22 4f 22 c7 20 a5 a4 fb 20 84 21 1a a0
       0.0144 0.01359 0.01232 0.00933 -0.01814 0.00973 0.01077 -0.00801
000070 6a 23 72 24 9e a2 95 21 f8 1f 2e 24 cd 24 2c 24
       0.01448 0.01736 -0.012924 0.0109 0.007782 0.01633 0.01875 0.0163
