chess_rust/src/chess_cnn_model_final_f16_3_convs.pt (torch, 146194 bytes, 11 tensors)

conv1.weight f2 [32, 6, 3, 3]
-0.8325 -0.1366 -0.011955 -0.5654 -0.265 0.051 -0.4038 -0.231
-0.254 0.00641 -0.10645 -0.03452 -0.711 0.1383 -0.1077 -0.2852
0.1499 -0.2181 -0.923 0.3494 -0.4622 -0.4 -0.341 0.428
-0.8022 0.1322 -0.4275 -0.949 -0.4653 -0.5225 -0.814 -0.1593
0.01692 -0.335 -0.31 -0.277 -2.016 -0.332 -1.042 -0.8335
-0.1405 0.08765 -0.12067 -0.2085 0.05408 0.1923 0.4773 -0.2238
0.476 0.3992 0.09827 0.1913 0.4019 0.1393 1.012 -0.7354
-0.2983 0.4292 -0.8696 -0.1012 0.8887 -0.696 0.291 -0.644
0.1742 -0.0696 -0.005936 0.933 0.4153 -0.4688 -1.052 0.6973
-0.08057 0.0622 -0.172 -0.2446 -0.09094 0.4373 -0.3728 0.3135
0.09845 0.2072 -0.295 -0.02773 0.127 -0.2363 0.4463 0.004368
-0.755 -0.5967 0.3564 -0.0663 -0.00382 -0.00832 -0.089 0.3005
0.2996 -0.09174 -0.010056 -0.07385 0.0782 -0.001132 0.513 0.1254
0.4622 -0.183 0.8857 0.274 -0.4465 -0.1752 0.3525 0.211
0.1681 0.4426 -0.0852 -0.6714 0.5054 -0.1675 -0.05753 -1.715
-0.6685 0.4343 -0.1995 0.2003 -1.267 0.4631 -1.622 -0.1632
-1.824 0.03757 -1.166 -0.566 -0.548 -0.439 0.1666 -0.1932
-0.03134 -0.829 0.324 -0.03525 -0.7437 -0.1046 -0.002295 -0.09784
0.1838 -0.5073 -0.2822 -0.08923 -0.3945 -0.759 -0.425 -0.1923
-0.2002 -0.05173 0.02528 0.1548 0.1332 0.3447 -0.2272 0.1708
0.0548 0.00552 0.2944 0.2776 0.0847 -0.504 0.2487 0.4207
-1.146 1.435 -0.1521 -0.2162 -0.2969 -0.2886 0.3037 0.1577
-0.01738 -0.949 -0.8354 0.1953 0.05194 0.03064 -0.2642 -0.0972
0.362 0.2512 -0.1583 -0.1624 -0.318 -0.2319 -0.6406 0.1365
0.1749 -0.4712 0.1729 -0.948 0.3384 0.0833 -0.4565 -0.934
-0.6333 -0.03775 -0.1609 -0.4297 -1.136 0.11926 -0.6143 0.576
0.8027 0.0996 0.1613 1.136 0.6353 0.1472 0.3552 0.3909
0.2773 0.2451 -0.1638 -0.5127 0.2778 0.0614 -0.3022 0.5435
-0.003576 -0.4626 -0.1765 0.1216 0.2532 0.4338 -0.3633 0.004604
0.06055 -0.0002133 1.736 0.2698 0.01263 0.439 1.377 0.3633
-0.2036 0.1772 1.372 0.2732 -0.7314 -1.133 -0.3442 -0.1674
-1.204 0.07074 -0.536 0.009895 0.219 0.1938 -0.387 -0.449
00000000: a9ba 5fb0 1fa2 86b8 3db4 872a 76b6 64b3
00000010: 10b4 901e d0ae 6ba8 b0b9 6d30 e5ae 90b4
00000020: cc30 fbb2 62bb 9735 65b7 66b6 75b5 d936
00000030: 6bba 3b30 d7b6 98bb 72b7 2eb8 83ba 19b1
00000040: 5524 5cb5 f6b4 6fb4 08c0 50b5 2bbc abba
00000050: 7fb0 9c2d b9af acb2 ec2a 2732 a337 29b3
00000060: 9e37 6336 4a2e 1f32 6e36 7530 0c3c e2b9
00000070: c6b4 de36 f5ba 7aae 1c3b 91b9 a834 27b9
00000080: 9331 74ac 149e 773b a536 80b7 35bc 9439
00000090: 28ad f62b 81b1 d4b3 d2ad ff36 f7b5 0435
000000a0: 4d2e a132 b8b4 19a7 1030 90b3 2437 791c
000000b0: 0aba c6b8 b435 3eac d39b 43a0 b2ad cf34
000000c0: cb34 dfad 26a1 baac 012d a394 1b38 0330
000000d0: 6537 dbb1 163b 6234 25b7 9bb1 a435 c132
000000e0: 6131 1537 74ad 5fb9 0b38 5cb1 5dab dcbe
000000f0: 59b9 f336 62b2 6932 11bd 6937 7dbe 39b1
00000100: 4cbf cf28 aabc 87b8 62b8 06b7 5531 2fb2
00000110: 03a8 a2ba 2f35 83a8 f3b9 b2ae b398 43ae
00000120: e231 0fb8 84b4 b6ad 50b6 12ba cdb6 27b2
00000130: 68b2 9faa 7926 f430 4330 8435 45b3 7731
00000140: 042b a71d b634 7134 6c2d 08b8 f533 bb36
00000150: 96bc bd3d deb0 ebb2 c0b4 9eb4 dc34 0c31
00000160: 73a4 98bb afba 4032 a62a d827 3ab4 39ae
00000170: cb35 0534 11b1 32b1 17b5 6cb3 20b9 5e30
00000180: 9931 8ab7 8831 96bb 6a35 552d 4eb7 79bb
00000190: 11b9 d5a8 26b1 e0b6 8bbc a22f eab8 9c38
000001a0: 6c3a 602e 2931 8b3c 1539 b630 af35 4136
000001b0: 7034 d833 3eb1 1ab8 7234 dc2b d6b4 5938
000001c0: 539b 67b7 a6b1 c82f 0d34 f136 d0b5 b71c
000001d0: c02b fd8a f23e 5134 7722 0637 823d d035
000001e0: 84b2 ac31 7d3d 5f34 dab9 88bc 82b5 5bb1
000001f0: d1bc 872c 4ab8 1121 0233 3432 31b6 2fb7

conv1.bias f2 [32]
0.1412 -0.4236 -0.5454 -0.779 -0.616 -0.1852 -0.07855 -0.879
-0.2893 -0.5063 -0.3289 -0.4631 -0.432 -0.3813 -0.3108 -0.779
-0.3389 -0.2922 -0.695 0.2598 -0.01109 -0.6943 -0.08685 -0.161
0.1813 -0.781 -0.2192 -0.3723 -0.414 0.4324 -1.322 -0.171
00000000: 8530 c7b6 5db8 3bba eeb8 edb1 07ad 08bb
00000010: a1b4 0db8 43b5 69b7 e9b6 1ab6 f9b4 3bba
00000020: 6cb5 adb4 8fb9 2834 aea1 8eb9 8fad 27b1
00000030: cd31 3fba 04b3 f5b5 a0b6 eb36 4abd 79b1

conv2.weight f2 [32, 32, 3, 3]
0.12146 -0.2227 -0.1968 0.446 0.475 -0.4973 -0.7314 -0.713
-1.41 -0.6143 0.8853 -0.5576 -0.697 0.09784 1.159 0.2542
-0.651 -0.6377 0.792 1.023 -0.519 0.1575 0.1654 1.117
0.02733 -0.3237 0.2238 0.5283 -2.482 0.3076 -1.263 0.07855
0.7437 -0.6147 0.335 0.992 -0.5356 -0.829 -1.161 -0.6055
-0.2085 0.16 -0.2803 -0.828 1.021 -0.1571 0.4807 -0.271
-0.717 -1.4375 -0.609 0.4387 -0.905 2.328 -0.3171 -0.4453
0.4292 0.7476 1.031 0.297 0.4146 0.02414 0.1484 -0.843
-0.3496 -1.337 -0.005978 0.1902 -0.579 0.1945 -0.7754 0.529
-0.7344 -2.988 -1.171 0.005135 0.6885 0.4355 0.5605 -0.4902
-1.192 0.7964 -0.286 0.2366 -0.03873 0.3555 0.4104 -0.1357
0.3713 0.4495 0.1174 0.8955 1.141 -0.706 0.424 -1.337
0.1929 -0.6562 -0.75 1.008 0.0645 0.2083 -1.188 0.2883
-0.2211 0.2158 0.9834 1.327 -1.626 0.0956 0.6123 1.358
0.598 0.1228 0.8945 -0.05286 0.58 0.7744 0.3557 -0.967
0.4712 -0.5376 -0.2086 0.3523 0.7393 0.541 -0.443 0.1904
0.698 0.1081 -1.724 -0.891 -0.4717 1.421 0.7476 0.4001
0.3367 -0.6924 0.1854 -1.407 1.129 0.744 0.797 -3.395
-0.0737 -0.02211 0.665 0.4438 0.906 -0.663 0.3247 0.518
0.7188 0.02386 -0.954 0.856 0.1426 -0.6133 0.2428 0.233
-0.4888 0.1456 -2.08 -0.78 -0.01645 0.006714 -0.9663 -1.215
-0.959 0.565 -0.997 0.6157 -0.3057 -0.1215 -0.0594 -0.1433
-0.0719 -0.4116 -0.1725 -0.398 -0.4255 -0.791 -0.9146 0.00822
0.5903 -1.186 -0.253 -0.6167 0.744 -0.459 0.2068 0.3162
-0.1827 0.0575 -1.485 -0.01653 -0.4363 -1.582 -0.2761 0.8975
-0.2197 -0.165 -1.693 -0.2014 -0.4895 -0.04453 -1.0205 -0.2578
0.4146 -0.552 0.3108 -0.00259 -0.4436 0.3354 -0.4702 -0.3074
0.4253 0.1617 -0.0757 -0.4932 -0.4185 -0.4766 -2.102 0.1759
-0.0414 -0.435 -0.465 -0.12054 1.233 -0.0001625 0.9175 -0.496
-0.333 -0.09875 -1.052 0.05038 -0.969 -0.09125 -1.066 1.023
0.4055 0.6733 0.2637 -0.216 0.822 0.4326 -0.3218 -1.315
0.1937 0.555 0.654 0.1733 0.639 0.396 0.6143 -0.1251
00000000: c62f 20b3 4cb2 2337 9a37 f5b7 dab9 b4b9
00000010: a4bd eab8 153b 76b8 93b9 432e a33c 1134
00000020: 35b9 1ab9 563a 183c 27b8 0a31 4b31 783c
00000030: ff26 2eb5 2933 3a38 f7c0 ec34 0dbd 072d
00000040: f339 ebb8 5c35 f03b 49b8 a2ba a5bc d8b8
00000050: acb2 1f31 7cb4 a0ba 163c 07b1 b137 56b4
00000060: bcb9 c0bd dfb8 0537 3dbb a840 13b5 20b7
00000070: de36 fb39 203c c134 a236 2e26 c030 beba
00000080: 98b5 59bd 1f9e 1632 a2b8 3932 34ba 3b38
00000090: e0b9 fac1 afbc 421d 8239 f836 7c38 d8b7
000000a0: c5bc 5f3a 93b4 9233 f5a8 b035 9136 58b0
000000b0: f135 3137 832f 2a3b 903c a6b9 c936 59bd
000000c0: 2c32 40b9 00ba 083c 212c aa32 c1bc 9d34
000000d0: 13b3 e832 de3b 4f3d 81be 1e2e e638 6f3d
000000e0: c938 dc2f 283b c4aa a438 323a b135 bcbb
000000f0: 8a37 4db8 adb2 a335 ea39 5438 17b7 1832
00000100: 9639 eb2e e5be 21bb 8cb7 af3d fb39 6736
00000110: 6335 8ab9 ef31 a1bd 843c f439 603a cac2
00000120: b8ac a9a5 5239 1a37 3f3b 4eb9 3235 2538
00000130: c039 1c26 a2bb d93a 9030 e8b8 c533 7533
00000140: d2b7 a930 29c0 3dba 36a4 e01e bbbb dcbc
00000150: acbb 8538 fabb ed38 e4b4 c7af 9aab 96b0
00000160: 9aac 96b6 85b1 5eb6 cfb6 54ba 51bb 3520
00000170: b938 bebc 0cb4 efb8 f439 58b7 9e32 0f35
00000180: d9b1 5c2b f1bd 3ba4 fbb6 54be 6bb4 2e3b
00000190: 08b3 48b1 c6be 72b2 d5b7 b3a9 15bc 20b4
000001a0: a236 6ab8 f934 4e99 19b7 5e35 86b7 ebb4
000001b0: ce36 2d31 d8ac e4b7 b2b6 a0b7 34c0 a131
000001c0: 4da9 f6b6 71b7 b7af ef3c 5389 573b f0b7
000001d0: 54b5 52ae 35bc 732a c1bb d7ad 44bc 183c
000001e0: 7d36 6339 3834 e9b2 933a ec36 26b5 43bd
000001f0: 3332 7138 3b39 8c31 1d39 5636 ea38 01b0

conv2.bias f2 [32]
-0.4575 1.221 0.2003 -0.06067 -0.141 -0.1001 0.7812 1.214
-0.8857 -0.4106 0.3848 -1.384 -1.116 0.02199 -1.293 0.0355
-0.411 -0.734 -0.1536 0.4487 -0.1295 0.2551 -1.583 -0.1575
0.9507 -0.361 -1.556 -1.515 0.511 -0.3857 0.2386 0.479
00000000: 52b7 e23c 6932 c4ab 83b0 68ae 403a db3c
00000010: 16bb 92b6 2836 89bd 77bc a125 2cbd 8b28
00000020: 93b6 dfb9 eab0 2e37 25b0 1534 55be 0ab1
00000030: 9b3b c7b5 39be 0fbe 1738 2cb6 a333 aa37

conv3.weight f2 [64, 32, 3, 3]
0.0377 -0.0507 0.0105 -0.00956 -0.06793 0.01915 -0.066 -0.02252
-0.003653 0.04678 -0.02449 -0.03824 -0.00488 0.02322 -0.01797 -0.05804
0.06238 -0.03485 -0.01709 -0.06537 0.02344 0.0395 -0.05304 0.0668
0.00183 -0.0772 -0.0793 -0.02374 0.0272 -0.05167 -0.01814 -0.05194
-0.0456 -0.03308 -0.002562 -0.01013 0.015144 0.0199 -0.00358 -0.00425
0.0298 -0.01436 -0.03111 -0.03766 -0.0483 -0.05276 0.00564 0.04715
0.00908 -0.0457 -0.03076 -0.0581 0.05856 0.003557 0.0295 -0.05197
-0.05847 0.04764 -0.07007 0.03458 -0.007626 -0.0123 -0.0649 0.003387
0.00791 0.01662 0.004253 -0.014984 -0.0851 -0.000702 -0.1057 -0.08417
-0.0334 -0.02946 0.003784 -0.0002217 -0.03412 -0.00484 -0.0983 0.02135
-0.077 -0.04822 -0.1012 0.007126 -0.01625 -0.014534 0.02608 -0.1049
-0.0383 -0.004807 -0.0979 -0.03467 0.0185 -0.00917 -0.05273 -0.03723
0.005287 -0.0517 -0.0857 -0.0853 -0.06152 -0.02017 -0.01608 -0.02008
-0.05624 -0.09845 -0.0899 -0.04 -0.00233 -0.06494 -0.04172 -0.0796
-0.06354 -0.0371 -0.0907 -0.1261 -0.02856 -0.0921 -0.0645 0.001086
0.01591 -0.0482 -0.08887 -0.00727 -0.01348 0.01119 -0.01956 -0.02194
-0.05765 0.02768 0.04358 -0.04736 -0.0199 -0.07477 -0.03568 0.0759
-0.02658 0.0372 0.08984 -0.0916 0.04163 -0.03607 -0.05075 -0.0225
0.02596 -0.04984 -0.03653 0.05536 -0.05585 0.05533 -0.01682 0.00518
0.07806 -0.01544 -0.01942 -0.04276 -0.0688 0.0305 -0.0373 -0.1031
-0.04044 0.0129 0.004963 -0.0711 -0.02986 0.00608 0.0376 -0.04126
-0.01877 -0.0708 -0.02335 -0.07245 -0.0682 -0.002153 0.00719 0.0164
-0.0198 0.07654 0.01678 -0.04962 -0.00205 -0.10315 -0.10706 -0.0388
-0.03665 -0.0841 -0.0787 -0.0985 -0.05933 0.0432 -0.005547 -0.07825
0.01559 -0.0641 -0.04614 -0.05835 -0.02519 -0.05185 -0.04266 -0.015175
-0.0005054 0.02737 -0.05142 0.00619 -0.10913 -0.03008 0.00974 -0.04758
-0.0879 -0.05643 -0.1162 -0.0811 -0.04852 -0.02306 -0.1186 -0.02751
-0.09735 -0.01524 -0.0368 -0.0603 -0.01994 -0.0625 -0.03387 -0.0764
-0.03787 -0.0728 -0.1036 -0.0797 -0.04276 -0.03687 -0.0694 -0.0517
-0.09326 -0.03537 0.01616 0.004414 -0.0331 0.03125 -0.005775 -0.04446
-0.03674 0.0192 0.04343 -0.07153 -0.1148 -0.0572 -0.06824 -0.02205
-0.0989 0.00526 -0.04886 0.04437 0.0484 0.0745 0.001704 -0.05286
00000000: d328 7daa 6021 e5a0 59ac e724 39ac c4a5
00000010: 7b9b fd29 45a6 e5a8 ff9c f225 9aa4 6eab
00000020: fc2b 76a8 60a4 2fac 0026 0e29 caaa 462c
00000030: 7f17 f1ac 13ad 14a6 f726 9daa a5a4 a6aa
00000040: d6a9 3ca8 3f99 30a1 c123 1825 559b 5a9c
00000050: a127 5aa3 f7a7 d2a8 2faa c1aa c61d 092a
00000060: a620 d9a9 e0a7 70ab 7f2b 491b 8d27 a7aa
00000070: 7cab 192a 7cac 6d28 cf9f 4ca2 27ac f01a
00000080: 0d20 4124 5b1c aca3 72ad c091 c4ae 63ad
00000090: 46a8 8ba7 c01b 448b 5ea8 f59c 4bae 7725
000000a0: eeac 2caa 7aae 4c1f 29a4 71a3 ad26 b7ae
000000b0: e7a8 ec9c 44ae 70a8 bc24 b2a0 c0aa c4a8
000000c0: 6a1d 9eaa 7cad 76ad e0ab 2aa5 1ea4 24a5
000000d0: 33ab 4dae c1ad 1fa9 c698 28ac 57a9 18ad
000000e0: 11ac c0a8 cead 09b0 50a7 e5ad 21ac 7314
000000f0: 1324 2baa b0ad 729f e7a2 bb21 02a5 9ea5
00000100: 61ab 1627 9429 10aa 18a5 c9ac 91a8 dc2c
00000110: cea6 c328 c02d ddad 5429 9ea8 7faa c3a5
00000120: a526 61aa ada8 162b 26ab 152b 4ea4 4e1d
00000130: ff2c e8a3 f9a4 79a9 67ac cf27 c6a8 99ae
00000140: 2da9 9b22 151d 8dac a5a7 3a1e d028 48a9
00000150: cea4 88ac faa5 a3ac 5dac 6998 5d1f 3324
00000160: 12a5 e62c 4c24 5aaa 3398 9aae daae f7a8
00000170: b1a8 62ad 09ad 4eae 98ab 8829 ae9d 02ad
00000180: fb23 1aac e8a9 78ab 73a6 a3aa 76a9 c5a3
00000190: 2490 0227 95aa 571e fcae b3a7 fd20 17aa
000001a0: a0ad 39ab 70af 31ad 36aa e7a5 97af 0ba7
000001b0: 3bae cea3 b6a8 b8ab 1ba5 00ac 56a8 e4ac
000001c0: d9a8 a9ac a1ae 1aad 79a9 b8a8 71ac 9eaa
000001d0: f8ad 87a8 2324 851c 3da8 0028 ea9d b1a9
000001e0: b4a8 ea24 8f29 94ac 59af 52ab 5eac a5a5
000001f0: 54ae 631d 41aa ae29 322a c52c fb16 c4aa

conv3.bias f2 [64]
-0.1335 -1.055 -0.689 -1.048 -0.05978 -1.3955 0.3027 -0.1553
0.641 -2.457 -0.194 -0.2108 -0.0485 -2.01 -0.12164 -0.32
-1.109 -0.4966 -0.151 -2.547 -0.977 0.7305 -0.1277 -0.987
-0.0771 -0.6587 -1.515 -0.532 -2.611 -1.224 0.3323 -0.705
-0.1327 -2.332 -0.5415 -2.621 -0.086 -0.1451 -0.557 0.05844
-0.2344 -0.0872 0.3083 0.7656 -0.02046 0.823 -1.045 0.513
-0.2405 -1.584 -0.4246 -0.3157 1.285 0.4534 -0.04233 -1.546
-0.1696 -0.1499 -0.1037 0.4119 -0.0922 -1.053 -0.8423 -2.072
00000000: 46b0 38bc 83b9 31bc a7ab 95bd d834 f8b0
00000010: 2139 eac0 35b2 bfb2 35aa 05c0 c9af 1fb5
00000020: 70bc f2b7 d5b0 18c1 d1bb d839 16b0 e5bb
00000030: efac 45b9 0fbe 42b8 39c1 e5bc 5135 a4b9
00000040: 3fb0 aac0 55b8 3ec1 81ad a5b0 75b8 7b2b
00000050: 80b3 95ad ef34 203a 3da5 963a 2ebc 1b38
00000060: b2b3 56be cbb6 0db5 243d 4137 6ba9 2fbe
00000070: 6db1 ccb0 a3ae 9736 e7ad 36bc bdba 25c0

fc1.weight f2 [128, 256]
0.02063 -0.06235 -0.0359 -0.01526 0.02345 -0.04764 -0.01461 0.0006824
-0.03528 -0.02765 0.01929 -0.04135 0.02237 0.03458 -0.02519 -0.06555
0.01233 -0.03592 0.01645 -0.06137 -0.06256 -0.009445 -0.0568 -0.0462
0.01054 0.02675 0.056 0.0737 -0.01055 0.01541 -0.0628 -0.10034
-0.04962 -0.01534 -0.0638 0.02913 -0.02 0.01604 -0.03763 -0.06067
0.04977 0.04987 0.0165 -0.03305 0.007015 0.04953 0.02641 0.05652
-0.10876 -0.0889 -0.062 -0.003727 -0.02795 -0.03412 -0.01659 -0.08514
-0.05563 0.0165 -0.0614 -0.03702 -0.02055 -0.00991 0.04315 -0.02797
-0.04276 -0.09045 -0.019 0.001098 -0.0686 -0.0595 0.002703 0.026
-0.01182 -0.003517 0.001634 0.01622 -0.0264 -0.0007324 0.04523 -0.0228
-0.07983 -0.02939 -0.06525 0.00785 0.04895 -0.0464 -0.0835 -0.01846
-0.04123 -0.01188 0.02777 0.01192 -0.01837 0.0373 -0.0388 -0.04913
0.0358 -0.05612 0.02263 -0.04852 -0.05124 -0.01692 -0.05704 -0.04718
-0.10913 -0.09314 -0.07153 0.01138 -0.0389 -0.00845 -0.01358 0.03075
-0.07275 -0.04642 -0.05194 -0.03342 -0.02223 -0.03772 0.05484 -0.02132
-0.1156 -0.1075 -0.06604 -0.0378 -0.0663 -0.01474 -0.02823 -0.01584
-0.06696 0.0522 -0.01775 -0.03973 0.01842 0.02649 -0.03262 -0.0428
0.02887 0.04422 -0.0339 -0.1279 -0.09766 -0.03656 0.0381 0.02959
0.00197 0.001352 0.0083 -0.0335 0.01497 0.04852 0.01988 -0.00864
-0.088 -0.009544 0.000959 0.001348 -0.0429 -0.07306 -0.02673 -0.0523
-0.01071 -0.0388 0.02919 0.01537 0.003439 0.02776 0.00396 0.04785
-0.0283 -0.04834 -0.05133 0.04874 -0.1076 0.0756 -0.0276 -0.00861
-0.005733 0.0643 -0.002403 -0.07153 -0.01976 -0.10693 -0.01823 -0.02411
0.04803 -0.0266 -0.008415 0.01991 0.02104 0.0409 0.0683 -0.0529
0.02621 0.04584 -0.04776 -0.007782 0.002575 -0.0584 -0.03494 -0.006046
-0.11584 0.00884 -0.0004697 -0.06003 0.01697 -0.0668 -0.03622 -0.02637
-0.02203 -0.04416 0.01117 0.00986 0.0341 -0.0457 -0.01283 -0.02026
0.002178 -0.04285 -0.015114 -0.07526 0.01472 -0.03302 -0.02365 -0.0764
-0.012726 0.0647 -0.01996 -0.06354 -0.006268 -0.01921 0.04492 0.02841
0.0532 0.05075 -0.05627 -0.01657 -0.06335 -0.00466 -0.04483 -0.0619
0.03723 -0.0237 -0.0249 0.0006323 -0.00975 -0.04 -0.04138 -0.11053
-0.0785 0.0399 -0.01689 -0.05276 0.01634 0.02502 -0.07056 -0.02435
00000000: 4825 fbab 98a8 d0a3 0126 19aa 7ba3 9711
00000010: 84a8 14a7 f024 4ba9 ba25 6d28 73a6 32ac
00000020: 5022 99a8 3624 dbab 01ac d6a0 45ab eaa9
00000030: 6521 d926 2b2b b82c 67a1 e423 05ac 6cae
00000040: 5aaa dba3 15ac 7527 1fa5 1b24 d1a8 c4ab
00000050: 5f2a 622a 3924 3ba8 2f1f 572a c326 3c2b
00000060: f6ae b1ad f0ab a29b 28a7 5ea8 3fa4 73ad
00000070: 1fab 3924 dcab bda8 43a5 13a1 8629 29a7
00000080: 79a9 caad dda4 7f14 64ac 9eab 8919 a826
00000090: 0da2 349b b116 2724 c2a6 0092 ca29 d6a5
000000a0: 1cad 86a7 2dac 0520 442a f0a9 58ad baa4
000000b0: 47a9 15a2 1c27 1a22 b4a4 c628 f7a8 4aaa
000000c0: 9528 2fab cb25 36aa 8faa 55a4 4dab 0aaa
000000d0: fcae f6ad 94ac d421 fba8 54a0 f4a2 df27
000000e0: a8ac f1a9 a6aa 47a8 b1a5 d4a8 052b 75a5
000000f0: 66af e1ae 3aac d7a8 3eac 8ca3 3aa7 0ea4
00000100: 49ac ae2a 8ba4 16a9 b724 c826 2da8 7aa9
00000110: 6427 a929 57a8 18b0 40ae aea8 e028 9327
00000120: 0918 8a15 4020 4aa8 aa23 362a 1725 6ca0
00000130: a2ad e3a0 db13 8515 7ea9 adac d8a6 b2aa
00000140: 7ca1 f7a8 7927 df23 0b1b 1b27 0e1c 202a
00000150: 3fa7 30aa 92aa 3d2a e3ae d72c 11a7 69a0
00000160: df9d 1d2c ec98 94ac 0fa5 d8ae aba4 2ca6
00000170: 262a cfa6 4fa0 1925 6325 3c29 5f2c c5aa
00000180: b626 de29 1daa f89f 4619 7aab 79a8 319e
00000190: 6aaf 8720 b28f afab 5824 46ac a3a8 c0a6
000001a0: a4a5 a7a9 b821 0c21 5d28 d9a9 92a2 30a5
000001b0: 7618 7ca9 bda3 d1ac 8923 3aa8 0ea6 e4ac
000001c0: 84a2 242c 1ca5 11ac 6b9e eba4 c029 4627
000001d0: cf2a 7f2a 34ab 3ea4 0eac c69c bda9 ecab
000001e0: c428 11a6 60a6 2e11 fea0 1fa9 4ca9 13af
000001f0: 06ad 1b29 53a4 c1aa 2f24 6826 84ac 3ca6

fc1.bias f2 [128]
-0.06396 -0.10864 0.5713 0.7695 0.7017 -0.509 0.569 -0.0494
0.3198 -0.592 0.6953 0.1323 -0.0207 -1.581 -0.1299 -0.0818
0.6284 0.4265 -0.08984 -1.033 1.06 0.82 -0.1345 0.8096
-0.12305 1.038 -0.101 -0.01627 0.0114 -0.1013 0.7563 0.01749
0.4543 -0.12054 -0.0994 -0.07733 -0.0628 0.4377 0.01166 -0.1263
-0.0513 0.3535 0.58 0.4758 0.736 1.057 -0.07227 1.012
-0.285 -0.1378 0.8193 0.3508 -0.1163 0.09576 0.6235 0.01709
0.792 -0.654 -0.09314 0.845 -0.0362 -0.10547 0.7803 -0.64
-0.1011 0.1241 0.01674 0.006702 0.0937 0.0288 -0.0254 0.558
-0.1105 -0.01314 0.002422 0.9224 -0.091 0.645 -0.0367 -0.09784
-0.933 -1.156 0.7544 -0.10614 -0.05096 0.7773 0.00846 -0.0622
-0.05917 -0.11255 -0.03842 -0.06143 1.296 -0.08057 -0.000965 -0.096
0.8525 0.3857 0.4995 -0.09155 0.714 0.997 -0.521 0.673
-0.1228 0.876 -0.1104 -0.1478 -0.1014 -0.10205 0.7056 0.4739
-0.05795 -0.0848 0.382 0.02095 -0.0753 -0.06573 0.9526 1.01
-0.06046 0.568 0.5425 -1.073 0.9976 -0.00821 -0.01624 0.8716
00000000: 18ac f4ae 9238 283a 9d39 12b8 8d38 53aa
00000010: 1e35 bcb8 9039 3c30 4da5 53be 28b0 3cad
00000020: 0739 d336 c0ad 22bc 3d3c 8f3a 4eb0 7a3a
00000030: e0af 273c 77ae 2aa4 d621 7cae 0d3a 7a24
00000040: 4537 b7af 5dae f3ac 05ac 0137 f821 0bb0
00000050: 91aa a835 a438 9d37 e339 3a3c a0ac 0c3c
00000060: 8fb4 69b0 8e3a 9d35 71af 212e fd38 6024
00000070: 563a 3bb9 f6ad c33a a2a8 c0ae 3e3a 1fb9
00000080: 78ae f12f 4924 dd1e ff2d 5f27 81a6 7738
00000090: 12af baa2 f618 613b d3ad 2939 b3a8 43ae
000000a0: 77bb a0bc 093a cbae 86aa 383a 5520 f6ab
000000b0: 93ab 34af eba8 ddab 2f3d 28ad e893 25ae
000000c0: d23a 2c36 fe37 dcad b639 fa3b 2bb8 6239
000000d0: dcaf 023b 11af bbb0 7dae 88ae a539 9537
000000e0: 6bab 6dad 1d36 5d25 d2ac 35ac 9f3b 0a3c
000000f0: bdab 8b38 5738 4bbc fb3b 34a0 28a4 f93a

fc2.weight f2 [64, 128]
-0.09283 -0.04297 0.03345 0.05624 -0.0456 -0.0716 0.1749 -0.02904
0.1108 0.1039 -0.001326 0.07153 -0.02786 -0.0733 -0.1703 0.0879
0.04022 0.07465 0.07477 0.02425 -0.112 -0.0938 -0.02844 -1.099
0.1484 -0.3323 -0.05536 0.02028 0.05133 -0.02419 -0.03424 -0.07874
0.002344 -0.06744 -0.02312 0.06024 0.01404 0.04984 -0.04477 -0.0637
-0.02881 -0.03918 -0.08124 -0.01903 0.01955 -1.549 -0.00731 -0.1738
0.05942 -0.08057 -0.03064 0.01901 -0.0677 -0.0181 -0.1279 0.02185
0.0301 -0.0789 -0.04117 0.02496 -0.0817 0.04315 -0.2045 -0.02817
-0.0639 0.05887 -0.05466 -0.04108 0.3474 -0.0603 0.005745 0.0883
0.02931 -0.08624 -0.0783 -0.3665 -0.005558 0.0472 -0.04874 0.00532
0.1328 -0.2128 -0.03488 0.02881 0.05872 -0.6084 0.08466 0.02798
0.007355 0.02817 -0.01753 -0.01293 -0.1868 0.0317 -0.02339 -0.03152
0.11017 0.02034 0.03192 -0.0417 0.01426 0.03912 0.1328 0.02118
0.08435 -0.613 -0.09576 0.06946 -0.004784 0.04364 0.03287 0.1268
0.0371 0.05356 0.0458 -0.0327 0.0801 -0.04147 -0.569 -0.375
-0.01978 -0.03378 0.0006237 -0.0843 -0.11554 0.05557 -0.0845 -0.0381
0.05212 -0.0079 -0.11676 0.148 -2.521 0.2115 -0.0537 0.00979
0.1951 0.158 -1.896 0.03586 -0.04132 -0.1879 -0.02773 -0.07336
-1.1045 0.06995 -0.0359 -0.1628 0.03995 0.0442 0.02225 -0.06854
0.01686 0.00554 -0.02582 0.04333 -0.01729 0.03592 0.0232 -0.03986
-0.8887 0.0916 0.01407 -0.0858 -0.1128 0.2117 0.2106 0.07324
0.0877 0.03204 0.02986 -0.3516 0.2169 0.00496 0.1172 -0.4446
-0.02495 0.1064 0.071 0.01689 -0.07153 0.1428 0.02333 -0.05148
-2.393 -0.735 0.02588 -1.5625 0.01595 0.02907 -0.0003695 0.1057
0.06726 -1.3 -0.00352 -0.0954 -0.5615 -0.04 0.05182 0.09375
0.0889 0.02646 0.009636 0.099 -0.002974 0.02975 -0.005695 0.001629
-0.227 -0.012115 0.0774 -0.07806 -0.0557 -0.0005217 -0.01161 -0.02298
-0.010544 0.1523 0.03555 -0.05875 0.08746 0.04645 -0.03093 0.00881
0.06433 -1.213 -0.2389 -0.02351 -1.473 -0.678 0.11743 0.01718
-0.0001838 0.0282 0.1013 0.1774 -0.0677 -0.0556 -1.076 0.0521
-0.07477 -0.0161 -1.221 -0.0291 0.03845 0.06042 -0.03043 0.0653
-0.073 -1.006 -0.9194 -0.04642 0.1009 -0.053 0.0924 0.1439
00000000: f1ad 80a9 4828 332b d6a9 95ac 9931 6fa7
00000010: 172f a62e 6e95 942c 22a7 b1ac 73b1 a02d
00000020: 2629 c72c c92c 3526 2baf 01ae 48a7 65bc
00000030: c030 51b5 16ab 3125 922a 31a6 62a8 0aad
00000040: cd18 51ac eba5 b62b 3023 612a bba9 14ac
00000050: 60a7 04a9 33ad dfa4 0125 32be 7c9f 90b1
00000060: 9b2b 28ad d8a7 de24 55ac a2a4 18b0 9825
00000070: b527 0dad 45a9 6426 3bad 8629 8bb2 36a7
00000080: 17ac 892b ffaa 42a9 8f35 b8ab e21d a72d
00000090: 8127 85ad 03ad ddb5 b19d 0b2a 3daa 731d
000000a0: 4030 cfb2 77a8 6027 842b deb8 6b2d 2a27
000000b0: 881f 3627 7da4 9fa2 fab1 0f28 fda5 09a8
000000c0: 0d2f 3525 1628 56a9 4d23 0229 4030 6c25
000000d0: 662d e7b8 21ae 722c e69c 9629 3528 0f30
000000e0: c028 db2a dd29 30a8 202d 4fa9 8db8 00b6
000000f0: 10a5 53a8 1c11 65ad 65af 1d2b 68ad e0a8
00000100: ac2a 0ba0 79af bc30 0bc1 c532 e0aa 0321
00000110: 3e32 0e31 96bf 9728 4aa9 03b2 19a7 b2ac
00000120: 6bbc 7a2c 98a8 36b1 1d29 a829 b225 63ac
00000130: 5124 ac1d 9ca6 8c29 6da4 9928 f025 1aa9
00000140: 1cbb dd2d 3423 7ead 38af c632 bd32 b02c
00000150: 9d2d 1a28 a527 a0b5 f132 141d 802f 1db7
00000160: 63a6 cf2e 8b2c 5324 94ac 9230 f925 97aa
00000170: c9c0 e1b9 a026 40be 1524 7127 0e8e c42e
00000180: 4e2c 33bd 359b 1bae 7eb8 1fa9 a22a 002e
00000190: b12d c626 ef20 562e 179a 9e27 d59d ac16
000001a0: 44b3 34a2 f42c ffac 21ab 4690 f2a1 e2a5
000001b0: 66a1 e030 8d28 85ab 992d f229 eba7 8320
000001c0: 1e2c dabc a5b3 05a6 e4bd 6db9 842f 6624
000001d0: 068a 3827 7c2e ad31 55ac 1eab 4ebc ab2a
000001e0: c9ac 1fa4 e2bc 73a7 ec28 bc2b caa7 2e2c
000001f0: acac 06bc 5bbb f1a9 752e c9aa ea2d 9b30

fc2.bias f2 [64]
0.915 0.526 1.283 1.076 1.147 0.525 0.636 0.684
1.174 0.6763 1.03 1.096 0.3286 0.3723 1.262 0.744
1.238 0.9033 1.19 0.6973 0.898 1.171 1.028 1.109
0.6914 1.141 1.234 1.156 0.68 1.052 0.8633 0.4978
0.458 1.024 1.016 1.164 1.113 0.47 1.048 1.058
0.8413 1.127 1.038 0.742 0.7505 1.314 0.7017 0.845
0.911 0.9053 0.489 0.5947 0.951 1.177 0.796 0.7593
1.042 1.08 1.066 0.5356 0.9023 0.9863 0.2703 1.175
00000000: 523b 3538 223d 4e3c 973c 3338 1739 7939
00000010: b23c 6939 1f3c 623c 4235 f535 0c3d f439
00000020: f43c 3a3b c33c 9439 2f3b af3c 1d3c 703c
00000030: 8839 903c f03c a03c 7139 353c e83a f737
00000040: 5437 193c 103c a83c 743c 8537 313c 3b3c
00000050: bb3a 823c 273c f039 013a 423d 9d39 c33a
00000060: 4a3b 3e3b d337 c238 9c3b b53c 5e3a 133a
00000070: 2b3c 523c 443c 4938 383b e43b 5334 b33c

fc3.weight f2 [1, 64]
0.01073 -0.01381 -0.01132 -0.01241 -0.009 0.01187 0.01026 0.007725
0.00885 0.007553 0.01452 -0.01127 -0.00858 0.0105 -0.00913 0.00911
0.00857 -0.01561 0.01308 0.007153 -0.00834 -0.01165 0.01056 0.010376
0.01178 -0.014824 0.01312 -0.0106 0.00895 0.0116 0.0132 -0.01205
-0.006924 -0.009544 0.01108 -0.01315 0.007015 0.00951 0.01056 -0.01046
0.008446 -0.01099 0.012436 0.00731 0.01162 -0.01112 0.00763 -0.01063
0.006386 -0.01894 -0.01018 0.00576 0.010315 -0.010796 0.00624 0.01202
-0.00849 -0.01428 0.01144 0.008286 0.005604 -0.01124 -0.01372 -0.01053
00000000: 7e21 12a3 cca1 5ba2 9ca0 1422 4121 e91f
00000010: 8820 bc1f 6f23 c5a1 65a0 6021 ada0 aa20
00000020: 6320 fea3 b222 531f 45a0 f7a1 6821 5021
00000030: 0822 97a3 b822 6da1 9520 f021 c222 2ba2
00000040: 179f e3a0 ac21 bca2 2f1f de20 6821 5ba1
00000050: 5320 a0a1 5e22 7c1f f321 b2a1 d01f 71a1
00000060: 8a1e d9a4 36a1 e61d 4821 87a1 641e 2722
00000070: 59a0 50a3 db21 3e20 bd1d c1a1 06a3 64a1
