chess_rust/src/model3_scripted.pt (torch, 358629 bytes, 13 tensors)

weight f4 [32, 6, 4, 4]
0.057281494 -0.328125 0.2614746 -0.6616211 -0.43652344 0.3828125 0.9394531 -0.7397461
0.10296631 0.69091797 0.55371094 -1.2832031 -0.43408203 -0.42358398 -0.3876953 -5.0351562
0.53759766 -0.31689453 0.27294922 -0.25585938 -0.32421875 -0.042175293 -0.40551758 -0.42626953
-0.5683594 0.014671326 0.018112183 -0.5097656 -0.44848633 -0.25561523 -1.4082031 -3.6074219
-0.34375 0.48828125 0.04937744 -0.5522461 0.7363281 -0.27929688 -0.15307617 -0.6411133
-0.19458008 -0.025421143 -0.27490234 -1.5068359 -0.4140625 -0.66064453 -1.7392578 -4.109375
-0.062286377 0.1907959 0.47583008 -0.7314453 0.18383789 -0.020553589 -0.007911682 0.6845703
-0.6352539 -0.20324707 -0.49047852 -0.33789062 -0.58691406 -0.5571289 -0.9628906 -6.6992188
-0.56591797 1.1201172 -2.296875 -1.0117188 -0.0925293 -1.1591797 -0.6738281 -2.3710938
0.13085938 -1.4794922 -2.1835938 -1.46875 -3.8554688 -2.7832031 -2.0839844 -10.390625
-0.31640625 0.7192383 -0.11853027 -0.12878418 0.21459961 0.24584961 0.12548828 -0.1217041
0.19946289 -0.01651001 -1.0234375 -0.19067383 -0.1430664 -0.03878784 -1.1455078 -0.8623047
-0.24255371 0.4741211 1.3183594 4.796875 -0.055725098 -0.51123047 -0.22851562 2.8691406
-0.61279297 -0.1953125 0.20397949 1.4443359 -0.56103516 0.31054688 0.65234375 0.5625
0.2619629 1.1298828 -0.08972168 4.984375 -0.35498047 -0.61376953 0.3322754 2.5722656
1.1113281 -0.22265625 1.3808594 2.1308594 -0.5678711 1.5234375 0.44921875 2.8242188
0.93066406 -0.89404297 1.3271484 4.3398438 0.02494812 0.74902344 0.7314453 2.2480469
1.2001953 -0.0045547485 -0.8696289 3.0449219 1.0449219 1.1259766 1.0039062 5.28125
0.18884277 -0.5102539 1.3427734 6.7070312 -1.0322266 0.5830078 0.16149902 3.8417969
0.6904297 0.7626953 0.3305664 4.2304688 1.0966797 0.8564453 1.734375 9.4609375
-1.1660156 0.9086914 -0.16540527 7.1171875 0.037506104 1.5341797 -1.0791016 3.7011719
-0.42407227 0.5473633 -0.40478516 6.90625 2.8085938 2.2558594 2.3457031 12.078125
-0.69677734 -2.53125 -0.8847656 6.9921875 -1.0234375 -1.0625 0.065979004 -3.375
-0.29345703 0.43554688 0.4638672 1.7949219 1.3242188 -0.41455078 1.9589844 2.0117188
0.088256836 0.25878906 -0.08728027 -0.24780273 1.3916016 0.018096924 1.4990234 1.1181641
0.2956543 1.4462891 0.296875 0.23791504 -2.0625 -0.13879395 0.6899414 -0.9194336
1.0957031 0.56152344 0.0017881393 -0.8251953 -1.5957031 0.44628906 0.62841797 1.3632812
1.4277344 1.2412109 0.84814453 -1.5234375 0.030517578 0.65722656 -0.7783203 0.56640625
0.5810547 -1.3154297 0.06713867 -2.2832031 0.36010742 1.3115234 -2.1015625 0.20166016
0.1418457 -2.3066406 1.9423828 -0.06842041 -5.09375 -0.2565918 -0.7373047 1.6777344
-1.0722656 -0.37036133 0.17578125 1.0908203 0.37963867 2.03125 -0.765625 -0.78125
0.5488281 -1.6904297 0.2322998 0.64941406 -7.953125 1.6083984 1.9277344 1.3837891
00000000: 00a0 6a3d 0000 a8be 00e0 853e 0060 29bf
00000010: 0080 dfbe 0000 c43e 0080 703f 0060 3dbf
00000020: 00e0 d23d 00e0 303f 00c0 0d3f 0040 a4bf
00000030: 0040 debe 00e0 d8be 0080 c6be 0020 a1c0
00000040: 00a0 093f 0040 a2be 00c0 8b3e 0000 83be
00000050: 0000 a6be 00c0 2cbd 00a0 cfbe 0040 dabe
00000060: 0080 11bf 0060 703c 0060 943c 0080 02bf
00000070: 00a0 e5be 00e0 82be 0040 b4bf 00e0 66c0
00000080: 0000 b0be 0000 fa3e 0040 4a3d 0060 0dbf
00000090: 0080 3c3f 0000 8fbe 00c0 1cbe 0020 24bf
000000a0: 0040 47be 0040 d0bc 00c0 8cbe 00e0 c0bf
000000b0: 0000 d4be 0020 29bf 00a0 debf 0080 83c0
000000c0: 0020 7fbd 0060 433e 00a0 f33e 0040 3bbf
000000d0: 0040 3c3e 0060 a8bc 00a0 01bc 0040 2f3f
000000e0: 00a0 22bf 0020 50be 0020 fbbe 0000 adbe
000000f0: 0040 16bf 00a0 0ebf 0080 76bf 0060 d6c0
00000100: 00e0 10bf 0060 8f3f 0000 13c0 0080 81bf
00000110: 0080 bdbd 0060 94bf 0080 2cbf 00c0 17c0
00000120: 0000 063e 0060 bdbf 00c0 0bc0 0000 bcbf
00000130: 00c0 76c0 0020 32c0 0060 05c0 0040 26c1
00000140: 0000 a2be 0020 383f 00c0 f2bd 00e0 03be
00000150: 00c0 5b3e 00c0 7b3e 0080 003e 0040 f9bd
00000160: 0040 4c3e 0040 87bc 0000 83bf 0040 43be
00000170: 0080 12be 00e0 1ebd 00a0 92bf 00c0 5cbf
00000180: 0060 78be 00c0 f23e 00c0 a83f 0080 9940
00000190: 0040 64bd 00e0 02bf 0000 6abe 00a0 3740
000001a0: 00e0 1cbf 0000 48be 00e0 503e 00e0 b83f
000001b0: 00a0 0fbf 0000 9f3e 0000 273f 0000 103f
000001c0: 0020 863e 00a0 903f 00c0 b7bd 0080 9f40
000001d0: 00c0 b5be 0020 1dbf 0020 aa3e 00a0 2440
000001e0: 0040 8e3f 0000 64be 00c0 b03f 0060 0840
000001f0: 0060 11bf 0000 c33f 0000 e63e 00c0 3440
00000200: 0040 6e3f 00e0 64bf 00e0 a93f 00e0 8a40
00000210: 0060 cc3c 00c0 3f3f 0040 3b3f 00e0 0f40
00000220: 00a0 993f 0040 95bb 00a0 5ebf 00e0 4240
00000230: 00c0 853f 0020 903f 0080 803f 0000 a940
00000240: 0060 413e 00a0 02bf 00e0 ab3f 00a0 d640
00000250: 0020 84bf 0040 153f 0060 253e 00e0 7540
00000260: 00c0 303f 0040 433f 0040 a93e 0060 8740
00000270: 0060 8c3f 0040 5b3f 0000 de3f 0060 1741
00000280: 0040 95bf 00a0 683f 0060 29be 00c0 e340
00000290: 00a0 193d 0060 c43f 0020 8abf 00e0 6c40
000002a0: 0020 d9be 0020 0c3f 0040 cfbe 0000 dd40
000002b0: 00c0 3340 0060 1040 0020 1640 0040 4141
000002c0: 0060 32bf 0000 22c0 0080 62bf 00c0 df40
000002d0: 0000 83bf 0000 88bf 0020 873d 0000 58c0
000002e0: 0040 96be 0000 df3e 0080 ed3e 00c0 e53f
000002f0: 0080 a93f 0040 d4be 00c0 fa3f 00c0 0040
00000300: 00c0 b43d 0080 843e 00c0 b2bd 00c0 7dbe
00000310: 0020 b23f 0040 943c 00e0 bf3f 0020 8f3f
00000320: 0060 973e 0020 b93f 0000 983e 00a0 733e
00000330: 0000 04c0 0020 0ebe 00a0 303f 0060 6bbf
00000340: 0040 8c3f 00c0 0f3f 0060 ea3a 0040 53bf
00000350: 0040 ccbf 0080 e43e 00e0 203f 0080 ae3f
00000360: 00c0 b63f 00e0 9e3f 0020 593f 0000 c3bf
00000370: 0000 fa3c 0040 283f 0040 47bf 0000 113f
00000380: 00c0 143f 0060 a8bf 0080 893d 0020 12c0
00000390: 0060 b83e 00e0 a73f 0080 06c0 0080 4e3e
000003a0: 0040 113e 00a0 13c0 00a0 f83f 0020 8cbd
000003b0: 0000 a3c0 0060 83be 00c0 3cbf 00c0 d63f
000003c0: 0040 89bf 00a0 bdbe 0000 343e 00a0 8b3f
000003d0: 0060 c23e 0000 0240 0000 44bf 0000 48bf
000003e0: 0080 0c3f 0060 d8bf 00e0 6d3e 0040 263f
000003f0: 0080 fec0 00e0 cd3f 00c0 f63f 0020 b13f

bias f4 [32]
-0.059936523 -0.5078125 -5.0976562 -1.0595703 -5.1328125 -6.5859375 -5.9726562 -8.0
0.77685547 -8.171875 5.890625 3.21875 -2.8359375 -4.9414062 -0.42529297 -5.1054688
-0.7207031 -9.6484375 12.6640625 -6.265625 -5.1054688 -2.8789062 -1.7675781 -4.1757812
7.8554688 -8.3046875 -6.578125 -10.8828125 -3.7070312 -10.0390625 2.3847656 -7.7734375
00000000: 0080 75bd 0000 02bf 0020 a3c0 00a0 87bf
00000010: 0040 a4c0 00c0 d2c0 0020 bfc0 0000 00c1
00000020: 00e0 463f 00c0 02c1 0080 bc40 0000 4e40
00000030: 0080 35c0 0020 9ec0 00c0 d9be 0060 a3c0
00000040: 0080 38bf 0060 1ac1 00a0 4a41 0080 c8c0
00000050: 0060 a3c0 0040 38c0 0040 e2bf 00a0 85c0
00000060: 0060 fb40 00e0 04c1 0080 d2c0 0020 2ec1
00000070: 0040 6dc0 00a0 20c1 00a0 1840 00c0 f8c0

weight f4 [32, 32, 3, 3]
-0.0692749 -0.038269043 -0.053009033 -0.025863647 0.016052246 -0.052886963 0.034057617 0.028930664
0.0060272217 0.022018433 -0.09295654 -0.035003662 0.0032463074 0.002855301 -0.009346008 -0.10797119
-0.08459473 -0.023498535 0.0023822784 0.014549255 -0.07092285 -0.032287598 -0.013305664 0.024139404
0.023223877 -0.07714844 -0.042144775 0.035980225 -0.068847656 -0.03427124 -0.015808105 -0.07952881
-0.052703857 -0.03265381 -0.024398804 -0.06237793 0.05117798 -0.036224365 -0.053588867 0.012809753
-0.024154663 0.047454834 -0.06341553 -0.026519775 -0.0031223297 -0.01008606 -0.051574707 -0.003446579
-0.036712646 -0.052093506 0.11480713 -0.0038795471 -0.0056266785 -0.03137207 -0.01838684 -0.049041748
0.045654297 0.0048561096 -0.03427124 -0.07458496 -0.09008789 -0.02168274 0.022583008 -0.0635376
-0.04257202 0.0155181885 0.008621216 -0.010551453 -0.015670776 -0.021133423 0.036132812 0.01586914
-0.038970947 -0.1171875 0.016494751 -0.035980225 -0.027420044 0.008987427 -0.05026245 -0.06317139
-0.101379395 -0.0440979 -0.07348633 -0.0030517578 -0.09094238 -0.0317688 -0.035705566 -0.029891968
-0.02243042 0.03945923 0.01210022 -0.06329346 -0.03930664 -0.043060303 -0.015457153 -0.037078857
0.04776001 -0.064575195 -0.034606934 -0.029312134 0.01398468 0.025421143 0.0022220612 -0.04852295
-0.10522461 -0.10076904 -0.04937744 -0.08392334 0.013145447 -0.023208618 0.010810852 -0.11529541
-0.024490356 -0.093322754 -0.04159546 0.0055007935 -0.07110596 0.04043579 0.024169922 -0.06222534
0.021011353 -0.03378296 -0.07067871 -0.029281616 -0.07965088 -0.08337402 -0.03866577 -0.021453857
0.010658264 -0.078063965 -0.026885986 -0.11810303 -0.01876831 -0.06652832 -0.020965576 0.061767578
-0.044525146 0.0020370483 -0.012825012 -0.0814209 0.011627197 -0.11175537 -0.04058838 0.050628662
0.0072288513 -0.059753418 -0.028396606 -0.024627686 -0.09869385 -0.096191406 -0.014701843 -0.08276367
0.0020809174 -0.083740234 0.041503906 0.051239014 -0.0036201477 -0.06921387 -0.02960205 -0.020004272
-0.015113831 -0.032440186 -0.07489014 -0.0927124 -0.12634277 -0.010597229 -0.048797607 -0.115234375
-0.052612305 -0.024841309 -0.041900635 -0.017333984 -0.009346008 -0.006477356 -0.012039185 -0.05368042
-0.005794525 -0.0118637085 0.0435791 -0.09246826 0.036102295 -0.033416748 0.021987915 -0.034942627
-0.031707764 0.026229858 0.017532349 -0.075805664 -0.068359375 0.014373779 -0.071899414 -0.057891846
-0.078186035 -0.08502197 -0.066467285 -0.023803711 -0.09289551 -0.060272217 -0.06359863 -0.046325684
0.020568848 0.059631348 -0.01979065 -0.09423828 -0.04525757 0.031341553 -0.05218506 0.037109375
0.009651184 -0.022567749 -0.015731812 -0.05368042 -0.027008057 0.016601562 -0.029922485 -0.014503479
0.06768799 0.0009455681 -0.038146973 -0.013511658 0.038635254 -0.03778076 -0.066467285 -0.036956787
-0.07659912 0.03753662 -0.00970459 -0.05239868 -0.049682617 -0.0065841675 -0.03451538 -0.08227539
-0.06689453 -0.045562744 -0.05206299 -0.05569458 -0.04244995 -0.05380249 -0.017715454 0.012161255
-0.009216309 -0.055877686 -0.016860962 -0.016784668 -0.05267334 0.0055618286 0.0138549805 -0.015304565
-0.066711426 -0.024932861 0.0016584396 0.045013428 -0.007549286 -0.023239136 -0.032806396 -0.07910156
00000000: 00e0 8dbd 00c0 1cbd 0020 59bd 00e0 d3bc
00000010: 0080 833c 00a0 58bd 0080 0b3d 0000 ed3c
00000020: 0080 c53b 0060 b43c 0060 bebd 0060 0fbd
00000030: 00c0 543b 0020 3b3b 0020 19bc 0020 ddbd
00000040: 0040 adbd 0080 c0bc 0020 1c3b 0060 6e3c
00000050: 0040 91bd 0040 04bd 0000 5abc 00c0 c53c
00000060: 0040 be3c 0000 9ebd 00a0 2cbd 0060 133d
00000070: 0000 8dbd 0060 0cbd 0080 81bc 00e0 a2bd
00000080: 00e0 57bd 00c0 05bd 00e0 c7bc 0080 7fbd
00000090: 00a0 513d 0060 14bd 0080 5bbd 00e0 513c
000000a0: 00e0 c5bc 0060 423d 00e0 81bd 0040 d9bc
000000b0: 00a0 4cbb 0040 25bc 0040 53bd 00e0 61bb
000000c0: 0060 16bd 0060 55bd 0020 eb3d 0040 7ebb
000000d0: 0060 b8bb 0080 00bd 00a0 96bc 00e0 48bd
000000e0: 0000 3b3d 0020 9f3b 0060 0cbd 00c0 98bd
000000f0: 0080 b8bd 00a0 b1bc 0000 b93c 0020 82bd
00000100: 0060 2ebd 0040 7e3c 0040 0d3c 00e0 2cbc
00000110: 0060 80bc 0020 adbc 0000 143d 0000 823c
00000120: 00a0 1fbd 0000 f0bd 0020 873c 0060 13bd
00000130: 00a0 e0bc 0040 133c 00e0 4dbd 0060 81bd
00000140: 00a0 cfbd 00a0 34bd 0080 96bd 0000 48bb
00000150: 0040 babd 0020 02bd 0040 12bd 00e0 f4bc
00000160: 00c0 b7bc 00a0 213d 0040 463c 00a0 81bd
00000170: 0000 21bd 0060 30bd 0040 7dbc 00e0 17bd
00000180: 00a0 433d 0040 84bd 00c0 0dbd 0020 f0bc
00000190: 0020 653c 0040 d03c 00a0 113b 00c0 46bd
000001a0: 0080 d7bd 0060 cebd 0040 4abd 00e0 abbd
000001b0: 0060 573c 0020 bebc 0020 313c 0020 ecbd
000001c0: 00a0 c8bc 0020 bfbd 0060 2abd 0040 b43b
000001d0: 00a0 91bd 00a0 253d 0000 c63c 00e0 7ebd
000001e0: 0020 ac3c 0060 0abd 00c0 90bd 00e0 efbc
000001f0: 0020 a3bd 00c0 aabd 0060 1ebd 00c0 afbc
00000200: 00a0 2e3c 00e0 9fbd 0040 dcbc 00e0 f1bd
00000210: 00c0 99bc 0040 88bd 00c0 abbc 0000 7d3d
00000220: 0060 36bd 0080 053b 0020 52bc 00c0 a6bd
00000230: 0080 3e3c 00e0 e4bd 0040 26bd 0060 4f3d
00000240: 00e0 ec3b 00c0 74bd 00a0 e8bc 00c0 c9bc
00000250: 0020 cabd 0000 c5bd 00e0 70bc 0080 a9bd
00000260: 0060 083b 0080 abbd 0000 2a3d 00e0 513d
00000270: 0040 6dbb 00c0 8dbd 0080 f2bc 00e0 a3bc
00000280: 00a0 77bc 00e0 04bd 0060 99bd 00e0 bdbd
00000290: 0060 01be 00a0 2dbc 00e0 47bd 0000 ecbd
000002a0: 0080 57bd 0080 cbbc 00a0 2bbd 0000 8ebc
000002b0: 0020 19bc 0040 d4bb 0040 45bc 00e0 5bbd
000002c0: 00e0 bdbb 0060 42bc 0080 323d 0060 bdbd
000002d0: 00e0 133d 00e0 08bd 0020 b43c 0020 0fbd
000002e0: 00e0 01bd 00e0 d63c 00a0 8f3c 0040 9bbd
000002f0: 0000 8cbd 0080 6b3c 0040 93bd 0020 6dbd
00000300: 0020 a0bd 0020 aebd 0020 88bd 0000 c3bc
00000310: 0040 bebd 00e0 76bd 0040 82bd 00c0 3dbd
00000320: 0080 a83c 0040 743d 0020 a2bc 0000 c1bd
00000330: 0060 39bd 0060 003d 00c0 55bd 0000 183d
00000340: 0020 1e3c 00e0 b8bc 00e0 80bc 00e0 5bbd
00000350: 0040 ddbc 0000 883c 0020 f5bc 00a0 6dbc
00000360: 00a0 8a3d 00e0 773a 0040 1cbd 0060 5dbc
00000370: 0040 1e3d 00c0 1abd 0020 88bd 0060 17bd
00000380: 00e0 9cbd 00c0 193d 0000 1fbc 00a0 56bd
00000390: 0080 4bbd 00c0 d7bb 0060 0dbd 0080 a8bd
000003a0: 0000 89bd 00a0 3abd 0040 55bd 0020 64bd
000003b0: 00e0 2dbd 0060 5cbd 0020 91bc 0040 473c
000003c0: 0000 17bc 00e0 64bd 0020 8abc 0080 89bc
000003d0: 00c0 57bd 0040 b63b 0000 633c 00c0 7abc
000003e0: 00a0 88bd 0040 ccbc 0060 d93a 0060 383d
000003f0: 0060 f7bb 0060 bebc 0060 06bd 0000 a2bd

bias f4 [32]
-0.06945801 0.2775879 -6.828125 -0.08325195 7.7109375 -0.15734863 -0.11138916 -0.22155762
-0.13623047 -0.085632324 -0.038024902 -0.14257812 -0.09082031 -0.09893799 -0.103515625 -0.18395996
-13.640625 -0.23510742 -12.2578125 -2.1191406 -1.3017578 -8.109375 -0.1340332 -0.027633667
-0.039855957 -0.36621094 -0.08251953 1.1601562 -0.11016846 -0.119018555 -0.08886719 -11.609375
00000000: 0040 8ebd 0020 8e3e 0080 dac0 0080 aabd
00000010: 00c0 f640 0020 21be 0020 e4bd 00e0 62be
00000020: 0080 0bbe 0060 afbd 00c0 1bbd 0000 12be
00000030: 0000 babd 00a0 cabd 0000 d4bd 0060 3cbe
00000040: 0040 5ac1 00c0 70be 0020 44c1 00a0 07c0
00000050: 00a0 a6bf 00c0 01c1 0040 09be 0060 e2bc
00000060: 0040 23bd 0080 bbbe 0000 a9bd 0080 943f
00000070: 00a0 e1bd 00c0 f3bd 0000 b6bd 00c0 39c1

weight f4 [64, 32, 3, 3]
0.07751465 0.049591064 0.029022217 0.021774292 0.017181396 0.029769897 0.03363037 -0.022857666
0.02470398 -0.16333008 -0.15661621 -0.07910156 0.16430664 0.17211914 0.09429932 -0.035888672
0.12371826 0.14904785 0.101135254 0.15319824 -0.016662598 0.0045661926 0.36645508 0.03390503
0.004020691 0.027877808 0.0073890686 -0.07354736 0.026931763 0.024230957 -0.016906738 0.028045654
0.023803711 0.05670166 -0.075927734 -0.072631836 -0.029129028 -0.19299316 -0.027267456 -0.2578125
-0.43676758 -0.19885254 -0.068115234 -0.31982422 -0.15661621 -0.08380127 -0.013015747 -0.012817383
-0.02217102 -0.035980225 -0.0020198822 0.033477783 -0.012825012 -0.0065193176 -0.04385376 0.032440186
-0.019439697 -0.00415802 -0.05529785 -0.025344849 -0.004219055 0.024887085 -0.030212402 -0.091552734
-0.060424805 0.16711426 -0.06890869 -0.28027344 0.029800415 -0.0063476562 -0.08905029 0.05960083
0.1315918 0.067871094 -0.07421875 0.0017700195 -0.043914795 -0.041381836 0.03869629 0.059906006
-0.0034885406 -0.012168884 -0.18408203 0.0020065308 0.07312012 -0.43188477 -0.020904541 -0.044677734
-0.07434082 -0.07183838 -0.045196533 -0.020889282 -0.039215088 0.046661377 0.004257202 0.046295166
0.041168213 0.01020813 -0.0033454895 -0.037506104 0.05279541 0.12072754 -0.008895874 -0.03024292
0.044555664 -0.0012845993 -0.125 0.0435791 0.032684326 0.052978516 0.047088623 -0.008277893
-0.012290955 0.046905518 0.050628662 0.0009407997 0.056854248 0.03527832 0.08917236 0.02748108
-0.008491516 0.06628418 0.029785156 0.05807495 -0.05102539 0.05331421 0.038970947 -0.0067825317
-0.10217285 0.041412354 -0.014556885 0.003162384 0.018875122 0.08831787 0.08337402 -0.004562378
-0.09460449 -0.055877686 -0.017227173 -0.044281006 -0.10687256 -0.053222656 0.00049495697 -0.10479736
-0.0074768066 0.18823242 0.062683105 -0.036499023 0.27807617 0.21875 0.04611206 0.15881348
0.113220215 -0.06173706 0.23608398 -0.15551758 0.030715942 0.17712402 -0.047424316 -0.011772156
0.06185913 -0.12249756 0.16381836 0.06185913 -0.0063972473 0.22045898 0.005744934 0.07141113
-0.0076560974 0.051574707 -0.03540039 -0.12976074 -0.07122803 -0.037841797 0.14050293 -0.34521484
0.025161743 0.032348633 0.0692749 -0.013137817 0.31152344 0.29467773 0.23876953 0.117614746
-0.1385498 0.19238281 0.064941406 0.12030029 0.11578369 0.08380127 0.009841919 0.30541992
0.14172363 -0.111572266 0.072387695 -0.007610321 0.13867188 0.06732178 -0.014533997 -0.017944336
0.022140503 0.032409668 -0.024169922 -0.03704834 0.093688965 -0.005012512 0.05935669 -0.088256836
0.016204834 -0.03366089 -0.059448242 -0.0058059692 -0.060333252 0.07977295 0.071899414 -0.08441162
-0.033569336 0.04208374 0.03353882 0.045532227 0.009979248 0.03881836 0.060699463 0.05117798
0.074401855 0.010772705 0.08770752 0.07977295 -0.068603516 -0.38623047 -0.06506348 -0.08288574
-0.0440979 -0.016998291 0.056488037 -0.10644531 0.08105469 0.111083984 -0.12164307 0.03793335
0.14929199 0.0002875328 0.0052604675 0.043792725 0.027160645 0.048736572 -0.01600647 -0.11352539
-0.05026245 -0.01878357 -0.080566406 0.108947754 0.032684326 0.08843994 0.0006160736 -0.03225708
00000000: 00c0 9e3d 0020 4b3d 00c0 ed3c 0060 b23c
00000010: 00c0 8c3c 00e0 f33c 00c0 093d 0040 bbbc
00000020: 0060 ca3c 0040 27be 0060 20be 0000 a2bd
00000030: 0040 283e 0040 303e 0020 c13d 0000 13bd
00000040: 0060 fd3d 00a0 183e 0020 cf3d 00e0 1c3e
00000050: 0080 88bc 00a0 953b 00a0 bb3e 00e0 0a3d
00000060: 00c0 833b 0060 e43c 0020 f23b 00a0 96bd
00000070: 00a0 dc3c 0080 c63c 0080 8abc 00c0 e53c
00000080: 0000 c33c 0040 683d 0080 9bbd 00c0 94bd
00000090: 00a0 eebc 00a0 45be 0060 dfbc 0000 84be
000000a0: 00a0 dfbe 00a0 4bbe 0080 8bbd 00c0 a3be
000000b0: 0060 20be 00a0 abbd 0040 55bc 0000 52bc
000000c0: 00a0 b5bc 0060 13bd 0060 04bb 0020 093d
000000d0: 0020 52bc 00a0 d5bb 00a0 33bd 00e0 043d
000000e0: 0040 9fbc 0040 88bb 0080 62bd 00a0 cfbc
000000f0: 0040 8abb 00e0 cb3c 0080 f7bc 0080 bbbd
00000100: 0080 77bd 0020 2b3e 0020 8dbd 0080 8fbe
00000110: 0020 f43c 0000 d0bb 0060 b6bd 0020 743d
00000120: 00c0 063e 0000 8b3d 0000 98bd 0000 e83a
00000130: 00e0 33bd 0080 29bd 0080 1e3d 0060 753d
00000140: 00a0 64bb 0060 47bc 0080 3cbe 0080 033b
00000150: 00c0 953d 0020 ddbe 0040 abbc 0000 37bd
00000160: 0040 98bd 0020 93bd 0020 39bd 0020 abbc
00000170: 00a0 20bd 0020 3f3d 0080 8b3b 00a0 3d3d
00000180: 00a0 283d 0040 273c 0040 5bbb 00a0 19bd
00000190: 0040 583d 0040 f73d 00c0 11bc 00c0 f7bc
000001a0: 0080 363d 0060 a8ba 0000 00be 0080 323d
000001b0: 00e0 053d 0000 593d 00e0 403d 00a0 07bc
000001c0: 0060 49bc 0020 403d 0060 4f3d 00a0 763a
000001d0: 00e0 683d 0080 103d 00a0 b63d 0020 e13c
000001e0: 0020 0bbc 00c0 873d 0000 f43c 00e0 6d3d
000001f0: 0000 51bd 0060 5a3d 00a0 1f3d 0040 debb
00000200: 0040 d1bd 00a0 293d 0080 6ebc 0040 4f3b
00000210: 00a0 9a3c 00e0 b43d 00c0 aa3d 0080 95bb
00000220: 00c0 c1bd 00e0 64bd 0020 8dbc 0060 35bd
00000230: 00e0 dabd 0000 5abd 00c0 013a 00a0 d6bd
00000240: 0000 f5bb 00c0 403e 0060 803d 0080 15bd
00000250: 0060 8e3e 0000 603e 00e0 3c3d 00a0 223e
00000260: 00e0 e73d 00e0 7cbd 00c0 713e 0040 1fbe
00000270: 00a0 fb3c 0060 353e 0040 42bd 00e0 40bc
00000280: 0060 7d3d 00e0 fabd 00c0 273e 0060 7d3d
00000290: 00a0 d1bb 00c0 613e 0040 bc3b 0040 923d
000002a0: 00e0 fabb 0040 533d 0000 11bd 00e0 04be
000002b0: 00e0 91bd 0000 1bbd 00e0 0f3e 00c0 b0be
000002c0: 0020 ce3c 0080 043d 00e0 8d3d 0040 57bc
000002d0: 0080 9f3e 00e0 963e 0080 743e 00e0 f03d
000002e0: 00e0 0dbe 0000 453e 0000 853d 0060 f63d
000002f0: 0020 ed3d 00a0 ab3d 0040 213c 0060 9c3e
00000300: 0020 113e 0080 e4bd 0040 943d 0060 f9bb
00000310: 0000 0e3e 00e0 893d 0020 6ebc 0000 93bc
00000320: 0060 b53c 00c0 043d 0000 c6bc 00c0 17bd
00000330: 00e0 bf3d 0040 a4bb 0020 733d 00c0 b4bd
00000340: 00c0 843c 00e0 09bd 0080 73bd 0040 bebb
00000350: 0020 77bd 0060 a33d 0040 933d 00e0 acbd
00000360: 0080 09bd 0060 2c3d 0060 093d 0080 3a3d
00000370: 0080 233c 0000 1f3d 00a0 783d 00a0 513d
00000380: 0060 983d 0080 303c 00a0 b33d 0060 a33d
00000390: 0080 8cbd 00c0 c5be 0040 85bd 00c0 a9bd
000003a0: 00a0 34bd 0040 8bbc 0060 673d 0000 dabd
000003b0: 0000 a63d 0080 e33d 0020 f9bd 0060 1b3d
000003c0: 00e0 183e 00c0 9639 0060 ac3b 0060 333d
000003d0: 0080 de3c 00a0 473d 0020 83bc 0080 e8bd
000003e0: 00e0 4dbd 00e0 99bc 0000 a5bd 0020 df3d
000003f0: 00e0 053d 0020 b53d 0080 213a 0020 04bd

bias f4 [64]
-0.31640625 -0.49853516 -0.13317871 -0.97558594 -0.11773682 -0.15124512 -0.1496582 -0.12719727
-0.14013672 -1.3203125 -0.09313965 -0.21362305 -0.91503906 -0.29736328 -0.11010742 -0.20227051
-0.18225098 -0.39892578 0.9194336 -4.015625 -0.6850586 -0.07122803 -2.1953125 -0.11553955
-0.40966797 -0.16247559 -0.14782715 -0.032836914 -0.13757324 -1.0185547 -0.14624023 -0.07080078
-1.5732422 0.5859375 -0.10430908 -1.2041016 -0.23425293 -0.36791992 -0.2758789 -0.014144897
-0.4711914 -0.15820312 -0.09136963 -0.21276855 -1.1435547 -3.3242188 -0.11315918 -0.20349121
-0.07397461 -0.82177734 -0.11047363 -0.83691406 -0.9511719 -0.1854248 -0.41064453 -0.06866455
0.21582031 -0.1928711 -1.5058594 -0.11175537 -0.14672852 4.640625 -0.16357422 -0.17163086
00000000: 0000 a2be 0040 ffbe 0060 08be 00c0 79bf
00000010: 0020 f1bd 00e0 1abe 0040 19be 0040 02be
00000020: 0080 0fbe 0000 a9bf 00c0 bebd 00c0 5abe
00000030: 0040 6abf 0040 98be 0080 e1bd 0020 4fbe
00000040: 00a0 3abe 0040 ccbe 0060 6b3f 0080 80c0
00000050: 0060 2fbf 00e0 91bd 0080 0cc0 00a0 ecbd
00000060: 00c0 d1be 0060 26be 0060 17be 0080 06bd
00000070: 00e0 0cbe 0060 82bf 00c0 15be 0000 91bd
00000080: 0060 c9bf 0000 163f 00a0 d5bd 0020 9abf
00000090: 00e0 6fbe 0060 bcbe 0040 8dbe 00c0 67bc
000000a0: 0040 f1be 0000 22be 0020 bbbd 00e0 59be
000000b0: 0060 92bf 00c0 54c0 00c0 e7bd 0060 50be
000000c0: 0080 97bd 0060 52bf 0040 e2bd 0040 56bf
000000d0: 0080 73bf 00e0 3dbe 0040 d2be 00a0 8cbd
000000e0: 0000 5d3e 0080 45be 00c0 c0bf 00e0 e4bd
000000f0: 0040 16be 0080 9440 0080 27be 00c0 2fbe

weight f4 [64, 64, 3, 3]
0.027664185 0.023925781 -0.061035156 0.035614014 -0.015640259 -0.02810669 -0.005596161 0.040222168
-0.0013227463 0.0519104 -0.018920898 -0.07659912 -0.015419006 -0.07055664 -0.02973938 -0.006832123
-0.0048675537 -0.02420044 -0.039916992 -0.040496826 0.00970459 -0.0010433197 -0.0076789856 -0.002231598
-0.0045204163 -0.022460938 -0.027755737 0.0138549805 -0.111816406 0.008224487 -0.02835083 -0.012535095
-0.014190674 0.06951904 0.0020275116 0.036987305 -0.022109985 -0.0077705383 0.023803711 -0.016616821
-0.0069122314 0.00066661835 -0.004837036 -0.044158936 -0.021560669 -0.030578613 0.023223877 -0.021621704
0.02357483 -0.040374756 0.030731201 -0.0073890686 -0.0045700073 -0.002614975 -0.03125 -0.031219482
-0.036956787 0.02859497 0.009635925 0.021377563 0.015914917 -0.016143799 0.021072388 0.029220581
-0.024261475 0.018417358 0.024917603 -0.021911621 0.033813477 -0.028274536 0.03326416 0.036193848
0.034210205 -0.012817383 -0.029464722 -0.019622803 -0.041931152 0.016525269 -0.0047683716 0.036315918
0.008224487 -0.03427124 -0.064941406 0.008308411 0.031341553 0.028457642 -0.024368286 -0.019058228
0.012466431 0.022155762 -0.040618896 0.040802002 0.038757324 -0.0071754456 0.01977539 -0.068237305
0.012062073 0.024108887 -0.03677368 0.018463135 -0.012924194 -0.017623901 -0.019424438 0.028717041
-0.03326416 0.022659302 -0.011451721 0.035736084 0.022277832 0.0042762756 -0.012207031 -0.009101868
0.010063171 -0.06439209 -0.016143799 0.052856445 5.298853e-05 -0.020980835 0.028793335 0.01259613
-0.012390137 -0.026443481 0.023666382 -0.03302002 -0.005783081 -0.04623413 -0.0055999756 0.03274536
0.02293396 -0.00434494 -0.0073127747 0.0060768127 -0.017059326 0.005748749 0.018615723 0.03488159
-0.04348755 -0.04336548 0.0022335052 -0.028930664 0.044769287 0.0015649796 -0.030456543 0.02407837
-0.035858154 -0.06774902 -0.003332138 0.0034542084 -0.04324341 -0.022537231 -0.029327393 -0.024108887
-0.034454346 0.013954163 -0.09588623 -0.022369385 0.026672363 -0.012466431 -0.042388916 0.012741089
-0.14208984 -0.030227661 -0.033996582 0.029754639 0.021484375 -0.01146698 0.21838379 0.33569336
0.020080566 -0.18029785 0.014122009 0.026901245 -0.03677368 -0.014419556 0.09136963 -0.051757812
-0.06524658 -0.03302002 -0.29760742 2.6762486e-05 -0.034118652 -0.03024292 -0.02331543 0.010269165
0.0056877136 -0.0118637085 -0.01651001 -0.0061836243 0.0026073456 0.013847351 -0.03137207 0.02330017
0.029754639 -0.026367188 -0.014129639 0.011222839 -0.038238525 0.012786865 -0.01322937 0.005004883
-0.07122803 0.006023407 -0.061645508 -0.04937744 -0.00058555603 -0.009605408 -0.0019836426 0.023895264
0.029922485 0.020080566 0.00041651726 -0.04272461 -0.016098022 0.03250122 -0.0014219284 0.020889282
0.034820557 0.0023288727 -0.040374756 0.033050537 -0.0055007935 0.033813477 0.0023326874 -0.028396606
-0.031829834 0.010803223 0.034423828 -0.0034122467 0.0019836426 -0.033935547 -0.033569336 -0.037353516
0.026428223 0.017333984 0.005203247 -0.003118515 0.036071777 -0.017807007 0.0040130615 0.034942627
0.023086548 0.017120361 0.0231781 0.0009636879 -0.008529663 0.009567261 -0.020095825 0.030471802
0.024276733 -0.0055732727 -0.03842163 0.02822876 -0.03765869 -0.017501831 0.019088745 0.018600464
00000000: 00a0 e23c 0000 c43c 0000 7abd 00e0 113d
00000010: 0020 80bc 0040 e6bc 0060 b7bb 00c0 243d
00000020: 0060 adba 00a0 543d 0000 9bbc 00e0 9cbd
00000030: 00a0 7cbc 0080 90bd 00a0 f3bc 00e0 dfbb
00000040: 0080 9fbb 0040 c6bc 0080 23bd 00e0 25bd
00000050: 0000 1f3c 00c0 88ba 00a0 fbbb 0040 12bb
00000060: 0020 94bb 0000 b8bc 0060 e3bc 0000 633c
00000070: 0000 e5bd 00c0 063c 0040 e8bc 0060 4dbc
00000080: 0080 68bc 0060 8e3d 00e0 043b 0080 173d
00000090: 0020 b5bc 00a0 febb 0000 c33c 0020 88bc
000000a0: 0080 e2bb 00c0 2e3a 0080 9ebb 00e0 34bd
000000b0: 00a0 b0bc 0080 fabc 0040 be3c 0020 b1bc
000000c0: 0020 c13c 0060 25bd 00c0 fb3c 0020 f2bb
000000d0: 00c0 95bb 0060 2bbb 0000 00bd 00c0 ffbc
000000e0: 0060 17bd 0040 ea3c 00e0 1d3c 0020 af3c
000000f0: 0060 823c 0040 84bc 00a0 ac3c 0060 ef3c
00000100: 00c0 c6bc 00e0 963c 0020 cc3c 0080 b3bc
00000110: 0080 0a3d 00a0 e7bc 0040 083d 0040 143d
00000120: 0020 0c3d 0000 52bc 0060 f1bc 00c0 a0bc
00000130: 00c0 2bbd 0060 873c 0040 9cbb 00c0 143d
00000140: 00c0 063c 0060 0cbd 0000 85bd 0020 083c
00000150: 0060 003d 0020 e93c 00a0 c7bc 0020 9cbc
00000160: 0040 4c3c 0080 b53c 0060 26bd 0020 273d
00000170: 00c0 1e3d 0020 ebbb 0000 a23c 00c0 8bbd
00000180: 00a0 453c 0080 c53c 00a0 16bd 0040 973c
00000190: 00c0 53bc 0060 90bc 0020 9fbc 0040 eb3c
000001a0: 0040 08bd 00a0 b93c 00a0 3bbc 0060 123d
000001b0: 0080 b63c 0020 8c3b 0000 48bc 0020 15bc
000001c0: 00e0 243c 00e0 83bd 0040 84bc 0080 583d
000001d0: 0040 5e38 00e0 abbc 00e0 eb3c 0060 4e3c
000001e0: 0000 4bbc 00a0 d8bc 00e0 c13c 0040 07bd
000001f0: 0080 bdbb 0060 3dbd 0080 b7bb 0020 063d
00000200: 00e0 bb3c 0060 8ebb 00a0 efbb 0020 c73b
00000210: 00c0 8bbc 0060 bc3b 0080 983c 00e0 0e3d
00000220: 0020 32bd 00a0 31bd 0060 123b 0000 edbc
00000230: 0060 373d 0020 cd3a 0080 f9bc 0040 c53c
00000240: 00e0 12bd 00c0 8abd 0060 5abb 0060 623b
00000250: 0020 31bd 00a0 b8bc 0040 f0bc 0080 c5bc
00000260: 0020 0dbd 00a0 643c 0060 c4bd 0040 b7bc
00000270: 0080 da3c 0040 4cbc 00a0 2dbd 00c0 503c
00000280: 0080 11be 00a0 f7bc 0040 0bbd 00c0 f33c
00000290: 0000 b03c 00e0 3bbc 00a0 5f3e 00e0 ab3e
000002a0: 0080 a43c 00a0 38be 0060 673c 0060 dc3c
000002b0: 00a0 16bd 0040 6cbc 0020 bb3d 0000 54bd
000002c0: 00a0 85bd 0040 07bd 0060 98be 0080 e037
000002d0: 00c0 0bbd 00c0 f7bc 0000 bfbc 0040 283c
000002e0: 0060 ba3b 0060 42bc 0040 87bc 00a0 cabb
000002f0: 00e0 2a3b 00e0 623c 0080 00bd 00e0 be3c
00000300: 00c0 f33c 0000 d8bc 0080 67bc 00e0 373c
00000310: 00a0 1cbd 0080 513c 00c0 58bc 0000 a43b
00000320: 00e0 91bd 0060 c53b 0080 7cbd 0040 4abd
00000330: 0080 19ba 0060 1dbc 0000 02bb 00c0 c33c
00000340: 0020 f53c 0080 a43c 0060 da39 0000 2fbd
00000350: 00e0 83bc 0020 053d 0060 baba 0020 ab3c
00000360: 00a0 0e3d 00a0 183b 0060 25bd 0060 073d
00000370: 0040 b4bb 0080 0a3d 00e0 183b 00a0 e8bc
00000380: 0060 02bd 0000 313c 0000 0d3d 00a0 5fbb
00000390: 0000 023b 0000 0bbd 0080 09bd 0000 19bd
000003a0: 0080 d83c 0000 8e3c 0080 aa3b 0060 4cbb
000003b0: 00c0 133d 00e0 91bc 0080 833b 0020 0f3d
000003c0: 0020 bd3c 0040 8c3c 00e0 bd3c 00a0 7c3a
000003d0: 00c0 0bbc 00c0 1c3c 00a0 a4bc 00a0 f93c
000003e0: 00e0 c63c 00a0 b6bb 0060 1dbd 0040 e73c
000003f0: 0040 1abd 0060 8fbc 0060 9c3c 0060 983c

bias f4 [64]
-2.0371094 -1.2304688 -0.42749023 -3.5488281 -3.4414062 -4.8320312 -7.421875 -3.2519531
-1.1025391 -5.9726562 -0.49365234 -5.4257812 -2.0019531 -2.3203125 -2.3476562 -3.6914062
6.1796875 -8.4921875 -4.7929688 -0.8461914 -5.4882812 -1.1435547 -0.9814453 -0.79052734
-0.86621094 -5.4765625 -5.0820312 -5.0585938 -1.7080078 1.7138672 -0.9375 -6.3203125
-0.6225586 -2.9394531 -0.7734375 -4.4453125 -1.4423828 -4.2148438 -0.7792969 -2.0507812
-0.7167969 -1.4667969 -4.828125 -3.0546875 -0.45458984 -2.359375 -0.50927734 -5.2265625
-6.34375 -1.3203125 -5.6367188 -0.73876953 -2.9726562 -0.1899414 -1.7109375 -2.453125
-1.4775391 -6.75 -1.46875 -1.7480469 -3.5136719 -1.8359375 -0.54785156 -1.0244141
00000000: 0060 02c0 0080 9dbf 00e0 dabe 0020 63c0
00000010: 0040 5cc0 00a0 9ac0 0080 edc0 0020 50c0
00000020: 0020 8dbf 0020 bfc0 00c0 fcbe 00a0 adc0
00000030: 0020 00c0 0080 14c0 0040 16c0 0040 6cc0
00000040: 00c0 c540 00e0 07c1 0060 99c0 00a0 58bf
00000050: 00a0 afc0 0060 92bf 0040 7bbf 0060 4abf
00000060: 00c0 5dbf 0040 afc0 00a0 a2c0 00e0 a1c0
00000070: 00a0 dabf 0060 db3f 0000 70bf 0040 cac0
00000080: 0060 1fbf 0020 3cc0 0000 46bf 0040 8ec0
00000090: 00a0 b8bf 00e0 86c0 0080 47bf 0040 03c0
000000a0: 0080 37bf 00c0 bbbf 0080 9ac0 0080 43c0
000000b0: 00c0 e8be 0000 17c0 0060 02bf 0040 a7c0
000000c0: 0000 cbc0 0000 a9bf 0060 b4c0 0020 3dbf
000000d0: 0040 3ec0 0080 42be 0000 dbbf 0000 1dc0
000000e0: 0020 bdbf 0000 d8c0 0000 bcbf 00c0 dfbf
000000f0: 00e0 60c0 0000 ebbf 0040 0cbf 0020 83bf

weight f4 [128, 64]
0.2322998 0.0047569275 -0.00066041946 0.44067383 -0.6142578 0.29882812 0.55126953 -0.083618164
0.21923828 -0.3010254 -0.06021118 0.17980957 -0.4501953 -0.21789551 -0.19592285 -0.11694336
-0.1427002 -0.16088867 0.43701172 0.49975586 0.20043945 0.20141602 -0.044769287 -0.0440979
-0.052490234 0.09350586 0.2548828 -0.32958984 -0.27905273 0.052612305 -0.062683105 -0.08514404
-0.17468262 -0.9404297 -0.11779785 0.18969727 0.07763672 0.06286621 0.21508789 -0.80078125
0.13183594 0.056610107 0.36206055 0.53466797 0.0024356842 0.096069336 0.23144531 -0.0066719055
0.052581787 0.006996155 0.043945312 -0.13256836 0.28759766 -0.40478516 -0.7314453 0.24365234
0.32836914 0.10455322 0.05569458 -0.54541016 -0.5527344 -0.2553711 -0.3334961 -0.2211914
-0.043273926 -0.1541748 0.02986145 -0.34277344 -0.13671875 0.13146973 -0.07293701 -0.11035156
-0.072143555 0.064208984 0.054718018 -0.34057617 -0.02305603 -0.1303711 -0.10406494 0.24523926
-0.08618164 0.40966797 -0.066223145 -0.47192383 0.051696777 -0.13513184 0.025863647 -0.012130737
0.23608398 -0.0113220215 0.04711914 0.22692871 0.17700195 -0.5102539 -0.2364502 0.2849121
0.009017944 -0.041259766 -0.032348633 0.15625 -0.1274414 -0.04562378 -0.029174805 -0.22875977
-0.10003662 0.039642334 -0.22973633 -0.27075195 0.017486572 0.27685547 0.025604248 0.0859375
0.011726379 0.2541504 0.21350098 -0.39233398 -0.026382446 -0.1517334 -0.025985718 0.2055664
-0.33007812 0.094055176 0.072265625 -0.421875 0.2442627 -0.15039062 0.009979248 -0.093688965
-0.12188721 -0.17810059 0.0947876 -0.021987915 0.3347168 -0.06878662 -0.07635498 -0.009742737
0.092041016 0.19689941 0.02696228 0.1307373 -0.07305908 0.15039062 0.07611084 -0.30200195
-0.5058594 -0.30517578 -0.5214844 -0.30444336 0.008239746 -0.4033203 0.15881348 -0.022003174
0.18005371 -0.42260742 -0.5834961 -0.027435303 0.13244629 0.2680664 -0.08856201 -0.4506836
0.033935547 -0.6791992 0.09539795 -0.27490234 0.29663086 -0.67089844 -0.058563232 -2.0859375
0.1977539 -0.012298584 0.21472168 -0.66308594 0.123413086 -0.5830078 0.26733398 -1.1386719
-0.4560547 0.24194336 -0.26953125 -0.26000977 -0.15844727 0.08074951 0.086242676 -0.12878418
-0.84033203 0.24743652 0.21765137 -0.18701172 -0.123168945 -0.4140625 0.03439331 0.22277832
0.0039711 -0.09436035 0.058807373 -0.30395508 -0.20812988 -0.33447266 -0.17578125 -0.92626953
0.13781738 -0.18481445 0.058685303 -0.08526611 -0.14257812 -0.13391113 -0.44360352 -0.30981445
-0.16271973 -0.27539062 0.04852295 -0.7446289 -0.13098145 -0.15332031 0.234375 -0.029159546
-0.3864746 -0.61865234 -0.48999023 -0.0635376 -0.27172852 0.34643555 -0.045959473 -0.38305664
-0.20458984 -0.63671875 -0.14331055 0.10760498 0.15478516 -0.06213379 -0.27514648 0.061950684
-0.084228516 -0.16491699 -0.22912598 -0.43115234 -0.030181885 -1.0693359 -1.15625 0.071777344
-0.20922852 -0.26782227 -0.28833008 -0.34887695 -0.22277832 -0.37939453 -0.06567383 -0.07183838
-0.075927734 -0.22607422 -0.007904053 -7.9804688 -0.21105957 0.28857422 -0.032684326 0.5683594
00000000: 00e0 6d3e 00e0 9b3b 0020 2dba 00a0 e13e
00000010: 0040 1dbf 0000 993e 0020 0d3f 0040 abbd
00000020: 0080 603e 0020 9abe 00a0 76bd 0020 383e
00000030: 0080 e6be 0020 5fbe 00a0 48be 0080 efbd
00000040: 0020 12be 00c0 24be 00c0 df3e 00e0 ff3e
00000050: 0040 4d3e 0040 4e3e 0060 37bd 00a0 34bd
00000060: 0000 57bd 0080 bf3d 0080 823e 00c0 a8be
00000070: 00e0 8ebe 0080 573d 0060 80bd 0060 aebd
00000080: 00e0 32be 00c0 70bf 0040 f1bd 0040 423e
00000090: 0000 9f3d 00c0 803d 0040 5c3e 0000 4dbf
000000a0: 0000 073e 00e0 673d 0060 b93e 00e0 083f
000000b0: 00a0 1f3b 00c0 c43d 0000 6d3e 00a0 dabb
000000c0: 0060 573d 0040 e53b 0000 343d 00c0 07be
000000d0: 0040 933e 0040 cfbe 0040 3bbf 0080 793e
000000e0: 0020 a83e 0020 d63d 0020 643d 00a0 0bbf
000000f0: 0080 0dbf 00c0 82be 00c0 aabe 0080 62be
00000100: 0040 31bd 00e0 1dbe 00a0 f43c 0080 afbe
00000110: 0000 0cbe 00a0 063e 0060 95bd 0000 e2bd
00000120: 00c0 93bd 0080 833d 0020 603d 0060 aebe
00000130: 00e0 bcbc 0080 05be 0020 d5bd 0020 7b3e
00000140: 0080 b0bd 00c0 d13e 00a0 87bd 00a0 f1be
00000150: 00c0 533d 0060 0abe 00e0 d33c 00c0 46bc
00000160: 00c0 713e 0080 39bc 0000 413d 0060 683e
00000170: 0040 353e 00a0 02bf 0020 72be 00e0 913e
00000180: 00c0 133c 0000 29bd 0080 04bd 0000 203e
00000190: 0080 02be 00e0 3abd 0000 efbc 0040 6abe
000001a0: 00e0 ccbd 0060 223d 0040 6bbe 00a0 8abe
000001b0: 0040 8f3c 00c0 8d3e 00c0 d13c 0000 b03d
000001c0: 0020 403c 0020 823e 00a0 5a3e 00e0 c8be
000001d0: 0020 d8bc 0060 1bbe 00e0 d4bc 0080 523e
000001e0: 0000 a9be 00a0 c03d 0000 943d 0000 d8be
000001f0: 0020 7a3e 0000 1abe 0080 233c 00e0 bfbd
00000200: 00a0 f9bd 0060 36be 0020 c23d 0020 b4bc
00000210: 0060 ab3e 00e0 8cbd 0060 9cbd 00a0 1fbc
00000220: 0080 bc3d 00a0 493e 00e0 dc3c 00e0 053e
00000230: 00a0 95bd 0000 1a3e 00e0 9b3d 00a0 9abe
00000240: 0080 01bf 0040 9cbe 0080 05bf 00e0 9bbe
00000250: 0000 073c 0080 cebe 00a0 223e 0040 b4bc
00000260: 0060 383e 0060 d8be 0060 15bf 00c0 e0bc
00000270: 00a0 073e 0040 893e 0060 b5bd 00c0 e6be
00000280: 0000 0b3d 00e0 2dbf 0060 c33d 00c0 8cbe
00000290: 00e0 973e 00c0 2bbf 00e0 6fbd 0080 05c0
000002a0: 0080 4a3e 0080 49bc 00e0 5b3e 00c0 29bf
000002b0: 00c0 fc3d 0040 15bf 00e0 883e 00c0 91bf
000002c0: 0080 e9be 00c0 773e 0000 8abe 0020 85be
000002d0: 0040 22be 0060 a53d 00a0 b03d 00e0 03be
000002e0: 0020 57bf 0060 7d3e 00e0 5e3e 0080 3fbe
000002f0: 0040 fcbd 0000 d4be 00e0 0c3d 0020 643e
00000300: 0020 823b 0040 c1bd 00e0 703d 00a0 9bbe
00000310: 0020 55be 0040 abbe 0000 34be 0020 6dbf
00000320: 0020 0d3e 0040 3dbe 0060 703d 00a0 aebd
00000330: 0000 12be 0020 09be 0020 e3be 00a0 9ebe
00000340: 00a0 26be 0000 8dbe 00c0 463d 00a0 3ebf
00000350: 0020 06be 0000 1dbe 0000 703e 00e0 eebc
00000360: 00e0 c5be 0060 1ebf 00e0 fabe 0020 82bd
00000370: 0020 8bbe 0060 b13e 0040 3cbd 0020 c4be
00000380: 0080 51be 0000 23bf 00c0 12be 0060 dc3d
00000390: 0080 1e3e 0080 7ebd 00e0 8cbe 00c0 7d3d
000003a0: 0080 acbd 00e0 28be 00a0 6abe 00c0 dcbe
000003b0: 0040 f7bc 00e0 88bf 0000 94bf 0000 933d
000003c0: 0040 56be 0020 89be 00a0 93be 00a0 b2be
000003d0: 0020 64be 0040 c2be 0080 86bd 0020 93bd
000003e0: 0080 9bbd 0080 67be 0080 01bc 0060 ffc0
000003f0: 0020 58be 00c0 933e 00e0 05bd 0080 113f

bias f4 [128]
-1.0810547 -0.9379883 -0.62402344 -0.5805664 -0.49365234 -0.10888672 -0.20996094 -1.2607422
0.20178223 -1.1132812 -0.022918701 -0.50878906 -1.9121094 -1.1318359 -1.4765625 -0.27368164
-1.0927734 -1.1113281 -0.5751953 -0.66503906 -1.1337891 -1.796875 -0.5727539 -0.4020996
-0.25585938 -0.1463623 -0.9916992 -0.22631836 0.3269043 -0.8828125 -0.6586914 -0.3894043
-0.55566406 -0.35595703 0.3137207 -0.4645996 -0.3544922 -0.82128906 -0.57958984 -0.46728516
-0.10003662 -0.5517578 -0.23754883 -0.47143555 -1.7685547 -0.26416016 -0.34448242 -1.2480469
-0.45214844 -0.84228516 -0.2565918 -1.2226562 -0.24865723 0.3503418 -0.16186523 -1.3945312
-0.77246094 -0.7583008 -0.3828125 -0.46875 -1.2490234 -0.4794922 -0.26733398 -0.4248047
-0.71728516 -1.015625 -0.90722656 -0.23022461 -0.7519531 -0.46411133 -1.3671875 -0.32373047
-0.9169922 -0.69873047 -0.17358398 -0.57910156 -0.45751953 -1.0947266 -0.39916992 -0.42260742
-1.296875 -2.34375 -1.6796875 -0.21228027 -0.26293945 -0.63671875 -1.8662109 -0.63623047
-0.9785156 0.23071289 -1.7792969 -1.4804688 -0.45336914 -0.55810547 -0.48291016 -0.40356445
-1.2431641 -1.5791016 -0.7192383 -1.1552734 -1.1992188 -1.9501953 0.1776123 -0.21740723
-0.39624023 -0.8676758 0.10644531 -0.94140625 -1.7353516 -0.29223633 -1.3261719 -1.9765625
-1.1748047 -0.34472656 -1.0791016 -0.32348633 -1.078125 -0.7885742 -0.8183594 -0.39404297
-0.49926758 -0.57666016 -1.9677734 -0.5332031 -0.073913574 0.29174805 -1.3046875 -0.5991211
00000000: 0060 8abf 0020 70bf 00c0 1fbf 00a0 14bf
00000010: 00c0 fcbe 0000 dfbd 0000 57be 0060 a1bf
00000020: 00a0 4e3e 0080 8ebf 00c0 bbbc 0040 02bf
00000030: 00c0 f4bf 00e0 90bf 0000 bdbf 0020 8cbe
00000040: 00e0 8bbf 0040 8ebf 0040 13bf 0040 2abf
00000050: 0020 91bf 0000 e6bf 00a0 12bf 00e0 cdbe
00000060: 0000 83be 00e0 15be 00e0 7dbf 00c0 67be
00000070: 0060 a73e 0000 62bf 00a0 28bf 0060 c7be
00000080: 0040 0ebf 0040 b6be 00a0 a03e 00e0 edbe
00000090: 0080 b5be 0040 52bf 0060 14bf 0040 efbe
000000a0: 00e0 ccbd 0040 0dbf 0040 73be 0060 f1be
000000b0: 0060 e2bf 0040 87be 0060 b0be 00c0 9fbf
000000c0: 0080 e7be 00a0 57bf 0060 83be 0080 9cbf
000000d0: 00a0 7ebe 0060 b33e 00c0 25be 0080 b2bf
000000e0: 00c0 45bf 0020 42bf 0000 c4be 0000 f0be
000000f0: 00e0 9fbf 0080 f5be 00e0 88be 0080 d9be
00000100: 00a0 37bf 0000 82bf 0040 68bf 00c0 6bbe
00000110: 0080 40bf 00a0 edbe 0000 afbf 00c0 a5be
00000120: 00c0 6abf 00e0 32bf 00c0 31be 0040 14bf
00000130: 0040 eabe 0020 8cbf 0060 ccbe 0060 d8be
00000140: 0000 a6bf 0000 16c0 0000 d7bf 0060 59be
00000150: 00a0 86be 0000 23bf 00e0 eebf 00e0 22bf
00000160: 0080 7abf 0040 6c3e 00c0 e3bf 0080 bdbf
00000170: 0020 e8be 00e0 0ebf 0040 f7be 00a0 cebe
00000180: 0020 9fbf 0020 cabf 0020 38bf 00e0 93bf
00000190: 0080 99bf 00a0 f9bf 00e0 353e 00a0 5ebe
000001a0: 00e0 cabe 0020 5ebf 0000 da3d 0000 71bf
000001b0: 0020 debf 00a0 95be 00c0 a9bf 0000 fdbf
000001c0: 0060 96bf 0080 b0be 0020 8abf 00a0 a5be
000001d0: 0000 8abf 00e0 49bf 0080 51bf 00c0 c9be
000001e0: 00a0 ffbe 00a0 13bf 00e0 fbbf 0080 08bf
000001f0: 0060 97bd 0060 953e 0000 a7bf 0060 19bf

weight f4 [64, 128]
1.9101562 0.47705078 0.37158203 0.2409668 0.3017578 0.05596924 0.6455078 -0.10028076
-1.2255859 0.28979492 0.07342529 0.16662598 0.44433594 0.1685791 0.91748047 0.013092041
1.1152344 -0.0074501038 0.42041016 -1.359375 -2.4375 -4.4453125 0.21655273 -0.4333496
0.05279541 0.17382812 -0.036895752 0.24816895 -1.4609375 -0.76220703 0.3256836 0.093566895
-0.04675293 0.09100342 -0.68847656 -0.8491211 -1.6523438 0.007003784 -0.36645508 -0.26049805
-0.5341797 0.74609375 -0.6738281 -0.41625977 0.9555664 0.44580078 0.05593872 -2.0488281
-1.2548828 0.3347168 -0.2668457 -4.8007812 0.41723633 -0.5214844 0.22363281 0.28027344
-1.9951172 -0.18408203 0.12225342 0.13635254 0.29370117 -0.27685547 0.15539551 0.16369629
-0.061462402 -2.7089844 -3.6035156 -1.6611328 -0.0005736351 0.3713379 0.12298584 0.06384277
-0.20629883 0.48413086 0.24987793 -2.9394531 -0.4650879 0.08337402 -0.62890625 0.28735352
-1.6201172 0.26000977 -1.3027344 -0.26098633 -0.12561035 0.022613525 -2.6777344 -0.18078613
0.06842041 -0.7709961 0.10614014 -2.7949219 0.3017578 0.1821289 -0.019439697 -2.1933594
0.19763184 0.4169922 0.9560547 0.7368164 -3.0488281 0.49804688 -0.9628906 0.26513672
0.101623535 0.13867188 -1.0253906 -0.06585693 -2.3652344 0.3696289 1.0214844 0.81396484
1.4521484 0.07141113 -1.1972656 0.17260742 -2.9765625 -2.0742188 0.28979492 0.085510254
0.26953125 -0.11883545 0.77685547 0.13647461 0.04446411 -1.0898438 -3.0351562 0.609375
1.15625 0.35180664 0.20727539 -0.53271484 -0.3647461 0.4025879 -0.14550781 -1.1552734
0.63134766 -0.15759277 -0.01876831 -0.064208984 0.31835938 -0.6645508 0.42700195 -1.4003906
0.60302734 -1.5351562 0.26904297 -1.4628906 -3.4023438 -4.875 0.07623291 0.2783203
-0.9370117 -0.15112305 -1.9570312 -0.008636475 -2.421875 -0.7084961 -0.024353027 -0.20996094
-0.08911133 -0.6425781 0.33740234 -2.4394531 -0.5908203 0.024429321 0.16748047 0.051452637
-2.2617188 0.057373047 0.11999512 0.8828125 1.2119141 0.14440918 -0.85009766 -2.9003906
-2.0566406 -0.20141602 0.123535156 -4.6835938 0.7705078 0.23364258 -1.2197266 0.23022461
-2.1171875 0.06890869 -0.0647583 -0.13964844 -0.6333008 0.11383057 -0.013473511 -0.1081543
-0.40185547 -2.859375 -3.7089844 -1.0751953 -0.03186035 0.515625 -0.0692749 -0.4724121
0.032806396 0.4267578 -0.023742676 -2.765625 -0.14550781 -1.8779297 -1.5009766 0.40234375
-4.7382812 -0.051818848 -0.82666016 0.14880371 -0.74316406 -1.0390625 -0.9501953 -0.8417969
0.48583984 0.58935547 -0.18432617 -3.2675781 -0.10205078 0.46606445 -0.06536865 -1.5429688
-0.016357422 0.6455078 -0.031555176 1.359375 -3.0898438 0.36743164 0.8535156 -0.15515137
-0.1541748 -0.17541504 0.82373047 -0.07775879 -3.2851562 -0.15820312 0.6689453 0.8823242
1.3330078 -0.26879883 -2.1035156 -0.07965088 -3.1796875 -2.0957031 0.38452148 -0.059448242
0.25927734 -0.22583008 0.16467285 0.004310608 -0.33251953 0.50439453 -2.859375 -0.40063477
00000000: 0080 f43f 0040 f43e 0040 be3e 00c0 763e
00000010: 0080 9a3e 0040 653d 0040 253f 0060 cdbd
00000020: 00e0 9cbf 0060 943e 0060 963d 00a0 2a3e
00000030: 0080 e33e 00a0 2c3e 00e0 6a3f 0080 563c
00000040: 00c0 8e3f 0020 f4bb 0040 d73e 0000 aebf
00000050: 0000 1cc0 0040 8ec0 00c0 5d3e 00e0 ddbe
00000060: 0040 583d 0000 323e 0020 17bd 0020 7e3e
00000070: 0000 bbbf 0020 43bf 00c0 a63e 00a0 bf3d
00000080: 0080 3fbd 0060 ba3d 0040 30bf 0060 59bf
00000090: 0080 d3bf 0080 e53b 00a0 bbbe 0060 85be
000000a0: 00c0 08bf 0000 3f3f 0080 2cbf 0020 d5be
000000b0: 00a0 743f 0040 e43e 0020 653d 0020 03c0
000000c0: 00a0 a0bf 0060 ab3e 00a0 88be 00a0 99c0
000000d0: 00a0 d53e 0080 05bf 0000 653e 0080 8f3e
000000e0: 0060 ffbf 0080 3cbe 0060 fa3d 00a0 0b3e
000000f0: 0060 963e 00c0 8dbe 0020 1f3e 00a0 273e
00000100: 00c0 7bbd 0060 2dc0 00a0 66c0 00a0 d4bf
00000110: 0060 16ba 0020 be3e 00e0 fb3d 00c0 823d
00000120: 0040 53be 00e0 f73e 00e0 7f3e 0020 3cc0
00000130: 0020 eebe 00c0 aa3d 0000 21bf 0020 933e
00000140: 0060 cfbf 0020 853e 00c0 a6bf 00a0 85be
00000150: 00a0 00be 0040 b93c 0060 2bc0 0020 39be
00000160: 0020 8c3d 0060 45bf 0060 d93d 00e0 32c0
00000170: 0080 9a3e 0080 3a3e 0040 9fbc 0060 0cc0
00000180: 0060 4a3e 0080 d53e 00c0 743f 00a0 3c3f
00000190: 0020 43c0 0000 ff3e 0080 76bf 00c0 873e
000001a0: 0020 d03d 0000 0e3e 0040 83bf 00e0 86bd
000001b0: 0060 17c0 0040 bd3e 00c0 823f 0060 503f
000001c0: 00e0 b93f 0040 923d 0040 99bf 00c0 303e
000001d0: 0080 3ec0 00c0 04c0 0060 943e 0020 af3d
000001e0: 0000 8a3e 0060 f3bd 00e0 463f 00c0 0b3e
000001f0: 0020 363d 0080 8bbf 0040 42c0 0000 1c3f
00000200: 0000 943f 0020 b43e 0040 543e 0060 08bf
00000210: 00c0 babe 0020 ce3e 0000 15be 00e0 93bf
00000220: 00a0 213f 0060 21be 00c0 99bc 0080 83bd
00000230: 0000 a33e 0020 2abf 00a0 da3e 0040 b3bf
00000240: 0060 1a3f 0080 c4bf 00c0 893e 0040 bbbf
00000250: 00c0 59c0 0000 9cc0 0020 9c3d 0080 8e3e
00000260: 00e0 6fbf 00c0 1abe 0080 fabf 0080 0dbc
00000270: 0000 1bc0 0060 35bf 0080 c7bc 0000 57be
00000280: 0080 b6bd 0080 24bf 00c0 ac3e 0020 1cc0
00000290: 0040 17bf 0020 c83c 0080 2b3e 00c0 523d
000002a0: 00c0 10c0 0000 6b3d 00c0 f53d 0000 623f
000002b0: 0020 9b3f 00e0 133e 00a0 59bf 00a0 39c0
000002c0: 00a0 03c0 0040 4ebe 0000 fd3d 00e0 95c0
000002d0: 0040 453f 0040 6f3e 0020 9cbf 00c0 6b3e
000002e0: 0080 07c0 0020 8d3d 00a0 84bd 0000 0fbe
000002f0: 0020 22bf 0020 e93d 00c0 5cbc 0080 ddbd
00000300: 00c0 cdbe 0000 37c0 0060 6dc0 00a0 89bf
00000310: 0080 02bd 0000 043f 00e0 8dbd 00e0 f1be
00000320: 0060 063d 0080 da3e 0080 c2bc 0000 31c0
00000330: 0000 15be 0060 f0bf 0020 c0bf 0000 ce3e
00000340: 00a0 97c0 0040 54bd 00a0 53bf 0060 183e
00000350: 0040 3ebf 0000 85bf 0040 73bf 0080 57bf
00000360: 00c0 f83e 00e0 163f 00c0 3cbe 0020 51c0
00000370: 0000 d1bd 00a0 ee3e 00e0 85bd 0080 c5bf
00000380: 0000 86bc 0040 253f 0040 01bd 0000 ae3f
00000390: 00c0 45c0 0020 bc3e 0080 5a3f 00e0 1ebe
000003a0: 00e0 1dbe 00a0 33be 00e0 523f 0040 9fbd
000003b0: 0040 52c0 0000 22be 0040 2b3f 00e0 613f
000003c0: 00a0 aa3f 00a0 89be 00a0 06c0 0020 a3bd
000003d0: 0080 4bc0 0020 06c0 00e0 c43e 0080 73bd
000003e0: 00c0 843e 0040 67be 00a0 283e 0040 8d3b
000003f0: 0040 aabe 0020 013f 0000 37c0 0020 cdbe

bias f4 [64]
0.07122803 -0.0063591003 0.12731934 0.024414062 0.18554688 0.13427734 0.025772095 0.0970459
0.08972168 -0.010231018 0.033416748 0.06161499 0.05529785 -0.039886475 0.16992188 0.06933594
-0.045928955 -0.15246582 0.062683105 -0.00030493736 -0.0115737915 0.019332886 0.06530762 0.13110352
0.1026001 0.08087158 0.0758667 0.057922363 0.08282471 0.08666992 0.036224365 0.0121536255
-0.052581787 0.14172363 -0.19921875 0.120666504 -0.04623413 0.08392334 -0.16772461 0.0025024414
0.16479492 0.09039307 0.09588623 0.08294678 -0.1459961 0.018692017 -0.02558899 0.013961792
0.23181152 0.14282227 -0.48950195 0.04937744 0.08746338 0.079711914 0.04547119 0.089904785
0.13537598 0.079711914 0.11566162 0.18261719 0.16003418 -0.0036468506 -0.023376465 0.056732178
00000000: 00e0 913d 0060 d0bb 0060 023e 0000 c83c
00000010: 0000 3e3e 0080 093e 0020 d33c 00c0 c63d
00000020: 00c0 b73d 00a0 27bc 00e0 083d 0060 7c3d
00000030: 0080 623d 0060 23bd 0000 2e3e 0000 8e3d
00000040: 0020 3cbd 0020 1cbe 0060 803d 00e0 9fb9
00000050: 00a0 3dbc 0060 9e3c 00c0 853d 0040 063e
00000060: 0020 d23d 00a0 a53d 0060 9b3d 0040 6d3d
00000070: 00a0 a93d 0080 b13d 0060 143d 0020 473c
00000080: 0060 57bd 0020 113e 0000 4cbe 0020 f73d
00000090: 0060 3dbd 00e0 ab3d 00c0 2bbe 0000 243b
000000a0: 00c0 283e 0020 b93d 0060 c43d 00e0 a93d
000000b0: 0080 15be 0020 993c 00a0 d1bc 00c0 643c
000000c0: 0060 6d3e 0040 123e 00a0 fabe 0040 4a3d
000000d0: 0020 b33d 0040 a33d 0040 3a3d 0020 b83d
000000e0: 00a0 0a3e 0040 a33d 00e0 ec3d 0000 3b3e
000000f0: 00e0 233e 0000 6fbb 0080 bfbc 0060 683d

weight f4 [1, 64]
-0.0154800415 0.12463379 0.06970215 0.11071777 -0.043914795 -0.090026855 -0.037017822 -0.050628662
0.08996582 -0.053588867 0.09320068 -0.058776855 0.15429688 -0.028701782 -0.089660645 0.074035645
-0.06677246 -0.07244873 0.11029053 0.15222168 0.079711914 -0.032318115 -0.030273438 -0.066589355
0.062805176 -0.08514404 0.08331299 -0.016571045 -0.0657959 -0.020263672 0.08135986 0.08917236
-0.074157715 -0.025466919 -0.09063721 -0.022872925 -0.02583313 0.09051514 -0.009269714 0.08123779
-0.029968262 -0.023254395 -0.03753662 0.08654785 -0.044769287 0.07330322 -0.037872314 0.11462402
-0.035064697 -0.04888916 -0.029769897 0.10876465 0.009017944 0.07952881 -0.08441162 0.04232788
0.073913574 0.12658691 -0.06829834 0.069885254 -0.04714966 -0.027053833 -0.045898438 -0.06719971
00000000: 00a0 7dbc 0040 ff3d 00c0 8e3d 00c0 e23d
00000010: 00e0 33bd 0060 b8bd 00a0 17bd 0060 4fbd
00000020: 0040 b83d 0080 5bbd 00e0 be3d 00c0 70bd
00000030: 0000 1e3e 0020 ebbc 00a0 b7bd 00a0 973d
00000040: 00c0 88bd 0060 94bd 00e0 e13d 00e0 1b3e
00000050: 0040 a33d 0060 04bd 0000 f8bc 0060 88bd
00000060: 00a0 803d 0060 aebd 00a0 aa3d 00c0 87bc
00000070: 00c0 86bd 0000 a6bc 00a0 a63d 00a0 b63d
00000080: 00e0 97bd 00a0 d0bc 00a0 b9bd 0060 bbbc
00000090: 00a0 d3bc 0060 b93d 00e0 17bc 0060 a63d
000000a0: 0080 f5bc 0080 bebc 00c0 19bd 0040 b13d
000000b0: 0060 37bd 0020 963d 0020 1bbd 00c0 ea3d
000000c0: 00a0 0fbd 0040 48bd 00e0 f3bc 00c0 de3d
000000d0: 00c0 133c 00e0 a23d 00e0 acbd 0060 2d3d
000000e0: 0060 973d 00a0 013e 00e0 8bbd 0020 8f3d
000000f0: 0020 41bd 00a0 ddbc 0000 3cbd 00a0 89bd
