chess_rust/src/model5_scripted.pt (torch, 451493 bytes, 13 tensors)

weight f4 [32, 6, 3, 3]
0	0x3e6b4000	0.22973633
1	0x3db36000	0.08758545
2	0xbedf2000	-0.43579102
3	0x3e7e6000	0.24841309
4	0xbd8c8000	-0.068603516
5	0xbe300000	-0.171875
6	0x3e864000	0.26220703
7	0xbdf78000	-0.12084961
8	0xbf046000	-0.51708984
9	0xbe85a000	-0.26098633
10	0xbe35c000	-0.17749023
11	0xbdaae000	-0.08343506
12	0xbea3a000	-0.31958008
13	0xbfaec000	-1.3652344
14	0xbce92000	-0.028457642
15	0xbee18000	-0.4404297
16	0xbea76000	-0.3269043
17	0xbe5dc000	-0.21655273
18	0x3f28a000	0.6586914
19	0xbf282000	-0.6567383
20	0xbdd2c000	-0.10290527
21	0xbf368000	-0.7128906
22	0xbd05a000	-0.03262329
23	0xbd558000	-0.052124023
24	0x3e260000	0.16210938
25	0xbe3ae000	-0.18249512
26	0xbe22e000	-0.15905762
27	0xbdf98000	-0.12182617
28	0xbf8b8000	-1.0898438
29	0x3d8b6000	0.0680542
30	0x3d948000	0.072509766
31	0xbfc56000	-1.5419922
32	0x3e4ea000	0.20178223
33	0xbe9b2000	-0.30297852
34	0xbe88e000	-0.26733398
35	0xbeff6000	-0.4987793
36	0x3f308000	0.6894531
37	0xbf80a000	-1.0048828
38	0xbf96a000	-1.1767578
39	0xbf89a000	-1.0751953
40	0xc003c000	-2.0585938
41	0x3e736000	0.2376709
42	0x3ec1e000	0.3786621
43	0xbd8ea000	-0.06964111
44	0xbf108000	-0.5644531
45	0xbe53e000	-0.20690918
46	0x3da12000	0.07867432
47	0xbf068000	-0.5253906
48	0x3d536000	0.051605225
49	0xbea46000	-0.32104492
50	0x3ef8c000	0.48583984
51	0x3d512000	0.05105591
52	0xbe4b0000	-0.19824219
53	0xbed52000	-0.41625977
54	0x3eaf4000	0.34228516
55	0xbef30000	-0.47460938
56	0x3e008000	0.12548828
57	0x3e7e0000	0.24804688
58	0xbee78000	-0.45214844
59	0x3bf00000	0.0073242188
60	0x3e116000	0.14196777
61	0x3e178000	0.14794922
62	0xbd776000	-0.060394287
63	0x3ec94000	0.3930664
64	0x3e9e8000	0.3095703
65	0x3f120000	0.5703125
66	0xbe252000	-0.16125488
67	0x3f2a2000	0.6645508
68	0xbe312000	-0.17297363
69	0x3e79a000	0.24377441
70	0xbe8d4000	-0.2758789
71	0x3dffc000	0.12487793
72	0x3e27c000	0.16381836
73	0xbf0c6000	-0.54833984
74	0x3e0c6000	0.13708496
75	0x3f68a000	0.9086914
76	0xbeeae000	-0.45874023
77	0xbf2c4000	-0.67285156
78	0xbea4c000	-0.32177734
79	0x3d7ce000	0.06173706
80	0xbf36e000	-0.71435547
81	0x3f2f8000	0.6855469
82	0x3f18e000	0.59716797
83	0x3c2a8000	0.010406494
84	0x3f19e000	0.6010742
85	0x3f624000	0.88378906
86	0x3d9ec000	0.07751465
87	0xbdaba000	-0.08380127
88	0x3f234000	0.6376953
89	0xbcade000	-0.021224976
90	0x3f0a4000	0.54003906
91	0x3f4e0000	0.8046875
92	0x3dee2000	0.11627197
93	0x3f0f8000	0.5605469
94	0x3fc9c000	1.5761719
95	0x3e134000	0.14379883
96	0x3e812000	0.25219727
97	0x3fa2c000	1.2714844
98	0x3d6e6000	0.05819702
99	0xbeee4000	-0.46533203
100	0xbe92e000	-0.28686523
101	0xbed80000	-0.421875
102	0x3d332000	0.04373169
103	0xbea6a000	-0.32543945
104	0xbe206000	-0.15661621
105	0xbe998000	-0.2998047
106	0xbe83a000	-0.25708008
107	0xbe912000	-0.28344727
108	0xbd42a000	-0.04751587
109	0x3eb30000	0.34960938
110	0x3dbce000	0.09222412
111	0x3e272000	0.16320801
112	0x3e494000	0.1965332
113	0x3d814000	0.06311035
114	0xbde70000	-0.11279297
115	0x3e018000	0.12646484
116	0x392d6000	0.00016534328
117	0x3e3b8000	0.18310547
118	0x3eb3a000	0.35083008
119	0x3ef10000	0.47070312
120	0x3f61e000	0.8823242
121	0x3e9d8000	0.3076172
122	0x3e970000	0.29492188
123	0x3e8ec000	0.2788086
124	0x3f368000	0.7128906
125	0x3e82c000	0.2553711
126	0x3b956000	0.004558563
127	0x3eeb4000	0.45947266
128	0xbd0e0000	-0.03466797
129	0x3ee3c000	0.44482422
130	0x3f3f8000	0.7480469
131	0x3f3fc000	0.74902344
132	0x3c1a4000	0.009414673
133	0x3f2b4000	0.6689453
134	0xbc510000	-0.012756348
135	0x3f82e000	1.0224609
136	0x3f386000	0.72021484
137	0x3e5bc000	0.21459961
138	0x3df26000	0.11834717
139	0x3fc1c000	1.5136719
140	0x3ea76000	0.3269043
141	0x3f18a000	0.5961914
142	0x3f0bc000	0.54589844
143	0x3e0ac000	0.13549805
144	0x3f720000	0.9453125
145	0x3f8ee000	1.1162109
146	0x3f508000	0.8144531
147	0x3faec000	1.3652344
148	0x400fe000	2.2480469
149	0x3f576000	0.8413086
150	0x3f786000	0.97021484
151	0x3fd3c000	1.6542969
152	0x3f4d8000	0.8027344
153	0x3f166000	0.58740234
154	0x3e5b4000	0.21411133
155	0x3f29c000	0.66308594
156	0x3e314000	0.1730957
157	0xbe94c000	-0.29052734
158	0x3f204000	0.62597656
159	0x3df54000	0.11975098
160	0x3f1c8000	0.6113281
161	0x3f0ec000	0.5576172
162	0x3c080000	0.008300781
163	0xbe60e000	-0.21960449
164	0xbd9ba000	-0.07598877
165	0x3d28a000	0.041168213
166	0xbf162000	-0.5864258
167	0xbdbf2000	-0.093322754
168	0x3d6be000	0.05758667
169	0xbe4da000	-0.20080566
170	0x3d80e000	0.062927246
171	0xbf0a2000	-0.5395508
172	0xbec5e000	-0.3864746
173	0xbece4000	-0.40283203
174	0xbe5c6000	-0.21520996
175	0xbe41e000	-0.18933105
176	0xbe232000	-0.15930176
177	0xbe9f6000	-0.3112793
178	0xbf09c000	-0.53808594
179	0xbcdc8000	-0.026916504
180	0xbf626000	-0.88427734
181	0xbe432000	-0.19055176
182	0xbebd8000	-0.3701172
183	0x3e172000	0.14758301
184	0xbf9fa000	-1.2470703
185	0xbefe4000	-0.49658203
186	0xbf0e6000	-0.55615234
187	0xbd9ee000	-0.07757568
188	0xbf484000	-0.78222656
189	0xbf7ea000	-0.9946289
190	0xbf284000	-0.65722656
191	0xbec1c000	-0.37841797
192	0xbf19c000	-0.60058594
193	0xbf114000	-0.5673828
194	0xbf634000	-0.8876953
195	0xbea4a000	-0.3215332
196	0xbf096000	-0.5366211
197	0xbee0c000	-0.43896484
198	0xbfef0000	-1.8671875
199	0xbfc6c000	-1.5527344
200	0xc0016000	-2.0214844
201	0xbf3ce000	-0.73779297
202	0xbfc18000	-1.5117188
203	0xbfb38000	-1.4023438
204	0xbf498000	-0.7871094
205	0xbf9e8000	-1.2382812
206	0xbf1cc000	-0.6123047
207	0xbf7a2000	-0.9770508
208	0x3f026000	0.50927734
209	0xbec58000	-0.3857422
210	0x3e522000	0.2052002
211	0x3e0a0000	0.13476562
212	0x3cfa4000	0.030548096
213	0x3e002000	0.12512207
214	0xbb304000	-0.0026893616
215	0xbf0a2000	-0.5395508
216	0xbf7ea000	-0.9946289
217	0xbe9aa000	-0.30200195
218	0x3f36c000	0.7138672
219	0xbf85a000	-1.0439453
220	0x3f106000	0.56396484
221	0xbdbd8000	-0.0925293
222	0xbe92a000	-0.28637695
223	0x3d8d2000	0.06890869
224	0x3df66000	0.12030029
225	0x3eba2000	0.3635254
226	0xbe394000	-0.1809082
227	0xbed98000	-0.4248047
228	0xbf3f2000	-0.74658203
229	0x3d0c8000	0.034301758
230	0xbf03a000	-0.51416016
231	0x3f05c000	0.52246094
232	0x3fb0a000	1.3798828
233	0xbf86c000	-1.0527344
234	0x3eb8c000	0.36083984
235	0x3ee4c000	0.44677734
236	0xbf61c000	-0.88183594
237	0x3dd2a000	0.10284424
238	0xbf01c000	-0.50683594
239	0xbe9f4000	-0.31103516
240	0x3e5e8000	0.21728516
241	0x3ec18000	0.3779297
242	0x3e980000	0.296875
243	0xbf26a000	-0.6508789
244	0xbef98000	-0.4873047
245	0xbe98a000	-0.2980957
246	0xbed74000	-0.42041016
247	0x3e2c2000	0.16809082
248	0xbe348000	-0.17626953
249	0xbed54000	-0.4165039
250	0xbe326000	-0.17419434
251	0xbe9cc000	-0.30615234
252	0xbccc0000	-0.024902344
253	0xbe50c000	-0.20385742
254	0x3e974000	0.29541016
255	0xbe046000	-0.12927246

bias f4 [32]
0	0xbeca2000	-0.3947754
1	0xbe0c8000	-0.13720703
2	0x3ea10000	0.31445312
3	0x3e824000	0.25439453
4	0xbf27e000	-0.6557617
5	0xbf4d8000	-0.8027344
6	0xbef94000	-0.4868164
7	0x3e2f8000	0.17138672
8	0xbe76c000	-0.2409668
9	0xbf5d0000	-0.86328125
10	0xbe2fa000	-0.17150879
11	0xbf278000	-0.6542969
12	0xbe802000	-0.25024414
13	0xbee0c000	-0.43896484
14	0xbe806000	-0.25073242
15	0xbf23c000	-0.63964844
16	0xbda82000	-0.082092285
17	0xbfae4000	-1.3613281
18	0xbef1e000	-0.4724121
19	0xbe166000	-0.14685059
20	0xbf5b0000	-0.85546875
21	0xbf55a000	-0.83447266
22	0xbfbcc000	-1.4746094
23	0xbe65e000	-0.2244873
24	0x3d948000	0.072509766
25	0xbf37e000	-0.7182617
26	0x3e974000	0.29541016
27	0xbea4e000	-0.32202148
28	0xbea78000	-0.32714844
29	0xbf622000	-0.8833008
30	0xbeea6000	-0.45776367
31	0xbecc4000	-0.39892578

weight f4 [32, 32, 3, 3]
0	0x3ed28000	0.4111328
1	0xbea12000	-0.31469727
2	0xbe446000	-0.19177246
3	0x3ecae000	0.39624023
4	0x3ec4c000	0.38427734
5	0xbf22a000	-0.6352539
6	0x3edd4000	0.4321289
7	0xc0a78000	-5.234375
8	0xbe484000	-0.19555664
9	0xbef44000	-0.47705078
10	0xbcea6000	-0.02861023
11	0xbed3a000	-0.41333008
12	0x3c0c0000	0.008544922
13	0x3f16a000	0.5883789
14	0xbd64a000	-0.05581665
15	0xbed62000	-0.4182129
16	0xc08a6000	-4.3242188
17	0xbed3a000	-0.41333008
18	0x3e2c0000	0.16796875
19	0x3e2d6000	0.16931152
20	0xbe94c000	-0.29052734
21	0x3e91c000	0.28466797
22	0x3f544000	0.82910156
23	0x3e114000	0.1418457
24	0xbdcd2000	-0.10015869
25	0xbfeee000	-1.8662109
26	0xbfd9e000	-1.7021484
27	0x3d70c000	0.058776855
28	0xbfb54000	-1.4160156
29	0xbcaea000	-0.021316528
30	0x3e5b2000	0.21398926
31	0xbfc9a000	-1.5751953
32	0xbf19a000	-0.60009766
33	0xbec68000	-0.3876953
34	0xbf484000	-0.78222656
35	0x3d72a000	0.05923462
36	0xbd4f8000	-0.05065918
37	0x3e816000	0.25268555
38	0x3ebe2000	0.3713379
39	0x3e130000	0.14355469
40	0xbf256000	-0.6459961
41	0x3f3cc000	0.7373047
42	0x3f216000	0.6303711
43	0x3f760000	0.9609375
44	0x3ff7c000	1.9355469
45	0xbef8e000	-0.48608398
46	0xbe458000	-0.1928711
47	0x3f0f4000	0.5595703
48	0xbf26a000	-0.6508789
49	0x3ceca000	0.028884888
50	0xbe928000	-0.2861328
51	0xbeef6000	-0.4675293
52	0x3e1cc000	0.15307617
53	0xbeaec000	-0.3413086
54	0x3f082000	0.5317383
55	0xbe56c000	-0.2097168
56	0x3dcfa000	0.101379395
57	0x3e6e6000	0.23278809
58	0x3f27e000	0.6557617
59	0xbd66e000	-0.056365967
60	0x3f1b4000	0.6064453
61	0xbffda000	-1.9814453
62	0xbf394000	-0.7236328
63	0xbec9a000	-0.39379883
64	0x3dbd0000	0.092285156
65	0x3ec00000	0.375
66	0xbd314000	-0.043273926
67	0x3f30c000	0.6904297
68	0x3ee9c000	0.45654297
69	0xbf46e000	-0.77685547
70	0xbf4e4000	-0.80566406
71	0xbc666000	-0.014060974
72	0x3d0e0000	0.03466797
73	0x3ed66000	0.41870117
74	0x3c75e000	0.015007019
75	0x3e05e000	0.1307373
76	0x3e168000	0.14697266
77	0x3f34e000	0.70654297
78	0xbd180000	-0.037109375
79	0xbfb36000	-1.4013672
80	0xbf892000	-1.0712891
81	0x3f1c8000	0.6113281
82	0xbf4e6000	-0.80615234
83	0x3f1b2000	0.60595703
84	0x3f3fc000	0.74902344
85	0x3f0de000	0.5541992
86	0x3fada000	1.3564453
87	0xbf414000	-0.7548828
88	0x3e0aa000	0.13537598
89	0xbef82000	-0.48461914
90	0x3de3a000	0.11114502
91	0x3f8fe000	1.1240234
92	0x3ed0e000	0.40795898
93	0xbfc1c000	-1.5136719
94	0xbea20000	-0.31640625
95	0xbbb72000	-0.0055885315
96	0xbdd32000	-0.10308838
97	0xbf6fe000	-0.9370117
98	0xbf054000	-0.5205078
99	0xbe830000	-0.25585938
100	0xbc58e000	-0.0132369995
101	0x3e112000	0.14172363
102	0xbe156000	-0.14587402
103	0x3fa16000	1.2607422
104	0x3ebf0000	0.37304688
105	0x3f382000	0.7192383
106	0x3f632000	0.88720703
107	0x3f78a000	0.9711914
108	0x3e088000	0.13330078
109	0x3eafc000	0.34326172
110	0xbebde000	-0.3708496
111	0x3f384000	0.71972656
112	0x3e154000	0.14575195
113	0xbf1b0000	-0.60546875
114	0xbfd88000	-1.6914062
115	0xc034e000	-2.8261719
116	0xbf03c000	-0.51464844
117	0x3e400000	0.1875
118	0xbecb0000	-0.39648438
119	0xbea04000	-0.31298828
120	0xbf254000	-0.6455078
121	0xbedfe000	-0.43725586
122	0x3dd7c000	0.10534668
123	0xbe8c8000	-0.27441406
124	0xbf4d6000	-0.8022461
125	0x3e844000	0.25830078
126	0xbe8ee000	-0.27905273
127	0xbf8fe000	-1.1240234
128	0xbecf0000	-0.40429688
129	0x3f842000	1.0322266
130	0x3e85a000	0.26098633
131	0xbf122000	-0.5708008
132	0xbf2e2000	-0.6801758
133	0xbe590000	-0.21191406
134	0xbfabe000	-1.3427734
135	0xbe3ee000	-0.18640137
136	0x3fa8e000	1.3193359
137	0xbe99e000	-0.3005371
138	0x3ee70000	0.45117188
139	0xbd17e000	-0.037078857
140	0xbef50000	-0.47851562
141	0xbc860000	-0.016357422
142	0x3e66c000	0.2253418
143	0x3f38e000	0.72216797
144	0x3ec34000	0.38134766
145	0xbfbfc000	-1.4980469
146	0x3edb2000	0.42797852
147	0xbf8b0000	-1.0859375
148	0xbed32000	-0.41235352
149	0x3f0ee000	0.55810547
150	0xbfa52000	-1.2900391
151	0x3e852000	0.26000977
152	0xbe9a0000	-0.30078125
153	0x3ded0000	0.115722656
154	0x3eb12000	0.34594727
155	0xbf536000	-0.8256836
156	0xbdd5e000	-0.10443115
157	0xbec46000	-0.38354492
158	0xbd6a4000	-0.05718994
159	0x3f9f2000	1.2431641
160	0xbdaa6000	-0.08319092
161	0x3f1d0000	0.61328125
162	0xbdd54000	-0.10412598
163	0x3e85e000	0.2614746
164	0xc02a2000	-2.6582031
165	0x3f804000	1.0019531
166	0xc051e000	-3.2792969
167	0x3f72e000	0.94873047
168	0xbef1c000	-0.47216797
169	0xbfa04000	-1.2519531
170	0xbe334000	-0.17504883
171	0x3f20a000	0.6274414
172	0xbf84a000	-1.0361328
173	0x3f6de000	0.9291992
174	0x3ebb4000	0.36572266
175	0x3e582000	0.21105957
176	0xbef7c000	-0.48388672
177	0x3e9e4000	0.30908203
178	0xbf398000	-0.7246094
179	0xbf954000	-1.1660156
180	0x3efda000	0.49536133
181	0x3f786000	0.97021484
182	0xbec64000	-0.38720703
183	0x3e84a000	0.2590332
184	0x3f5d4000	0.8642578
185	0x3f014000	0.5048828
186	0x3d850000	0.064941406
187	0xbfd26000	-1.6435547
188	0xbeb8a000	-0.3605957
189	0xbf6b2000	-0.91845703
190	0x3ea3c000	0.31982422
191	0x3ddae000	0.10687256
192	0x3f900000	1.125
193	0x3f21a000	0.63134766
194	0x3f4be000	0.7963867
195	0xc02f2000	-2.7363281
196	0x3fb0e000	1.3818359
197	0xbdc12000	-0.09429932
198	0x3eb40000	0.3515625
199	0x3e6ce000	0.23132324
200	0x3f122000	0.5708008
201	0x3ffc0000	1.96875
202	0xc03aa000	-2.9160156
203	0xc00ee000	-2.2324219
204	0xbf406000	-0.75146484
205	0x3f5ea000	0.8696289
206	0xbef52000	-0.47875977
207	0xbdfc8000	-0.123291016
208	0xbe034000	-0.12817383
209	0xbe8c0000	-0.2734375
210	0x3e04a000	0.1295166
211	0x3e5d0000	0.21582031
212	0x3de9e000	0.11419678
213	0xbfe1a000	-1.7626953
214	0xc03cc000	-2.9492188
215	0xbe65e000	-0.2244873
216	0x3daea000	0.08526611
217	0xbda18000	-0.07885742
218	0xbdda8000	-0.10668945
219	0xbeb42000	-0.35180664
220	0x3d754000	0.05987549
221	0xbef44000	-0.47705078
222	0xbfc3a000	-1.5283203
223	0xbf522000	-0.8208008
224	0xbf246000	-0.64208984
225	0xbcfa6000	-0.030563354
226	0x3ecbe000	0.39819336
227	0x3dc9a000	0.09844971
228	0xbf964000	-1.1738281
229	0x3e8bc000	0.27294922
230	0xbe1e4000	-0.15454102
231	0xbe05e000	-0.1307373
232	0xc022c000	-2.5429688
233	0xbfb56000	-1.4169922
234	0x3e66e000	0.22546387
235	0x3f80a000	1.0048828
236	0x3f228000	0.6347656
237	0xbf6d0000	-0.92578125
238	0xbf6ea000	-0.9321289
239	0xbf01a000	-0.50634766
240	0xbf828000	-1.0195312
241	0xbf7cc000	-0.9873047
242	0xbed72000	-0.42016602
243	0x3f2b0000	0.66796875
244	0xbf640000	-0.890625
245	0x3f086000	0.53271484
246	0xbe80c000	-0.25146484
247	0x3f0bc000	0.54589844
248	0x3eea6000	0.45776367
249	0xbf9ae000	-1.2099609
250	0x3e53c000	0.20678711
251	0xc0876000	-4.2304688
252	0xbe672000	-0.22570801
253	0x3e25e000	0.1619873
254	0xbee92000	-0.45532227
255	0xbf6d8000	-0.9277344

bias f4 [32]
0	0x3d56e000	0.052459717
1	0xbdc3e000	-0.09564209
2	0x3ff14000	1.8847656
3	0xbe900000	-0.28125
4	0xbe4aa000	-0.19787598
5	0x3e9ac000	0.3022461
6	0x3e652000	0.22375488
7	0x3f19a000	0.60009766
8	0xbdbe8000	-0.09301758
9	0xbddc4000	-0.107543945
10	0xbdebc000	-0.115112305
11	0x3f4fc000	0.81152344
12	0x3e2ee000	0.17077637
13	0xbd9e8000	-0.07739258
14	0xbd8ce000	-0.06878662
15	0xbd808000	-0.06274414
16	0xbd54a000	-0.0519104
17	0xbe224000	-0.15844727
18	0xbd31a000	-0.04336548
19	0xbf97c000	-1.1855469
20	0xbcb4a000	-0.02204895
21	0xbe09c000	-0.13452148
22	0xbdfdc000	-0.12390137
23	0xbde8a000	-0.113586426
24	0x3bfe2000	0.0077552795
25	0xbd6b6000	-0.0574646
26	0xbd8fe000	-0.070251465
27	0xbde62000	-0.11236572
28	0x3c890000	0.016723633
29	0x3e362000	0.17785645
30	0xbdd9e000	-0.10638428
31	0xbdff0000	-0.12451172

weight f4 [64, 32, 3, 3]
0	0xbeefc000	-0.46826172
1	0xbf1b6000	-0.6069336
2	0xbf796000	-0.9741211
3	0x3f032000	0.51220703
4	0xbeeaa000	-0.45825195
5	0x3e6aa000	0.22912598
6	0x3ef2e000	0.47436523
7	0xbebde000	-0.3708496
8	0x3ebac000	0.3647461
9	0xbbf20000	-0.007385254
10	0x3cd46000	0.025924683
11	0x3d8f0000	0.06982422
12	0x3cdcc000	0.026947021
13	0xbd0ee000	-0.03488159
14	0xbcc94000	-0.02456665
15	0xbc0bc000	-0.008529663
16	0x3daf4000	0.08557129
17	0xbda62000	-0.08111572
18	0xbd59a000	-0.053131104
19	0xbe0f4000	-0.13989258
20	0x3e4ae000	0.19812012
21	0xbe9b6000	-0.3034668
22	0x3e16a000	0.14709473
23	0xbc722000	-0.014778137
24	0xbd7c6000	-0.06161499
25	0xbdd20000	-0.10253906
26	0xbf926000	-1.1435547
27	0x3dd1a000	0.10235596
28	0xbdb6c000	-0.0892334
29	0x3d948000	0.072509766
30	0xbdcd0000	-0.100097656
31	0xbe48a000	-0.19592285
32	0xbe5ee000	-0.21765137
33	0x3cc5a000	0.024124146
34	0x3c4f0000	0.012634277
35	0xbe090000	-0.13378906
36	0xbf8a0000	-1.078125
37	0xbfe56000	-1.7919922
38	0x3f452000	0.77001953
39	0xbff9c000	-1.9511719
40	0xbe73e000	-0.23815918
41	0x3ebfa000	0.37426758
42	0xbeb72000	-0.35766602
43	0xbf2a2000	-0.6645508
44	0x3f16c000	0.5888672
45	0xbeb4e000	-0.35327148
46	0x3e5a0000	0.21289062
47	0x3ef3e000	0.47631836
48	0xbe61c000	-0.22045898
49	0xbeb0e000	-0.34545898
50	0x3edba000	0.42895508
51	0xbee14000	-0.4399414
52	0x3f490000	0.78515625
53	0x3ed36000	0.4128418
54	0x3ea96000	0.33081055
55	0x3f48e000	0.78466797
56	0xbf35a000	-0.70947266
57	0xbe834000	-0.25634766
58	0x3e548000	0.20751953
59	0xbf156000	-0.5834961
60	0x3f5d4000	0.8642578
61	0x3f826000	1.0185547
62	0xc0318000	-2.7734375
63	0xbfc78000	-1.5585938
64	0xbf344000	-0.70410156
65	0x3f85c000	1.0449219
66	0xbedc6000	-0.43041992
67	0x3ece0000	0.40234375
68	0xc0054000	-2.0820312
69	0xbd94c000	-0.072631836
70	0xbed10000	-0.40820312
71	0x3f880000	1.0625
72	0x3d600000	0.0546875
73	0xbc46e000	-0.012138367
74	0xbdc2e000	-0.09515381
75	0x3dbb4000	0.091430664
76	0xbc9da000	-0.019241333
77	0xbcc06000	-0.023483276
78	0x3d9d0000	0.076660156
79	0xbc012000	-0.007881165
80	0xbcf00000	-0.029296875
81	0xbd4a8000	-0.049438477
82	0x3d8c4000	0.068481445
83	0x3cb64000	0.022247314
84	0x3d1fe000	0.039031982
85	0x3da18000	0.07885742
86	0xbcf58000	-0.029968262
87	0x3be44000	0.006965637
88	0x3ab1a000	0.0013551712
89	0x3d49c000	0.04925537
90	0xbc6da000	-0.014503479
91	0xbc40e000	-0.011772156
92	0x3d224000	0.039611816
93	0x3da12000	0.07867432
94	0xbcb58000	-0.022155762
95	0x3bdaa000	0.0066719055
96	0xbd28a000	-0.041168213
97	0x3c71a000	0.01474762
98	0xbbaca000	-0.005268097
99	0x3eea0000	0.45703125
100	0x3efec000	0.4975586
101	0xbf4de000	-0.8041992
102	0xbdfd8000	-0.1237793
103	0xbc50c000	-0.012741089
104	0xbf474000	-0.7783203
105	0xbf02c000	-0.5107422
106	0x3f5ec000	0.8701172
107	0xbf17c000	-0.59277344
108	0xbfdcc000	-1.7246094
109	0xbec90000	-0.39257812
110	0xbfeac000	-1.8339844
111	0x3f17e000	0.5932617
112	0x3e81a000	0.25317383
113	0xc0008000	-2.0078125
114	0xbe82c000	-0.2553711
115	0xbea68000	-0.3251953
116	0xbfc98000	-1.5742188
117	0xbe2ea000	-0.17053223
118	0x3f17e000	0.5932617
119	0xbf046000	-0.51708984
120	0xbec72000	-0.38891602
121	0x3e524000	0.20532227
122	0x3d5d6000	0.05404663
123	0xbec22000	-0.3791504
124	0xbf65a000	-0.89697266
125	0xbf66e000	-0.90185547
126	0xbdcb6000	-0.0993042
127	0x3d978000	0.07397461
128	0x3d39c000	0.04534912
129	0x3d5a2000	0.053253174
130	0xbcf72000	-0.030166626
131	0x3d5f6000	0.054534912
132	0xbd7d4000	-0.061828613
133	0xbc4ba000	-0.012428284
134	0x3cfbc000	0.030731201
135	0xb8a74000	-7.9751015e-05
136	0xbd404000	-0.046936035
137	0xbd9b4000	-0.075805664
138	0xbc434000	-0.011917114
139	0x3b1f2000	0.0024280548
140	0x3ca0a000	0.019607544
141	0x3d4d6000	0.05014038
142	0x3d636000	0.055511475
143	0x3c7f8000	0.015594482
144	0x3d516000	0.051116943
145	0xbd37a000	-0.044830322
146	0x3cd20000	0.025634766
147	0xbcc3c000	-0.023895264
148	0xbd0fe000	-0.035125732
149	0xbc10e000	-0.008842468
150	0x3ca8e000	0.020614624
151	0xbc698000	-0.014251709
152	0x3d09e000	0.03366089
153	0x3c34c000	0.0110321045
154	0xbd9d4000	-0.07678223
155	0x3d1ce000	0.03829956
156	0xbcff2000	-0.031143188
157	0xbc4ee000	-0.012626648
158	0xbd456000	-0.048187256
159	0x3bf18000	0.007369995
160	0x3e288000	0.16455078
161	0xbe016000	-0.12634277
162	0xbad1a000	-0.0015993118
163	0xbcecc000	-0.028900146
164	0xbd7fc000	-0.062438965
165	0x3d814000	0.06311035
166	0x3ce6c000	0.028167725
167	0xbd1ca000	-0.038238525
168	0xbafb4000	-0.0019168854
169	0x3d9a2000	0.07525635
170	0x3c472000	0.0121536255
171	0xbf6da000	-0.92822266
172	0xbe8fa000	-0.28051758
173	0x3f008000	0.5019531
174	0xbf96a000	-1.1767578
175	0x3f950000	1.1640625
176	0xbf5a6000	-0.85302734
177	0x3e36c000	0.1784668
178	0xbda98000	-0.08276367
179	0xbe418000	-0.18896484
180	0x39d20000	0.0004005432
181	0x3d6dc000	0.058044434
182	0xbd302000	-0.042999268
183	0xbd0b2000	-0.033966064
184	0xbcea8000	-0.028625488
185	0xbd9c2000	-0.07623291
186	0x3cc5e000	0.024154663
187	0xbcb52000	-0.022109985
188	0x3d122000	0.03567505
189	0xbc0d6000	-0.008628845
190	0xbd3e4000	-0.046447754
191	0xbce94000	-0.0284729
192	0x3c06e000	0.008232117
193	0x3cbce000	0.02305603
194	0xbe04a000	-0.1295166
195	0x3cb48000	0.022033691
196	0x3da76000	0.081726074
197	0xbd1c8000	-0.038208008
198	0x3cb1e000	0.021713257
199	0xbcff4000	-0.031158447
200	0x3c80e000	0.015731812
201	0x3bcde000	0.0062828064
202	0x3da6e000	0.08148193
203	0xbc536000	-0.012901306
204	0x3d5c6000	0.05380249
205	0x3c86e000	0.016464233
206	0xbd0a0000	-0.033691406
207	0x3d668000	0.056274414
208	0xbca26000	-0.019821167
209	0xbc9ba000	-0.018997192
210	0xbd506000	-0.050872803
211	0xbd6ec000	-0.058288574
212	0x3d65c000	0.05609131
213	0x3d6fc000	0.058532715
214	0x3d276000	0.040863037
215	0xbc15c000	-0.009140015
216	0x3d910000	0.07080078
217	0x3f58c000	0.8466797
218	0xc007e000	-2.1230469
219	0x3be78000	0.0070648193
220	0x3ea26000	0.31713867
221	0x3fb68000	1.4257812
222	0xbf5d8000	-0.8652344
223	0x3e7a8000	0.2446289
224	0xc02a2000	-2.6582031
225	0x3d59c000	0.05316162
226	0xbcbda000	-0.023147583
227	0xbbb88000	-0.005630493
228	0xbc6ea000	-0.014564514
229	0xbd62c000	-0.055358887
230	0xbd402000	-0.046905518
231	0x3c6a0000	0.014282227
232	0xba864000	-0.0010242462
233	0x3ca6a000	0.020339966
234	0x3ce8c000	0.028411865
235	0xbc974000	-0.018463135
236	0xbde46000	-0.11151123
237	0xbd1e8000	-0.03869629
238	0xbde3c000	-0.111206055
239	0xbdc6c000	-0.0970459
240	0xbd7be000	-0.06149292
241	0x3d2cc000	0.042175293
242	0xbc604000	-0.013687134
243	0x3d0d6000	0.03451538
244	0x3e7a4000	0.24438477
245	0xbebf6000	-0.3737793
246	0xbc930000	-0.017944336
247	0xbe564000	-0.20922852
248	0xbf5a8000	-0.8535156
249	0xbec72000	-0.38891602
250	0x3f38a000	0.7211914
251	0xbfab0000	-1.3359375
252	0xbf2f4000	-0.6845703
253	0xbf5d4000	-0.8642578
254	0x3f964000	1.1738281
255	0x3dbc2000	0.09185791

bias f4 [64]
0	0x3e6da000	0.23205566
1	0xc0026000	-2.0371094
2	0xbf914000	-1.1347656
3	0xbd726000	-0.059173584
4	0xbdade000	-0.0848999
5	0xbfe50000	-1.7890625
6	0xbf814000	-1.0097656
7	0x3ee28000	0.4423828
8	0x3f40e000	0.75341797
9	0xbf3ec000	-0.7451172
10	0xbff2a000	-1.8955078
11	0xbf2f6000	-0.6850586
12	0xbee2a000	-0.44262695
13	0xbe1a0000	-0.15039062
14	0xbdfe4000	-0.12414551
15	0xbdb74000	-0.08947754
16	0x3fed4000	1.8535156
17	0xbfa0a000	-1.2548828
18	0xbec02000	-0.37524414
19	0xbf8b6000	-1.0888672
20	0xc00ce000	-2.2011719
21	0xbe16e000	-0.14733887
22	0xc01b2000	-2.4238281
23	0xbde90000	-0.11376953
24	0xbfbae000	-1.4599609
25	0xbff9a000	-1.9501953
26	0xbffb4000	-1.9628906
27	0xbdf6c000	-0.1204834
28	0xbfcb0000	-1.5859375
29	0x3e95e000	0.2927246
30	0xc01fe000	-2.4980469
31	0x3f26a000	0.6508789
32	0xbe0a6000	-0.13513184
33	0xbf330000	-0.69921875
34	0xbf82c000	-1.0214844
35	0xbf8f2000	-1.1181641
36	0xbdf5a000	-0.11993408
37	0xbf48e000	-0.78466797
38	0xbfc0e000	-1.5068359
39	0x401fe000	2.4980469
40	0xbdbd4000	-0.09240723
41	0x3ff88000	1.9414062
42	0xc0022000	-2.0332031
43	0x3f778000	0.9667969
44	0xbe0f6000	-0.14001465
45	0xbd85e000	-0.06536865
46	0xbfdba000	-1.7158203
47	0xbf872000	-1.0556641
48	0xbe4b2000	-0.19836426
49	0xbe12c000	-0.14331055
50	0xbe132000	-0.14367676
51	0xbf732000	-0.94970703
52	0xbe328000	-0.1743164
53	0xbe276000	-0.16345215
54	0xbe2f0000	-0.17089844
55	0x3eea2000	0.4572754
56	0xbebe4000	-0.37158203
57	0xbfb0c000	-1.3808594
58	0xbdc08000	-0.09399414
59	0xc044c000	-3.0742188
60	0xbf7a2000	-0.9770508
61	0xbe9dc000	-0.30810547
62	0x4064e000	3.5761719
63	0x3f436000	0.7631836

weight f4 [64, 64, 3, 3]
0	0xc0224000	-2.5351562
1	0xbfa5c000	-1.2949219
2	0x3f968000	1.1757812
3	0xbe980000	-0.296875
4	0xbda7a000	-0.081848145
5	0x3fb00000	1.375
6	0xc0022000	-2.0332031
7	0x40344000	2.8164062
8	0x3e53e000	0.20690918
9	0x3d422000	0.0473938
10	0x3f2b2000	0.66845703
11	0x40008000	2.0078125
12	0x3ef24000	0.47314453
13	0xbf678000	-0.9042969
14	0x3fa3a000	1.2783203
15	0x3ff94000	1.9472656
16	0x3f418000	0.7558594
17	0xbebfc000	-0.37451172
18	0xc069c000	-3.6523438
19	0xbfc08000	-1.5039062
20	0xbcb78000	-0.022399902
21	0xc019a000	-2.4003906
22	0x3ec6c000	0.3881836
23	0x3e654000	0.22387695
24	0xc0498000	-3.1484375
25	0xbfb78000	-1.4335938
26	0xc0840000	-4.125
27	0xbcbf2000	-0.023330688
28	0xbd43e000	-0.047821045
29	0xbd05a000	-0.03262329
30	0x3d0ce000	0.03439331
31	0xbc826000	-0.015914917
32	0x3c7bc000	0.015365601
33	0x3cb82000	0.022476196
34	0x3c9e2000	0.019302368
35	0xbb764000	-0.0037574768
36	0x3c3fc000	0.011703491
37	0x3d676000	0.056488037
38	0xbb69c000	-0.003566742
39	0xbcc26000	-0.023727417
40	0xbca66000	-0.020309448
41	0x3c5bc000	0.013412476
42	0x3ce40000	0.027832031
43	0xbc3ce000	-0.011528015
44	0xbdc76000	-0.097351074
45	0x3f764000	0.96191406
46	0xbf96e000	-1.1787109
47	0x3ef28000	0.4736328
48	0xbf786000	-0.97021484
49	0xbfeca000	-1.8486328
50	0x3ed20000	0.41015625
51	0xbfc4c000	-1.5371094
52	0xbfeb2000	-1.8369141
53	0x3e028000	0.1274414
54	0x3fda4000	1.7050781
55	0xc0152000	-2.3300781
56	0x4006a000	2.1035156
57	0xbf398000	-0.7246094
58	0x3f1ea000	0.6196289
59	0x3f884000	1.0644531
60	0xc043c000	-3.0585938
61	0xc03a2000	-2.9082031
62	0xbf93e000	-1.1552734
63	0xc0160000	-2.34375
64	0xbf936000	-1.1513672
65	0xbf864000	-1.0488281
66	0xbfe00000	-1.75
67	0xbeb90000	-0.36132812
68	0x3f05c000	0.52246094
69	0xc0972000	-4.7226562
70	0xbfa6c000	-1.3027344
71	0x3fd08000	1.6289062
72	0x3e234000	0.15942383
73	0xbf1d6000	-0.6147461
74	0x3db6c000	0.0892334
75	0x3f892000	1.0712891
76	0x3ef4a000	0.4777832
77	0x3ee98000	0.4560547
78	0xbec46000	-0.38354492
79	0x3e30c000	0.17260742
80	0x3eeda000	0.46411133
81	0x3fb7e000	1.4365234
82	0x3fb56000	1.4169922
83	0xbef8c000	-0.48583984
84	0x3ff76000	1.9326172
85	0x3ea20000	0.31640625
86	0xbe3d0000	-0.18457031
87	0xbf6ba000	-0.92041016
88	0xbf3d4000	-0.7392578
89	0x40342000	2.8144531
90	0x3e6c4000	0.23071289
91	0x3f9d8000	1.2304688
92	0x3f834000	1.0253906
93	0x3f93e000	1.1552734
94	0x3f4d8000	0.8027344
95	0xbf278000	-0.6542969
96	0x3e328000	0.1743164
97	0xbfa54000	-1.2910156
98	0xbf528000	-0.8222656
99	0x3ffe4000	1.9863281
100	0x400a8000	2.1640625
101	0xc02a8000	-2.6640625
102	0x3edee000	0.43530273
103	0xbfe16000	-1.7607422
104	0x3f0ca000	0.5493164
105	0x3f5a4000	0.85253906
106	0xc0314000	-2.7695312
107	0xbf3d8000	-0.7402344
108	0xc0242000	-2.5644531
109	0x3f4ca000	0.7993164
110	0xbfdf4000	-1.7441406
111	0xbf5a8000	-0.8535156
112	0x3fab8000	1.3398438
113	0xbe4b4000	-0.19848633
114	0xbe8ba000	-0.27270508
115	0x3fb5e000	1.4208984
116	0xbf572000	-0.84033203
117	0xbc384000	-0.011245728
118	0xbce40000	-0.027832031
119	0xbd000000	-0.03125
120	0xbd072000	-0.032989502
121	0xbcbf6000	-0.023361206
122	0x3cb2a000	0.02180481
123	0x3c26e000	0.010185242
124	0x3cbfa000	0.023391724
125	0x3c912000	0.017715454
126	0x3c1bc000	0.009506226
127	0x3d498000	0.049194336
128	0xbd1f2000	-0.038848877
129	0x3d1c8000	0.038208008
130	0x3c91c000	0.017791748
131	0x3d1f6000	0.038909912
132	0x3d17c000	0.03704834
133	0xbcaaa000	-0.020828247
134	0x3d236000	0.039886475
135	0xbc20a000	-0.009803772
136	0xbcfa8000	-0.030578613
137	0x3afda000	0.0019350052
138	0x3c46a000	0.012123108
139	0xbd470000	-0.048583984
140	0x3c65e000	0.014030457
141	0xbc802000	-0.015640259
142	0x3c888000	0.016662598
143	0x3c164000	0.009170532
144	0xc00ae000	-2.1699219
145	0xbeed6000	-0.46362305
146	0x3d86c000	0.0657959
147	0x3e2fa000	0.17150879
148	0xbe050000	-0.12988281
149	0xbfcb2000	-1.5869141
150	0xbffc6000	-1.9716797
151	0xbd97c000	-0.07409668
152	0xbd8f0000	-0.06982422
153	0x3e982000	0.29711914
154	0x3fc0a000	1.5048828
155	0x40056000	2.0839844
156	0xbeb02000	-0.34399414
157	0xbee9c000	-0.45654297
158	0x3f104000	0.56347656
159	0x3f53c000	0.82714844
160	0xbf41e000	-0.7573242
161	0xbd922000	-0.0713501
162	0x3d674000	0.05645752
163	0xbce64000	-0.02810669
164	0xbd1f2000	-0.038848877
165	0xbe3f0000	-0.18652344
166	0xbdd3e000	-0.10345459
167	0x3dc34000	0.095336914
168	0xbe75a000	-0.23986816
169	0xbdeae000	-0.11468506
170	0xbe910000	-0.28320312
171	0xbebe2000	-0.3713379
172	0x3ff28000	1.8945312
173	0x3fef0000	1.8671875
174	0x3fb5c000	1.4199219
175	0xbee9c000	-0.45654297
176	0xbef12000	-0.47094727
177	0x400ea000	2.2285156
178	0xbf9f0000	-1.2421875
179	0x403b8000	2.9296875
180	0xbe8f4000	-0.27978516
181	0x3f806000	1.0029297
182	0x3f7a4000	0.97753906
183	0xc0b8a000	-5.7695312
184	0xc0882000	-4.2539062
185	0xbfd56000	-1.6669922
186	0xc0020000	-2.03125
187	0xbfbde000	-1.4833984
188	0xc039e000	-2.9042969
189	0x3f712000	0.94189453
190	0xbeb40000	-0.3515625
191	0xc0076000	-2.1152344
192	0x3e358000	0.1772461
193	0x3ee62000	0.4494629
194	0xbef26000	-0.47338867
195	0xbf7be000	-0.9838867
196	0xbf226000	-0.63427734
197	0x3f918000	1.1367188
198	0x3f89a000	1.0751953
199	0xbf874000	-1.0566406
200	0x3fdb8000	1.7148438
201	0x3f6f8000	0.9355469
202	0xbf6a2000	-0.9145508
203	0x3f01c000	0.50683594
204	0xbf2f4000	-0.6845703
205	0xc0042000	-2.0644531
206	0xbfb06000	-1.3779297
207	0x3cf44000	0.029815674
208	0x3d680000	0.056640625
209	0xbc1de000	-0.009635925
210	0xbbec4000	-0.007209778
211	0x3bcd0000	0.0062561035
212	0xbb91a000	-0.0044441223
213	0x3c808000	0.015686035
214	0x3c4f4000	0.012649536
215	0xbc7ec000	-0.015548706
216	0x3fd58000	1.6679688
217	0x4028a000	2.6347656
218	0x405ca000	3.4472656
219	0xbf6aa000	-0.9165039
220	0xbf6a0000	-0.9140625
221	0xc030c000	-2.7617188
222	0xbfc88000	-1.5664062
223	0xc0292000	-2.6425781
224	0xbe978000	-0.29589844
225	0xbdeca000	-0.11553955
226	0xbe0c6000	-0.13708496
227	0xbf37c000	-0.71777344
228	0xc00cc000	-2.1992188
229	0xbf90e000	-1.1318359
230	0x3f994000	1.1972656
231	0xbf824000	-1.0175781
232	0xc00ae000	-2.1699219
233	0x3f774000	0.9658203
234	0x3f810000	1.0078125
235	0x3f376000	0.7163086
236	0xbe10c000	-0.14135742
237	0xbf764000	-0.96191406
238	0x3ddb4000	0.107055664
239	0x3f3a0000	0.7265625
240	0xbee7a000	-0.45239258
241	0xbf78e000	-0.97216797
242	0x3fd42000	1.6572266
243	0xbc6fc000	-0.014633179
244	0xbc9f8000	-0.019470215
245	0xbc8e2000	-0.017349243
246	0xbd2e0000	-0.04248047
247	0xba160000	-0.0005722046
248	0xbd34c000	-0.044128418
249	0x3baac000	0.0052108765
250	0xbd012000	-0.03152466
251	0xbbf12000	-0.007358551
252	0xbf450000	-0.76953125
253	0x3fa48000	1.2851562
254	0x40252000	2.5800781
255	0x3ba50000	0.0050354004

bias f4 [64]
0	0xbfbfc000	-1.4980469
1	0xbe58a000	-0.21154785
2	0xbf426000	-0.75927734
3	0xbe01e000	-0.12683105
4	0xbdf84000	-0.12121582
5	0xbee10000	-0.43945312
6	0xbf92e000	-1.1474609
7	0x3c456000	0.012046814
8	0xbe2e8000	-0.17041016
9	0xc0602000	-3.5019531
10	0xbfe6a000	-1.8017578
11	0xc03fc000	-2.9960938
12	0xbde9c000	-0.11413574
13	0xbf84c000	-1.0371094
14	0xbd90c000	-0.07067871
15	0xbfcfa000	-1.6220703
16	0xbd9b6000	-0.0758667
17	0xbd50a000	-0.050933838
18	0xbf188000	-0.5957031
19	0xc01b4000	-2.4257812
20	0xbfed8000	-1.8554688
21	0xbe26e000	-0.16296387
22	0xc01cc000	-2.4492188
23	0xbfe96000	-1.8232422
24	0xbf388000	-0.7207031
25	0x3e69c000	0.22827148
26	0xc0312000	-2.7675781
27	0xbe11c000	-0.14233398
28	0xbe16c000	-0.1472168
29	0xc00b2000	-2.1738281
30	0xbfce6000	-1.6123047
31	0xc004a000	-2.0722656
32	0xc027c000	-2.6210938
33	0xbf4b0000	-0.79296875
34	0xbde3a000	-0.11114502
35	0xc0306000	-2.7558594
36	0xbde88000	-0.11352539
37	0xbe2ba000	-0.16760254
38	0xbe0d2000	-0.13781738
39	0xbdbd0000	-0.092285156
40	0xbd58a000	-0.052886963
41	0xbe024000	-0.12719727
42	0xbde74000	-0.11291504
43	0xbda6a000	-0.08135986
44	0xbd9a4000	-0.07531738
45	0xbe302000	-0.17199707
46	0xbff06000	-1.8779297
47	0xc03c0000	-2.9375
48	0xbf28c000	-0.6591797
49	0xbff10000	-1.8828125
50	0xbc334000	-0.010940552
51	0xc0156000	-2.3339844
52	0xbd8a2000	-0.06744385
53	0xbde64000	-0.11242676
54	0xbd9f6000	-0.077819824
55	0xbfd46000	-1.6591797
56	0xbe19e000	-0.15026855
57	0xbd4e8000	-0.05041504
58	0xc024a000	-2.5722656
59	0xbf9e2000	-1.2353516
60	0xbdb7a000	-0.089660645
61	0xc0424000	-3.0351562
62	0xbe144000	-0.14477539
63	0xbdb94000	-0.0904541

weight f4 [128, 256]
0	0x3fc62000	1.5478516
1	0xbecda000	-0.40161133
2	0x3f6a8000	0.9160156
3	0xbe316000	-0.17321777
4	0x3cdd0000	0.026977539
5	0x3d36c000	0.0446167
6	0xbd506000	-0.050872803
7	0xbce62000	-0.02809143
8	0x3ca0e000	0.019638062
9	0x3d8c4000	0.068481445
10	0xbd4ca000	-0.049957275
11	0x3e696000	0.22790527
12	0x3c1a2000	0.009407043
13	0x3d51e000	0.051239014
14	0xbd7a6000	-0.06112671
15	0x3db4e000	0.08831787
16	0x3da70000	0.08154297
17	0xbd078000	-0.033081055
18	0x3c642000	0.013923645
19	0x3d470000	0.048583984
20	0x3e3c6000	0.18395996
21	0xbd886000	-0.066589355
22	0xbdf44000	-0.119262695
23	0x3d522000	0.05130005
24	0x3f7da000	0.99072266
25	0x3eaa2000	0.3322754
26	0x3f0e8000	0.5566406
27	0x3f832000	1.0244141
28	0xbd9c0000	-0.076171875
29	0x3f18e000	0.59716797
30	0xbf372000	-0.71533203
31	0xbd330000	-0.043701172
32	0x3d990000	0.07470703
33	0x3cb4a000	0.02204895
34	0x3b8d4000	0.004310608
35	0xbd064000	-0.03277588
36	0x3f048000	0.5175781
37	0x3f220000	0.6328125
38	0x3ef16000	0.47143555
39	0x3f9a0000	1.203125
40	0x3f4e6000	0.80615234
41	0x3e84c000	0.25927734
42	0x3f252000	0.64501953
43	0x3e794000	0.2434082
44	0x3e9fc000	0.31201172
45	0xbda0e000	-0.078552246
46	0x3f59e000	0.8510742
47	0x3f818000	1.0117188
48	0x3b3b8000	0.002861023
49	0x3c06c000	0.008224487
50	0xbcdc6000	-0.026901245
51	0x3c878000	0.016540527
52	0x3f950000	1.1640625
53	0x3f936000	1.1513672
54	0x3efe6000	0.49682617
55	0x3f296000	0.6616211
56	0x3d002000	0.031280518
57	0xbc388000	-0.011260986
58	0xbb734000	-0.0037117004
59	0x3c864000	0.01638794
60	0x3f49c000	0.78808594
61	0x3e8ee000	0.27905273
62	0x3f2c2000	0.6723633
63	0x3e6ca000	0.2310791
64	0xbd4bc000	-0.049743652
65	0xbc0ea000	-0.008705139
66	0xbba34000	-0.0049819946
67	0x3cb28000	0.02178955
68	0xbdb06000	-0.086120605
69	0x3bc30000	0.0059509277
70	0xbcb76000	-0.022384644
71	0x3cd5a000	0.02607727
72	0x3f2b2000	0.66845703
73	0x3f6f0000	0.93359375
74	0xbeeac000	-0.4584961
75	0xbe39c000	-0.18139648
76	0x3ec9a000	0.39379883
77	0x3f2c0000	0.671875
78	0x3ed00000	0.40625
79	0x3edf2000	0.43579102
80	0x3dc38000	0.095458984
81	0x3f7ac000	0.9794922
82	0x3e9fe000	0.31225586
83	0x3f818000	1.0117188
84	0xbd6d4000	-0.057922363
85	0x39cc8000	0.0003900528
86	0xbce42000	-0.02784729
87	0xbbfce000	-0.0077171326
88	0x3ee14000	0.4399414
89	0x3f272000	0.65283203
90	0x3f350000	0.70703125
91	0x3f254000	0.6455078
92	0x3f624000	0.88378906
93	0x3f802000	1.0009766
94	0x3f3be000	0.7338867
95	0x3f83e000	1.0302734
96	0xbe42c000	-0.19018555
97	0xbdbb8000	-0.091552734
98	0x3e096000	0.13415527
99	0xbc2b8000	-0.010467529
100	0xbe018000	-0.12646484
101	0x3ea44000	0.32080078
102	0xbecca000	-0.3996582
103	0xbf106000	-0.56396484
104	0x3dc16000	0.09442139
105	0x3f430000	0.76171875
106	0x3ee5e000	0.4489746
107	0x3f23e000	0.6401367
108	0x3d494000	0.0491333
109	0x3d326000	0.043548584
110	0xbcb34000	-0.021881104
111	0xbd758000	-0.059936523
112	0x3be14000	0.0068740845
113	0x3dc0e000	0.094177246
114	0xbdd1e000	-0.10247803
115	0xbdb58000	-0.08862305
116	0x3f3e4000	0.74316406
117	0x3f29c000	0.66308594
118	0x3f1ae000	0.60498047
119	0x3f5d6000	0.8647461
120	0x3f1fc000	0.62402344
121	0x3fa84000	1.3144531
122	0x3f1da000	0.61572266
123	0x3f556000	0.8334961
124	0x3f720000	0.9453125
125	0x3fb04000	1.3769531
126	0x3ecca000	0.3996582
127	0x3f392000	0.72314453
128	0x3e8b8000	0.27246094
129	0x3e646000	0.22302246
130	0x3ea74000	0.32666016
131	0x3f23c000	0.63964844
132	0xbd6de000	-0.05807495
133	0x3e67c000	0.22631836
134	0x3d520000	0.05126953
135	0x3ead8000	0.3388672
136	0xbcad2000	-0.021133423
137	0xbd952000	-0.07281494
138	0xbd3d6000	-0.04623413
139	0x3ca66000	0.020309448
140	0x3ed9a000	0.42504883
141	0xbdfe0000	-0.12402344
142	0x3e27e000	0.16394043
143	0x3ed80000	0.421875
144	0x3d7b4000	0.061340332
145	0x3d476000	0.048675537
146	0x3d48a000	0.048980713
147	0x3d1d2000	0.038360596
148	0xbd894000	-0.0670166
149	0xbbcc6000	-0.00623703
150	0xbd2c0000	-0.041992188
151	0xbae72000	-0.0017633438
152	0xbd824000	-0.06359863
153	0xbda92000	-0.08258057
154	0xbc8e4000	-0.017364502
155	0x3cdd4000	0.027008057
156	0xbd182000	-0.037139893
157	0x3be88000	0.007095337
158	0xbbaac000	-0.0052108765
159	0xbd614000	-0.054992676
160	0xbc432000	-0.011909485
161	0x3d810000	0.06298828
162	0xbd7c4000	-0.061584473
163	0xbc098000	-0.008392334
164	0x3bf56000	0.0074882507
165	0x3db90000	0.09033203
166	0xbc862000	-0.01637268
167	0x3d8b2000	0.06793213
168	0x3beb2000	0.0071754456
169	0xbd1f6000	-0.038909912
170	0xbc450000	-0.012023926
171	0x3d248000	0.040161133
172	0x3ee90000	0.45507812
173	0x3f10c000	0.5654297
174	0x3f638000	0.8886719
175	0x3e8b4000	0.27197266
176	0xbd49c000	-0.04925537
177	0x3a3a4000	0.00071048737
178	0x3c926000	0.017868042
179	0x3c0e2000	0.008674622
180	0xbd496000	-0.04916382
181	0xbc912000	-0.017715454
182	0xbda0a000	-0.078430176
183	0xbd52c000	-0.051452637
184	0x3f7ee000	0.99560547
185	0x3f08e000	0.53466797
186	0x3ebe0000	0.37109375
187	0x3ec2a000	0.38012695
188	0x3f27e000	0.6557617
189	0x3e844000	0.25830078
190	0xbd9b4000	-0.075805664
191	0xbe0d8000	-0.1381836
192	0x3e10e000	0.14147949
193	0x3d2bc000	0.041931152
194	0x3e90a000	0.2824707
195	0x3f164000	0.58691406
196	0x3f5bc000	0.85839844
197	0x3fbe8000	1.4882812
198	0x3e9b0000	0.30273438
199	0x3f106000	0.56396484
200	0xbd820000	-0.06347656
201	0x3b866000	0.0041007996
202	0xbd156000	-0.036468506
203	0xbc3b6000	-0.011436462
204	0x3f52c000	0.8232422
205	0x3f782000	0.9692383
206	0x3f1de000	0.6166992
207	0x3f332000	0.69970703
208	0xbd038000	-0.032104492
209	0xbd796000	-0.06088257
210	0x3cf8e000	0.030380249
211	0xbd442000	-0.04788208
212	0x3d186000	0.037200928
213	0x3d91c000	0.07116699
214	0x3d226000	0.039642334
215	0x3ccd4000	0.025054932
216	0x3c834000	0.016021729
217	0x3affa000	0.001950264
218	0xbc142000	-0.0090408325
219	0xbd0a8000	-0.033813477
220	0x3f6aa000	0.9165039
221	0xbda18000	-0.07885742
222	0x3f7ec000	0.9951172
223	0x3f8bc000	1.0917969
224	0xbdaca000	-0.08428955
225	0xbd1a0000	-0.037597656
226	0x3cb06000	0.021530151
227	0x3d90c000	0.07067871
228	0x3c2e6000	0.010643005
229	0xbbd96000	-0.0066337585
230	0xbd8c6000	-0.06854248
231	0x3d1a0000	0.037597656
232	0x3efe8000	0.4970703
233	0x3f314000	0.6923828
234	0x3f36a000	0.7133789
235	0x3ed7e000	0.42163086
236	0x3e782000	0.24230957
237	0x3f198000	0.5996094
238	0x3ec96000	0.39331055
239	0x3e102000	0.14074707
240	0xbc902000	-0.017593384
241	0x3d302000	0.042999268
242	0xbd854000	-0.06506348
243	0xbd854000	-0.06506348
244	0x3f35e000	0.7104492
245	0x3f8b6000	1.0888672
246	0x3f256000	0.6459961
247	0x3f730000	0.94921875
248	0xbd1f8000	-0.03894043
249	0x3d0c4000	0.034240723
250	0xbd4be000	-0.04977417
251	0x3cccc000	0.024993896
252	0xbd6de000	-0.05807495
253	0xbcf26000	-0.029586792
254	0x3d804000	0.06262207
255	0xbd170000	-0.036865234

bias f4 [128]
0	0xbf2c4000	-0.67285156
1	0xbf060000	-0.5234375
2	0xbe62c000	-0.22143555
3	0x39caa000	0.00038647652
4	0xbe5ac000	-0.21362305
5	0x3f84c000	1.0371094
6	0xbf000000	-0.5
7	0xbf54a000	-0.8305664
8	0x3f60a000	0.8774414
9	0x3fe50000	1.7890625
10	0x3fdba000	1.7158203
11	0x3f824000	1.0175781
12	0xbdcca000	-0.09991455
13	0x3ef38000	0.47558594
14	0x3f502000	0.8129883
15	0x3fe54000	1.7910156
16	0x3efce000	0.49389648
17	0xbc744000	-0.014907837
18	0xbea5a000	-0.32348633
19	0x40264000	2.5976562
20	0x40024000	2.0351562
21	0x3fee8000	1.8632812
22	0x3fb7c000	1.4355469
23	0x3fdfa000	1.7470703
24	0x3fe10000	1.7578125
25	0xbf664000	-0.89941406
26	0x3fb96000	1.4482422
27	0x3f8de000	1.1083984
28	0xbe6be000	-0.23034668
29	0xbddf8000	-0.10913086
30	0x3f0bc000	0.54589844
31	0x4000a000	2.0097656
32	0x3fa82000	1.3134766
33	0x3ff0a000	1.8798828
34	0xbed0c000	-0.40771484
35	0x3f4ec000	0.8076172
36	0xbebd0000	-0.36914062
37	0xbe32e000	-0.17468262
38	0xbe520000	-0.20507812
39	0x40084000	2.1289062
40	0x3e67c000	0.22631836
41	0xbfeba000	-1.8408203
42	0x3f796000	0.9741211
43	0xbed98000	-0.4248047
44	0xbe02c000	-0.12768555
45	0xbde74000	-0.11291504
46	0x3ecd4000	0.4008789
47	0x3fbd6000	1.4794922
48	0xbdfdc000	-0.12390137
49	0x400ac000	2.1679688
50	0xbfc7a000	-1.5595703
51	0xbef72000	-0.48266602
52	0x3fc40000	1.53125
53	0x3fc8c000	1.5683594
54	0xbdde4000	-0.10852051
55	0x3f4ac000	0.7919922
56	0x3fa3c000	1.2792969
57	0xbe380000	-0.1796875
58	0x3f8f4000	1.1191406
59	0xbdfc0000	-0.123046875
60	0x40004000	2.0039062
61	0x3fa58000	1.2929688
62	0xbec6e000	-0.38842773
63	0x3ea14000	0.3149414
64	0x40158000	2.3359375
65	0x3fc3a000	1.5283203
66	0xbdfa2000	-0.12213135
67	0x3ff06000	1.8779297
68	0x3fa72000	1.3056641
69	0xbdcc2000	-0.09967041
70	0xbe086000	-0.13317871
71	0xbe6c0000	-0.23046875
72	0xbdffc000	-0.12487793
73	0xbf472000	-0.77783203
74	0xbe9fa000	-0.31176758
75	0x3fe24000	1.7675781
76	0x3fae8000	1.3632812
77	0x3fe7c000	1.8105469
78	0xbf9e6000	-1.2373047
79	0x3fb2a000	1.3955078
80	0x3f9ae000	1.2099609
81	0x4004a000	2.0722656
82	0xbf89a000	-1.0751953
83	0xbeb88000	-0.36035156
84	0x3d74c000	0.059753418
85	0xbdb6c000	-0.0892334
86	0xbfbde000	-1.4833984
87	0x3f1fc000	0.62402344
88	0x3fb66000	1.4248047
89	0xbdf94000	-0.1217041
90	0xbe48a000	-0.19592285
91	0xbf008000	-0.5019531
92	0x3fdbe000	1.7177734
93	0xbc9aa000	-0.018875122
94	0x3fd7a000	1.6845703
95	0xbd132000	-0.03591919
96	0x3efda000	0.49536133
97	0xbe218000	-0.15771484
98	0xbe0ee000	-0.13952637
99	0x3d328000	0.0435791
100	0xbf84c000	-1.0371094
101	0x3ed3e000	0.41381836
102	0x3fb26000	1.3935547
103	0xbd040000	-0.032226562
104	0xbeac8000	-0.33691406
105	0xbc54c000	-0.0129852295
106	0xbddaa000	-0.10675049
107	0x3fa86000	1.3154297
108	0xbda76000	-0.081726074
109	0xbffc4000	-1.9707031
110	0x3ffe6000	1.9873047
111	0xbf404000	-0.75097656
112	0xbde00000	-0.109375
113	0xbcbee000	-0.02330017
114	0xbd876000	-0.066101074
115	0xbd9d8000	-0.0769043
116	0x40048000	2.0703125
117	0x3d21e000	0.039520264
118	0x3fc20000	1.515625
119	0x3f40e000	0.75341797
120	0xbfafe000	-1.3740234
121	0x3ff74000	1.9316406
122	0x3fc60000	1.546875
123	0xbf184000	-0.59472656
124	0x3f8d4000	1.1035156
125	0x3fa3c000	1.2792969
126	0x3fc98000	1.5742188
127	0xbf058000	-0.5214844

weight f4 [64, 128]
0	0x3ea7e000	0.32788086
1	0x3e774000	0.24145508
2	0xbcd8c000	-0.02645874
3	0xbd8fc000	-0.07019043
4	0xbdce0000	-0.10058594
5	0xbd1b6000	-0.03793335
6	0x3d6ee000	0.05831909
7	0x3f42e000	0.76123047
8	0xbdc50000	-0.096191406
9	0xbe03a000	-0.12854004
10	0xbf5c4000	-0.86035156
11	0xbecf4000	-0.40478516
12	0xbc8ca000	-0.017166138
13	0x3c0f2000	0.008735657
14	0xbf088000	-0.5332031
15	0x3ebbe000	0.36694336
16	0x3d96c000	0.0736084
17	0xbd662000	-0.05618286
18	0xbdc10000	-0.09423828
19	0x3ebf6000	0.3737793
20	0xbdb0a000	-0.086242676
21	0xbe976000	-0.2956543
22	0xbf124000	-0.57128906
23	0xbdfaa000	-0.12237549
24	0xbe9f2000	-0.31079102
25	0x3f03c000	0.51464844
26	0x3d6d2000	0.057891846
27	0x3e21a000	0.15783691
28	0x3db62000	0.08892822
29	0x3d59e000	0.05319214
30	0x3f498000	0.7871094
31	0x3dc9e000	0.09857178
32	0x3db76000	0.089538574
33	0x3d9f2000	0.077697754
34	0x3f590000	0.84765625
35	0xbdbb4000	-0.091430664
36	0x3f1f4000	0.6220703
37	0xbdf14000	-0.11779785
38	0x3e256000	0.16149902
39	0x3c916000	0.017745972
40	0x3e888000	0.26660156
41	0x3d4a6000	0.04940796
42	0x3da7c000	0.08190918
43	0x3d0a0000	0.033691406
44	0xbe138000	-0.14404297
45	0xbd93e000	-0.07220459
46	0x3d630000	0.055419922
47	0x3d966000	0.07342529
48	0x3d116000	0.035491943
49	0xbe06c000	-0.1315918
50	0x3ef38000	0.47558594
51	0x3f2f0000	0.68359375
52	0xbe7ee000	-0.24890137
53	0xbcf02000	-0.029312134
54	0xbb9d4000	-0.004798889
55	0x3dccc000	0.099975586
56	0xbc8f6000	-0.017501831
57	0xbe19a000	-0.15002441
58	0x3dea4000	0.11437988
59	0x3d032000	0.03201294
60	0xbe8c8000	-0.27441406
61	0xbf720000	-0.9453125
62	0x3f728000	0.9472656
63	0x3f8ae000	1.0849609
64	0xbe464000	-0.19360352
65	0xbec7e000	-0.39038086
66	0x3ce2e000	0.027694702
67	0x3dd2c000	0.10290527
68	0xbddd6000	-0.10809326
69	0x3d3ee000	0.04660034
70	0xbad18000	-0.0015983582
71	0x3ce38000	0.027770996
72	0xbdc02000	-0.093811035
73	0x3e832000	0.25610352
74	0x3f0bc000	0.54589844
75	0x3d9ea000	0.07745361
76	0xbd65e000	-0.056121826
77	0x3d77e000	0.060516357
78	0x3e3e6000	0.18591309
79	0xbd8ba000	-0.06817627
80	0x3e0da000	0.13830566
81	0xbf05e000	-0.5229492
82	0x3f538000	0.8261719
83	0x3f926000	1.1435547
84	0x3e272000	0.16320801
85	0x3d12e000	0.035858154
86	0x3f6b0000	0.91796875
87	0xbba88000	-0.005142212
88	0xbeaee000	-0.34155273
89	0x3dd7c000	0.10534668
90	0xbd988000	-0.07446289
91	0x3f4ba000	0.79541016
92	0xbdd9e000	-0.10638428
93	0xbc6de000	-0.014518738
94	0x3b86a000	0.004108429
95	0x3f41e000	0.7573242
96	0x3c5ce000	0.01348114
97	0x3dc16000	0.09442139
98	0x3ddf4000	0.10900879
99	0xbe268000	-0.16259766
100	0x3ef32000	0.47485352
101	0xbea54000	-0.3227539
102	0x3dbf2000	0.093322754
103	0xbca2c000	-0.019866943
104	0x3d8c4000	0.068481445
105	0x3f898000	1.0742188
106	0x3c66a000	0.014076233
107	0xbf336000	-0.7006836
108	0x3d86a000	0.06573486
109	0xbe04c000	-0.12963867
110	0x3db82000	0.089904785
111	0x3df92000	0.12164307
112	0x3d15a000	0.03652954
113	0x3dbf6000	0.093444824
114	0x3f5f8000	0.8730469
115	0xbd9ac000	-0.07556152
116	0x3da86000	0.082214355
117	0x3eac6000	0.33666992
118	0x3ea3a000	0.31958008
119	0x3ea78000	0.32714844
120	0x3e822000	0.2541504
121	0xbef6c000	-0.4819336
122	0xbe668000	-0.22509766
123	0xbd816000	-0.06317139
124	0xbeb08000	-0.34472656
125	0x3ed5e000	0.4177246
126	0x3abf0000	0.0014572144
127	0x3e2e0000	0.16992188
128	0x3f400000	0.75
129	0x3f10e000	0.56591797
130	0xbd2aa000	-0.041656494
131	0x3d256000	0.040374756
132	0xbbbd4000	-0.0057754517
133	0x3c9a8000	0.018859863
134	0xbcea2000	-0.028579712
135	0x3f714000	0.9423828
136	0xbee16000	-0.44018555
137	0xbe59c000	-0.21264648
138	0x3bd8a000	0.0066108704
139	0xbe63e000	-0.22253418
140	0xbe08c000	-0.13354492
141	0x3ccaa000	0.024734497
142	0xbfaa6000	-1.3310547
143	0x3ed18000	0.4091797
144	0x3e24a000	0.1607666
145	0x3d9e4000	0.07727051
146	0xbe870000	-0.26367188
147	0x3edf6000	0.4362793
148	0xbecda000	-0.40161133
149	0xbd938000	-0.072021484
150	0xbed04000	-0.40673828
151	0xbe8ca000	-0.2746582
152	0x3e1d0000	0.15332031
153	0xbe362000	-0.17785645
154	0xbe5f4000	-0.21801758
155	0xbd9e6000	-0.07733154
156	0xbd118000	-0.03552246
157	0x3d140000	0.036132812
158	0x3f438000	0.7636719
159	0x3d8fe000	0.070251465
160	0x3e4b4000	0.19848633
161	0xbf4b6000	-0.7944336
162	0x3f256000	0.6459961
163	0xbe1ca000	-0.1529541
164	0x3f5d2000	0.86376953
165	0x3e01e000	0.12683105
166	0x3e8b6000	0.2722168
167	0xbe700000	-0.234375
168	0x3e94c000	0.29052734
169	0x3ec7e000	0.39038086
170	0xbb3c0000	-0.0028686523
171	0xbf0a8000	-0.5410156
172	0x3d7fa000	0.062408447
173	0x3cfc6000	0.030807495
174	0xbe708000	-0.23486328
175	0x3da64000	0.08117676
176	0x3b45e000	0.003019333
177	0xbe1d0000	-0.15332031
178	0x3e738000	0.23779297
179	0x3f41a000	0.75634766
180	0xbe47a000	-0.19494629
181	0xbe9aa000	-0.30200195
182	0x3dac0000	0.083984375
183	0x3d18a000	0.037261963
184	0x3e30a000	0.17248535
185	0x3e1a0000	0.15039062
186	0xbd98c000	-0.07458496
187	0xbd28a000	-0.041168213
188	0xbdd9a000	-0.10626221
189	0xbe8a0000	-0.26953125
190	0x3f4fc000	0.81152344
191	0x3f334000	0.7001953
192	0xbdf6e000	-0.12054443
193	0xbe910000	-0.28320312
194	0xbc06e000	-0.008232117
195	0x3cbe4000	0.023223877
196	0xbf7ee000	-0.99560547
197	0xbcf5e000	-0.030014038
198	0xbd898000	-0.06713867
199	0x3e32a000	0.17443848
200	0xbcfdc000	-0.030975342
201	0x3e8e8000	0.2783203
202	0x3f0bc000	0.54589844
203	0x3e926000	0.28588867
204	0xbddb4000	-0.107055664
205	0x3d90c000	0.07067871
206	0x3e3e4000	0.18579102
207	0xbd6be000	-0.05758667
208	0x3d98a000	0.074523926
209	0xbd9b6000	-0.0758667
210	0x3efdc000	0.49560547
211	0x3ee80000	0.453125
212	0x3e2c6000	0.16833496
213	0xbd3b4000	-0.045715332
214	0x3f6e4000	0.93066406
215	0x3c7e4000	0.0155181885
216	0xbedfc000	-0.43701172
217	0x3cf7c000	0.03024292
218	0xbd9dc000	-0.07702637
219	0x3f956000	1.1669922
220	0xbe41a000	-0.18908691
221	0x3c884000	0.01663208
222	0x3e402000	0.18762207
223	0x3efc6000	0.49291992
224	0x3d4c4000	0.049865723
225	0xbd9ba000	-0.07598877
226	0xbb7d8000	-0.003868103
227	0x3deda000	0.11602783
228	0x3f508000	0.8144531
229	0xbe12c000	-0.14331055
230	0xbe8ea000	-0.27856445
231	0x3da5e000	0.08099365
232	0x3d2ae000	0.04171753
233	0x3f530000	0.82421875
234	0x3cfc4000	0.030792236
235	0xbef00000	-0.46875
236	0x3c878000	0.016540527
237	0x3ec7c000	0.39013672
238	0x3db88000	0.09008789
239	0x3ec4c000	0.38427734
240	0xbda28000	-0.0793457
241	0xbb910000	-0.004425049
242	0x3f6a8000	0.9160156
243	0x3d792000	0.060821533
244	0x3e248000	0.16064453
245	0xbea10000	-0.31445312
246	0x3ebdc000	0.37060547
247	0x3f594000	0.8486328
248	0x3ddb6000	0.1071167
249	0xbe1d0000	-0.15332031
250	0xbe08e000	-0.13366699
251	0x3ee14000	0.4399414
252	0xbea78000	-0.32714844
253	0x3d5cc000	0.053894043
254	0x3e36a000	0.17834473
255	0xbcf44000	-0.029815674

bias f4 [64]
0	0x3efce000	0.49389648
1	0x3e5f2000	0.21789551
2	0x3f0a2000	0.5395508
3	0x3f236000	0.6381836
4	0x3f21e000	0.6323242
5	0x3f1a4000	0.60253906
6	0x3e882000	0.26586914
7	0x3f12a000	0.5727539
8	0x3f2fe000	0.6870117
9	0x3f5d6000	0.8647461
10	0x3f28e000	0.65966797
11	0x3f14a000	0.5805664
12	0x3ecba000	0.39770508
13	0x3f736000	0.9506836
14	0x3f162000	0.5864258
15	0x3f50e000	0.81591797
16	0x3f264000	0.64941406
17	0x3f15e000	0.5854492
18	0x3f288000	0.6582031
19	0x3f6ea000	0.9321289
20	0x3ebb6000	0.3659668
21	0x3ed8e000	0.42358398
22	0x3f2d8000	0.6777344
23	0x3ef4c000	0.47802734
24	0x3e9fa000	0.31176758
25	0x3f328000	0.6972656
26	0x3f104000	0.56347656
27	0x3f32a000	0.6977539
28	0x3f182000	0.5942383
29	0x3ee90000	0.45507812
30	0x3ef58000	0.4794922
31	0x3f3be000	0.7338867
32	0x3f60a000	0.8774414
33	0x3f014000	0.5048828
34	0x3f5ee000	0.87060547
35	0x3f1ce000	0.61279297
36	0x3f6ae000	0.91748047
37	0x3f48a000	0.7836914
38	0x3f1b6000	0.6069336
39	0x3efe6000	0.49682617
40	0x3f5d2000	0.86376953
41	0x3f25e000	0.6479492
42	0x3f19e000	0.6010742
43	0x3f244000	0.64160156
44	0x3f1a6000	0.60302734
45	0x3f326000	0.69677734
46	0x3f28c000	0.6591797
47	0x3f0c0000	0.546875
48	0x3e28a000	0.16467285
49	0x3f044000	0.51660156
50	0x3ee0c000	0.43896484
51	0x3f4c6000	0.79833984
52	0x3f236000	0.6381836
53	0x3efbe000	0.49194336
54	0x3f090000	0.53515625
55	0x3f144000	0.57910156
56	0x3e3aa000	0.18225098
57	0x3f6ee000	0.93310547
58	0x3f37a000	0.71728516
59	0x3ef0a000	0.4699707
60	0x3e736000	0.2376709
61	0x3edd4000	0.4321289
62	0x3e4f8000	0.20263672
63	0x3ed08000	0.40722656
