chess_rust/src/model4_scripted.pt (torch, 301411 bytes, 11 tensors)

weight f4 [32, 6, 3, 3]
000000 00 20 55 bf 00 e0 0b be 00 e0 43 bc 00 c0 10 bf
       -0.83251953 -0.13659668 -0.011955261 -0.5654297
000010 00 a0 87 be 00 e0 50 3d 00 c0 ce be 00 80 6c be
       -0.26489258 0.050994873 -0.4038086 -0.23095703
000020 00 00 82 be 00 00 d2 3b 00 00 da bd 00 60 0d bd
       -0.25390625 0.0064086914 -0.10644531 -0.03451538
000030 00 00 36 bf 00 a0 0d 3e 00 a0 dc bd 00 00 92 be
       -0.7109375 0.13830566 -0.10772705 -0.28515625
000040 00 80 19 3e 00 60 5f be 00 40 6c bf 00 e0 b2 3e
       0.14990234 -0.21813965 -0.92285156 0.34936523
000050 00 a0 ec be 00 c0 cc be 00 a0 ae be 00 20 db 3e
       -0.4621582 -0.39990234 -0.34106445 0.42797852
000060 00 60 4d bf 00 60 07 3e 00 e0 da be 00 00 73 bf
       -0.8022461 0.13220215 -0.42749023 -0.94921875
000070 00 40 ee be 00 c0 05 bf 00 60 50 bf 00 20 23 be
       -0.46533203 -0.52246094 -0.81396484 -0.15930176
000080 00 a0 8a 3c 00 80 ab be 00 c0 9e be 00 e0 8d be
       0.016921997 -0.33496094 -0.3100586 -0.2770996
000090 00 00 01 c0 00 00 aa be 00 60 85 bf 00 60 55 bf
       -2.015625 -0.33203125 -1.0419922 -0.8334961
0000a0 00 e0 0f be 00 80 b3 3d 00 20 f7 bd 00 80 55 be
       -0.14050293 0.087646484 -0.120666504 -0.2084961
0000b0 00 80 5d 3d 00 e0 44 3e 00 60 f4 3e 00 20 65 be
       0.05407715 0.19226074 0.47729492 -0.22375488
0000c0 00 c0 f3 3e 00 60 cc 3e 00 40 c9 3d 00 e0 43 3e
       0.47607422 0.39916992 0.0982666 0.19128418
0000d0 00 c0 cd 3e 00 a0 0e 3e 00 80 81 3f 00 40 3c bf
       0.40185547 0.13928223 1.0117188 -0.73535156
0000e0 00 c0 98 be 00 c0 db 3e 00 a0 5e bf 00 40 cf bd
       -0.29833984 0.42919922 -0.8696289 -0.10119629
0000f0 00 80 63 3f 00 20 32 bf 00 00 95 3e 00 e0 24 bf
       0.8886719 -0.6958008 0.29101562 -0.64404297
000100 00 60 32 3e 00 80 8e bd 00 80 c2 bb 00 e0 6e 3f
       0.17419434 -0.06958008 -0.005935669 0.93310547
000110 00 a0 d4 3e 00 00 f0 be 00 a0 86 bf 00 80 32 3f
       0.4152832 -0.46875 -1.0517578 0.6972656
000120 00 00 a5 bd 00 c0 7e 3d 00 20 30 be 00 80 7a be
       -0.080566406 0.062194824 -0.17199707 -0.2446289
000130 00 40 ba bd 00 e0 df 3e 00 e0 be be 00 80 a0 3e
       -0.09094238 0.43725586 -0.37280273 0.31347656
000140 00 a0 c9 3d 00 20 54 3e 00 00 97 be 00 20 e3 bc
       0.09844971 0.20715332 -0.29492188 -0.02772522
000150 00 00 02 3e 00 00 72 be 00 80 e4 3e 00 20 8f 3b
       0.12695312 -0.23632812 0.44628906 0.0043678284
000160 00 40 41 bf 00 c0 18 bf 00 80 b6 3e 00 c0 87 bd
       -0.7548828 -0.5966797 0.3564453 -0.06628418
000170 00 60 7a bb 00 60 08 bc 00 40 b6 bd 00 e0 99 3e
       -0.0038204193 -0.008323669 -0.08898926 0.3005371
000180 00 60 99 3e 00 e0 bb bd 00 c0 24 bc 00 40 97 bd
       0.29956055 -0.09173584 -0.010055542 -0.07385254
000190 00 20 a0 3d 00 60 94 ba 00 60 03 3f 00 60 00 3e
       0.078186035 -0.0011320114 0.5131836 0.12536621
0001a0 00 a0 ec 3e 00 60 3b be 00 c0 62 3f 00 40 8c 3e
       0.4621582 -0.1829834 0.8857422 0.27392578
0001b0 00 a0 e4 be 00 60 33 be 00 80 b4 3e 00 20 58 3e
       -0.4465332 -0.1751709 0.35253906 0.21105957
0001c0 00 20 2c 3e 00 a0 e2 3e 00 80 ae bd 00 e0 2b bf
       0.16809082 0.44262695 -0.08520508 -0.6713867
0001d0 00 60 01 3f 00 80 2b be 00 a0 6b bd 00 80 db bf
       0.5053711 -0.16748047 -0.057525635 -1.7148438
0001e0 00 20 2b bf 00 60 de 3e 00 40 4c be 00 20 4d 3e
       -0.66845703 0.43432617 -0.19946289 0.20031738
0001f0 00 20 a2 bf 00 20 ed 3e 00 a0 cf bf 00 20 27 be
       -1.2666016 0.46313477 -1.6220703 -0.16320801
000200 00 80 e9 bf 00 e0 19 3d 00 40 95 bf 00 e0 10 bf
       -1.8242188 0.03756714 -1.1660156 -0.56591797
000210 00 40 0c bf 00 c0 e0 be 00 a0 2a 3e 00 e0 45 be
       -0.54785156 -0.43896484 0.16662598 -0.1932373
000220 00 60 00 bd 00 40 54 bf 00 e0 a5 3e 00 60 10 bd
       -0.031341553 -0.82910156 0.3239746 -0.035247803
000230 00 60 3e bf 00 40 d6 bd 00 60 16 bb 00 60 c8 bd
       -0.74365234 -0.10461426 -0.0022945404 -0.097839355
000240 00 40 3c 3e 00 e0 01 bf 00 80 90 be 00 c0 b6 bd
       0.18383789 -0.5073242 -0.28222656 -0.0892334
000250 00 00 ca be 00 40 42 bf 00 a0 d9 be 00 e0 44 be
       -0.39453125 -0.75878906 -0.42504883 -0.19226074
000260 00 00 4d be 00 e0 53 bd 00 20 cf 3c 00 80 1e 3e
       -0.20019531 -0.051727295 0.025283813 0.15478516
000270 00 60 08 3e 00 80 b0 3e 00 a0 68 be 00 e0 2e 3e
       0.13317871 0.34472656 -0.22717285 0.17077637
000280 00 80 60 3d 00 e0 b4 3b 00 c0 96 3e 00 20 8e 3e
       0.05480957 0.005519867 0.2944336 0.2775879
000290 00 80 ad 3d 00 00 01 bf 00 a0 7e 3e 00 60 d7 3e
       0.0847168 -0.50390625 0.24865723 0.4206543
0002a0 00 c0 92 bf 00 a0 b7 3f 00 c0 1b be 00 60 5d be
       -1.1464844 1.4345703 -0.15209961 -0.21618652
0002b0 00 00 98 be 00 c0 93 be 00 80 9b 3e 00 80 21 3e
       -0.296875 -0.28857422 0.30371094 0.15771484
0002c0 00 60 8e bc 00 00 73 bf 00 e0 55 bf 00 00 48 3e
       -0.01737976 -0.94921875 -0.8354492 0.1953125
0002d0 00 c0 54 3d 00 00 fb 3c 00 40 87 be 00 20 c7 bd
       0.051940918 0.030639648 -0.26416016 -0.097229004
0002e0 00 60 b9 3e 00 a0 80 3e 00 20 22 be 00 40 26 be
       0.36206055 0.2512207 -0.1583252 -0.16235352
0002f0 00 e0 a2 be 00 80 6d be 00 00 24 bf 00 c0 0b 3e
       -0.31811523 -0.2319336 -0.640625 0.13647461
000300 00 20 33 3e 00 40 f1 be 00 00 31 3e 00 c0 72 bf
       0.17492676 -0.4711914 0.17285156 -0.9482422
000310 00 40 ad 3e 00 a0 aa 3d 00 c0 e9 be 00 20 6f bf
       0.3383789 0.08331299 -0.45654297 -0.93408203
000320 00 20 22 bf 00 a0 1a bd 00 c0 24 be 00 00 dc be
       -0.6333008 -0.037750244 -0.16088867 -0.4296875
000330 00 60 91 bf 00 40 f4 3d 00 40 1d bf 00 80 13 3f
       -1.1357422 0.119262695 -0.6142578 0.5761719
000340 00 80 4d 3f 00 00 cc 3d 00 20 25 3e 00 60 91 3f
       0.8027344 0.099609375 0.16125488 1.1357422
000350 00 a0 22 3f 00 c0 16 3e 00 e0 b5 3e 00 20 c8 3e
       0.6352539 0.1472168 0.3552246 0.39086914
000360 00 00 8e 3e 00 00 7b 3e 00 c0 27 be 00 40 03 bf
       0.27734375 0.24511719 -0.16381836 -0.5126953
000370 00 40 8e 3e 00 80 7b 3d 00 c0 9a be 00 20 0b 3f
       0.27783203 0.061401367 -0.3022461 0.54345703
000380 00 60 6a bb 00 e0 ec be 00 c0 34 be 00 00 f9 3d
       -0.0035762787 -0.46264648 -0.17651367 0.12158203
000390 00 a0 81 3e 00 20 de 3e 00 00 ba be 00 e0 96 3b
       0.25317383 0.4338379 -0.36328125 0.0046043396
0003a0 00 00 78 3d 00 a0 5f b9 00 40 de 3f 00 20 8a 3e
       0.060546875 -0.00021326542 1.7363281 0.2697754
0003b0 00 e0 4e 3c 00 c0 e0 3e 00 40 b0 3f 00 00 ba 3e
       0.012626648 0.43896484 1.3769531 0.36328125
0003c0 00 80 50 be 00 80 35 3e 00 a0 af 3f 00 e0 8b 3e
       -0.20361328 0.1772461 1.3720703 0.27319336
0003d0 00 40 3b bf 00 00 91 bf 00 40 b0 be 00 60 2b be
       -0.7314453 -1.1328125 -0.34423828 -0.1673584
0003e0 00 20 9a bf 00 e0 90 3d 00 40 09 bf 00 20 22 3c
       -1.2041016 0.070739746 -0.5361328 0.009895325
0003f0 00 40 60 3e 00 80 46 3e 00 20 c6 be 00 e0 e5 be
       0.21899414 0.19384766 -0.3869629 -0.4489746

bias f4 [32]
000000 00 a0 10 3e 00 e0 d8 be 00 a0 0b bf 00 60 47 bf
       0.14123535 -0.42358398 -0.54541016 -0.7788086
000010 00 c0 1d bf 00 a0 3d be 00 e0 a0 bd 00 00 61 bf
       -0.61621094 -0.18518066 -0.078552246 -0.87890625
000020 00 20 94 be 00 a0 01 bf 00 60 a8 be 00 20 ed be
       -0.28930664 -0.50634766 -0.32885742 -0.46313477
000030 00 20 dd be 00 40 c3 be 00 20 9f be 00 60 47 bf
       -0.43188477 -0.38134766 -0.31079102 -0.7788086
000040 00 80 ad be 00 a0 95 be 00 e0 31 bf 00 00 85 3e
       -0.3388672 -0.29223633 -0.6948242 0.25976562
000050 00 c0 35 bc 00 c0 31 bf 00 e0 b1 bd 00 e0 24 be
       -0.01109314 -0.69433594 -0.08685303 -0.16101074
000060 00 a0 39 3e 00 e0 47 bf 00 80 60 be 00 a0 be be
       0.18127441 -0.7807617 -0.21923828 -0.37231445
000070 00 00 d4 be 00 60 dd 3e 00 40 a9 bf 00 20 2f be
       -0.4140625 0.43237305 -1.3222656 -0.17102051

weight f4 [32, 32, 3, 3]
000000 00 c0 f8 3d 00 00 64 be 00 80 49 be 00 60 e4 3e
       0.12145996 -0.22265625 -0.19677734 0.44604492
000010 00 40 f3 3e 00 a0 fe be 00 40 3b bf 00 80 36 bf
       0.47509766 -0.49731445 -0.7314453 -0.7128906
000020 00 80 b4 bf 00 40 1d bf 00 a0 62 3f 00 c0 0e bf
       -1.4101562 -0.6142578 0.8852539 -0.5576172
000030 00 60 32 bf 00 60 c8 3d 00 60 94 3f 00 20 82 3e
       -0.69677734 0.097839355 1.1591797 0.2541504
000040 00 a0 26 bf 00 40 23 bf 00 c0 4a 3f 00 00 83 3f
       -0.6508789 -0.6376953 0.7919922 1.0234375
000050 00 e0 04 bf 00 40 21 3e 00 60 29 3e 00 00 8f 3f
       -0.51904297 0.1574707 0.16540527 1.1171875
000060 00 e0 df 3c 00 c0 a5 be 00 20 65 3e 00 40 07 3f
       0.027328491 -0.32373047 0.22375488 0.5283203
000070 00 e0 1e c0 00 80 9d 3e 00 a0 a1 bf 00 e0 a0 3d
       -2.4824219 0.3076172 -1.2626953 0.078552246
000080 00 60 3e 3f 00 60 1d bf 00 80 ab 3e 00 00 7e 3f
       0.74365234 -0.6147461 0.33496094 0.9921875
000090 00 20 09 bf 00 40 54 bf 00 a0 94 bf 00 00 1b bf
       -0.53564453 -0.82910156 -1.1611328 -0.60546875
0000a0 00 80 55 be 00 e0 23 3e 00 80 8f be 00 00 54 bf
       -0.2084961 0.16003418 -0.28027344 -0.828125
0000b0 00 c0 82 3f 00 e0 20 be 00 20 f6 3e 00 c0 8a be
       1.0214844 -0.15710449 0.4807129 -0.2709961
0000c0 00 80 37 bf 00 00 b8 bf 00 e0 1b bf 00 a0 e0 3e
       -0.7167969 -1.4375 -0.6088867 0.4387207
0000d0 00 a0 67 bf 00 00 15 40 00 60 a2 be 00 00 e4 be
       -0.90478516 2.328125 -0.31713867 -0.4453125
0000e0 00 c0 db 3e 00 60 3f 3f 00 00 84 3f 00 20 98 3e
       0.42919922 0.7475586 1.03125 0.29711914
0000f0 00 40 d4 3e 00 c0 c5 3c 00 00 18 3e 00 c0 57 bf
       0.41455078 0.024139404 0.1484375 -0.84277344
000100 00 00 b3 be 00 20 ab bf 00 e0 c3 bb 00 c0 42 3e
       -0.34960938 -1.3369141 -0.0059776306 0.19018555
000110 00 40 14 bf 00 20 47 3e 00 80 46 bf 00 60 07 3f
       -0.57910156 0.19445801 -0.7753906 0.5288086
000120 00 00 3c bf 00 40 3f c0 00 e0 95 bf 00 40 a8 3b
       -0.734375 -2.9882812 -1.1708984 0.0051345825
000130 00 40 30 3f 00 00 df 3e 00 80 0f 3f 00 00 fb be
       0.68847656 0.43554688 0.5605469 -0.49023438
000140 00 a0 98 bf 00 e0 4b 3f 00 60 92 be 00 40 72 3e
       -1.1923828 0.7963867 -0.28588867 0.23657227
000150 00 a0 1e bd 00 00 b6 3e 00 20 d2 3e 00 00 0b be
       -0.038726807 0.35546875 0.4104004 -0.13574219
000160 00 20 be 3e 00 20 e6 3e 00 60 f0 3d 00 40 65 3f
       0.3713379 0.4494629 0.117370605 0.8955078
000170 00 00 92 3f 00 c0 34 bf 00 20 d9 3e 00 20 ab bf
       1.140625 -0.7060547 0.42407227 -1.3369141
000180 00 80 45 3e 00 00 28 bf 00 00 40 bf 00 00 81 3f
       0.1928711 -0.65625 -0.75 1.0078125
000190 00 20 84 3d 00 40 55 3e 00 20 98 bf 00 a0 93 3e
       0.06451416 0.20825195 -1.1884766 0.28833008
0001a0 00 60 62 be 00 00 5d 3e 00 c0 7b 3f 00 e0 a9 3f
       -0.22106934 0.21582031 0.98339844 1.3271484
0001b0 00 20 d0 bf 00 c0 c3 3d 00 c0 1c 3f 00 e0 ad 3f
       -1.6259766 0.095581055 0.6123047 1.3583984
0001c0 00 20 19 3f 00 80 fb 3d 00 00 65 3f 00 80 58 bd
       0.59814453 0.122802734 0.89453125 -0.052856445
0001d0 00 80 14 3f 00 40 46 3f 00 20 b6 3e 00 80 77 bf
       0.5800781 0.77441406 0.3557129 -0.9667969
0001e0 00 40 f1 3e 00 a0 09 bf 00 a0 55 be 00 60 b4 3e
       0.4711914 -0.53759766 -0.20861816 0.35229492
0001f0 00 40 3d 3f 00 80 0a 3f 00 e0 e2 be 00 00 43 3e
       0.7392578 0.5410156 -0.44311523 0.19042969
000200 00 c0 32 3f 00 60 dd 3d 00 a0 dc bf 00 20 64 bf
       0.6982422 0.10809326 -1.7236328 -0.8911133
000210 00 80 f1 be 00 e0 b5 3f 00 60 3f 3f 00 e0 cc 3e
       -0.4716797 1.4208984 0.7475586 0.40014648
000220 00 60 ac 3e 00 40 31 bf 00 e0 3d 3e 00 20 b4 bf
       0.33666992 -0.6923828 0.1854248 -1.4072266
000230 00 80 90 3f 00 80 3e 3f 00 00 4c 3f 00 40 59 c0
       1.1289062 0.7441406 0.796875 -3.3945312
000240 00 00 97 bd 00 20 b5 bc 00 40 2a 3f 00 40 e3 3e
       -0.07373047 -0.022109985 0.66503906 0.44384766
000250 00 e0 67 3f 00 c0 29 bf 00 40 a6 3e 00 a0 04 3f
       0.9057617 -0.66308594 0.32470703 0.5180664
000260 00 00 38 3f 00 80 c3 3c 00 40 74 bf 00 20 5b 3f
       0.71875 0.023864746 -0.95410156 0.85595703
000270 00 00 12 3e 00 00 1d bf 00 a0 78 3e 00 a0 6e 3e
       0.14257812 -0.61328125 0.24279785 0.23303223
000280 00 40 fa be 00 20 15 3e 00 20 05 c0 00 a0 47 bf
       -0.48876953 0.14562988 -2.0800781 -0.77978516
000290 00 c0 86 bc 00 00 dc 3b 00 60 77 bf 00 80 9b bf
       -0.016448975 0.006713867 -0.9663086 -1.2148438
0002a0 00 80 75 bf 00 a0 10 3f 00 40 7f bf 00 a0 1d 3f
       -0.9589844 0.5649414 -0.9970703 0.61572266
0002b0 00 80 9c be 00 e0 f8 bd 00 40 73 bd 00 c0 12 be
       -0.30566406 -0.121520996 -0.059387207 -0.14331055
0002c0 00 40 93 bd 00 c0 d2 be 00 a0 30 be 00 c0 cb be
       -0.071899414 -0.4116211 -0.17248535 -0.39794922
0002d0 00 e0 d9 be 00 80 4a bf 00 20 6a bf 00 a0 06 3c
       -0.4255371 -0.7910156 -0.9145508 0.008216858
0002e0 00 20 17 3f 00 c0 97 bf 00 80 81 be 00 e0 1d bf
       0.59033203 -1.1855469 -0.2529297 -0.6166992
0002f0 00 80 3e 3f 00 00 eb be 00 c0 53 3e 00 e0 a1 3e
       0.7441406 -0.45898438 0.20678711 0.3161621
000300 00 20 3b be 00 80 6b 3d 00 20 be bf 00 60 87 bc
       -0.18273926 0.057495117 -1.4853516 -0.016525269
000310 00 60 df be 00 80 ca bf 00 60 8d be 00 c0 65 3f
       -0.4362793 -1.5820312 -0.27612305 0.89746094
000320 00 00 61 be 00 00 29 be 00 c0 d8 bf 00 40 4e be
       -0.21972656 -0.16503906 -1.6933594 -0.20141602
000330 00 a0 fa be 00 60 36 bd 00 a0 82 bf 00 00 84 be
       -0.48950195 -0.044525146 -1.0205078 -0.2578125
000340 00 40 d4 3e 00 40 0d bf 00 20 9f 3e 00 c0 29 bb
       0.41455078 -0.5517578 0.31079102 -0.0025901794
000350 00 20 e3 be 00 c0 ab 3e 00 c0 f0 be 00 60 9d be
       -0.44360352 0.33544922 -0.47021484 -0.30737305
000360 00 c0 d9 3e 00 a0 25 3e 00 00 9b bd 00 80 fc be
       0.42529297 0.16174316 -0.075683594 -0.49316406
000370 00 40 d6 be 00 00 f4 be 00 80 06 c0 00 20 34 3e
       -0.41845703 -0.4765625 -2.1015625 0.17590332
000380 00 a0 29 bd 00 c0 de be 00 20 ee be 00 e0 f6 bd
       -0.041412354 -0.4350586 -0.4650879 -0.12054443
000390 00 e0 9d 3f 00 60 2a b9 00 e0 6a 3f 00 00 fe be
       1.2333984 -0.00016248226 0.91748047 -0.49609375
0003a0 00 80 aa be 00 40 ca bd 00 a0 86 bf 00 60 4e 3d
       -0.3330078 -0.09875488 -1.0517578 0.05038452
0003b0 00 20 78 bf 00 e0 ba bd 00 80 88 bf 00 00 83 3f
       -0.9692383 -0.09124756 -1.0664062 1.0234375
0003c0 00 a0 cf 3e 00 60 2c 3f 00 00 87 3e 00 20 5d be
       0.40551758 0.67333984 0.26367188 -0.21594238
0003d0 00 60 52 3f 00 80 dd 3e 00 c0 a4 be 00 60 a8 bf
       0.82177734 0.4326172 -0.32177734 -1.3154297
0003e0 00 60 46 3e 00 20 0e 3f 00 60 27 3f 00 80 31 3e
       0.19372559 0.5551758 0.6538086 0.17333984
0003f0 00 a0 23 3f 00 c0 ca 3e 00 40 1d 3f 00 20 00 be
       0.63916016 0.3959961 0.6142578 -0.12512207

bias f4 [32]
000000 00 40 ea be 00 40 9c 3f 00 20 4d 3e 00 80 78 bd
       -0.45751953 1.2207031 0.20031738 -0.060668945
000010 00 60 10 be 00 00 cd bd 00 00 48 3f 00 60 9b 3f
       -0.14099121 -0.100097656 0.78125 1.2138672
000020 00 c0 62 bf 00 40 d2 be 00 00 c5 3e 00 20 b1 bf
       -0.8857422 -0.41064453 0.38476562 -1.3837891
000030 00 e0 8e bf 00 20 b4 3c 00 80 a5 bf 00 60 11 3d
       -1.1162109 0.021987915 -1.2929688 0.035491943
000040 00 60 d2 be 00 e0 3b bf 00 40 1d be 00 c0 e5 3e
       -0.41088867 -0.7338867 -0.15356445 0.44873047
000050 00 a0 04 be 00 a0 82 3e 00 a0 ca bf 00 40 21 be
       -0.1295166 0.25512695 -1.5830078 -0.1574707
000060 00 60 73 3f 00 e0 b8 be 00 20 c7 bf 00 e0 c1 bf
       0.9506836 -0.36108398 -1.5556641 -1.5146484
000070 00 e0 02 3f 00 80 c5 be 00 60 74 3e 00 40 f5 3e
       0.51123047 -0.3857422 0.23864746 0.4790039

weight f4 [64, 32, 3, 3]
000000 00 60 1a 3d 00 a0 4f bd 00 00 2c 3c 00 a0 1c bc
       0.03768921 -0.050689697 0.010498047 -0.009559631
000010 00 20 8b bd 00 e0 9c 3c 00 20 87 bd 00 80 b8 bc
       -0.06793213 0.01914978 -0.065979004 -0.022521973
000020 00 60 6f bb 00 a0 3f 3d 00 a0 c8 bc 00 a0 1c bd
       -0.0036525726 0.046783447 -0.024490356 -0.038238525
000030 00 e0 9f bb 00 40 be 3c 00 40 93 bc 00 c0 6d bd
       -0.004878998 0.023223877 -0.017974854 -0.058044434
000040 00 80 7f 3d 00 c0 0e bd 00 00 8c bc 00 e0 85 bd
       0.06237793 -0.034851074 -0.017089844 -0.06536865
000050 00 00 c0 3c 00 c0 21 3d 00 40 59 bd 00 c0 88 3d
       0.0234375 0.039489746 -0.05303955 0.06677246
000060 00 e0 ef 3a 00 20 9e bd 00 60 a2 bd 00 80 c2 bc
       0.001830101 -0.07720947 -0.07928467 -0.023742676
000070 00 e0 de 3c 00 a0 53 bd 00 a0 94 bc 00 c0 54 bd
       0.02720642 -0.05166626 -0.0181427 -0.051940918
000080 00 c0 3a bd 00 80 07 bd 00 e0 27 bb 00 00 26 bc
       -0.04559326 -0.033081055 -0.0025615692 -0.010131836
000090 00 20 78 3c 00 00 a3 3c 00 a0 6a bb 00 40 8b bb
       0.015144348 0.019897461 -0.0035800934 -0.0042495728
0000a0 00 20 f4 3c 00 40 6b bc 00 e0 fe bc 00 40 1a bd
       0.029800415 -0.0143585205 -0.03111267 -0.03765869
0000b0 00 e0 45 bd 00 20 58 bd 00 c0 b8 3b 00 20 41 3d
       -0.048309326 -0.052764893 0.0056381226 0.04714966
0000c0 00 c0 14 3c 00 20 3b bd 00 00 fc bc 00 00 6e bd
       0.0090789795 -0.045684814 -0.030761719 -0.05810547
0000d0 00 e0 6f 3d 00 20 69 3b 00 a0 f1 3c 00 e0 54 bd
       0.058563232 0.0035572052 0.02949524 -0.051971436
0000e0 00 80 6f bd 00 20 43 3d 00 80 8f bd 00 a0 0d 3d
       -0.05847168 0.04763794 -0.07006836 0.034576416
0000f0 00 e0 f9 bb 00 80 49 bc 00 e0 84 bd 00 00 5e 3b
       -0.00762558 -0.012298584 -0.06488037 0.0033874512
000100 00 a0 01 3c 00 20 88 3c 00 60 8b 3b 00 80 75 bc
       0.007911682 0.016616821 0.0042533875 -0.014984131
000110 00 40 ae bd 00 00 38 ba 00 80 d8 bd 00 60 ac bd
       -0.08508301 -0.0007019043 -0.10571289 -0.08416748
000120 00 c0 08 bd 00 60 f1 bc 00 00 78 3b 00 80 68 b9
       -0.03338623 -0.029464722 0.0037841797 -0.00022172928
000130 00 c0 0b bd 00 a0 9e bb 00 60 c9 bd 00 e0 ae 3c
       -0.034118652 -0.004840851 -0.09832764 0.021347046
000140 00 c0 9d bd 00 80 45 bd 00 40 cf bd 00 80 e9 3b
       -0.07702637 -0.048217773 -0.10119629 0.0071258545
000150 00 20 85 bc 00 20 6e bc 00 a0 d5 3c 00 e0 d6 bd
       -0.01625061 -0.014533997 0.02607727 -0.10491943
000160 00 e0 1c bd 00 80 9d bb 00 80 c8 bd 00 00 0e bd
       -0.03829956 -0.0048065186 -0.09790039 -0.03466797
000170 00 80 97 3c 00 40 16 bc 00 00 58 bd 00 80 18 bd
       0.018493652 -0.009170532 -0.052734375 -0.037231445
000180 00 40 ad 3b 00 c0 53 bd 00 80 af bd 00 c0 ae bd
       0.0052871704 -0.051696777 -0.08569336 -0.08532715
000190 00 00 7c bd 00 40 a5 bc 00 c0 83 bc 00 80 a4 bc
       -0.061523438 -0.02017212 -0.016082764 -0.020080566
0001a0 00 60 66 bd 00 a0 c9 bd 00 20 b8 bd 00 e0 23 bd
       -0.056243896 -0.09844971 -0.089904785 -0.040008545
0001b0 00 c0 18 bb 00 00 85 bd 00 e0 2a bd 00 00 a3 bd
       -0.00233078 -0.064941406 -0.04171753 -0.079589844
0001c0 00 20 82 bd 00 00 18 bd 00 c0 b9 bd 00 20 01 be
       -0.0635376 -0.037109375 -0.09069824 -0.12609863
0001d0 00 00 ea bc 00 a0 bc bd 00 20 84 bd 00 60 8e 3a
       -0.028564453 -0.09210205 -0.06451416 0.001086235
0001e0 00 60 82 3c 00 60 45 bd 00 00 b6 bd 00 40 ee bb
       0.015914917 -0.048187256 -0.08886719 -0.007270813
0001f0 00 e0 5c bc 00 60 37 3c 00 40 a0 bc 00 c0 b3 bc
       -0.01348114 0.011192322 -0.019561768 -0.021942139
000200 00 20 6c bd 00 c0 e2 3c 00 80 32 3d 00 00 42 bd
       -0.057647705 0.027679443 0.0435791 -0.04736328
000210 00 00 a3 bc 00 20 99 bd 00 20 12 bd 00 80 9b 3d
       -0.019897461 -0.07476807 -0.03567505 0.075927734
000220 00 c0 d9 bc 00 60 18 3d 00 00 b8 3d 00 a0 bb bd
       -0.02658081 0.037200928 0.08984375 -0.09161377
000230 00 80 2a 3d 00 c0 13 bd 00 e0 4f bd 00 60 b8 bc
       0.041625977 -0.036071777 -0.050750732 -0.022506714
000240 00 a0 d4 3c 00 20 4c bd 00 a0 15 bd 00 c0 62 3d
       0.0259552 -0.049835205 -0.03652954 0.055358887
000250 00 c0 64 bd 00 a0 62 3d 00 c0 89 bc 00 c0 a9 3b
       -0.055847168 0.05532837 -0.016815186 0.005180359
000260 00 e0 9f 3d 00 00 7d bc 00 20 9f bc 00 20 2f bd
       0.078063965 -0.0154418945 -0.019424438 -0.042755127
000270 00 e0 8c bd 00 e0 f9 3c 00 c0 18 bd 00 20 d3 bd
       -0.06878662 0.03050232 -0.03729248 -0.10308838
000280 00 a0 25 bd 00 60 53 3c 00 a0 a2 3b 00 a0 91 bd
       -0.04043579 0.012901306 0.004962921 -0.07110596
000290 00 a0 f4 bc 00 40 c7 3b 00 00 1a 3d 00 00 29 bd
       -0.02986145 0.0060806274 0.037597656 -0.041259766
0002a0 00 c0 99 bc 00 00 91 bd 00 40 bf bc 00 60 94 bd
       -0.01876831 -0.07080078 -0.023345947 -0.07244873
0002b0 00 a0 8b bd 00 20 0d bb 00 a0 eb 3b 00 60 86 3c
       -0.06817627 -0.0021533966 0.0071907043 0.016403198
0002c0 00 40 a2 bc 00 c0 9c 3d 00 80 89 3c 00 40 4b bd
       -0.019805908 0.076538086 0.016784668 -0.049621582
0002d0 00 60 06 bb 00 40 d3 bd 00 40 db bd 00 e0 1e bd
       -0.0020503998 -0.103149414 -0.107055664 -0.03878784
0002e0 00 20 16 bd 00 40 ac bd 00 20 a1 bd 00 c0 c9 bd
       -0.03665161 -0.084106445 -0.07867432 -0.09851074
0002f0 00 00 73 bd 00 00 31 3d 00 c0 b5 bb 00 40 a0 bd
       -0.059326172 0.04321289 -0.00554657 -0.07824707
000300 00 60 7f 3c 00 40 83 bd 00 00 3d bd 00 00 6f bd
       0.015586853 -0.064086914 -0.046142578 -0.05834961
000310 00 60 ce bc 00 60 54 bd 00 c0 2e bd 00 a0 78 bc
       -0.02519226 -0.051849365 -0.042663574 -0.015174866
000320 00 80 04 ba 00 40 e0 3c 00 a0 52 bd 00 e0 ca 3b
       -0.0005054474 0.027374268 -0.05142212 0.0061912537
000330 00 80 df bd 00 60 f6 bc 00 a0 1f 3c 00 e0 42 bd
       -0.10913086 -0.030075073 0.009742737 -0.047576904
000340 00 00 b4 bd 00 20 67 bd 00 00 ee bd 00 20 a6 bd
       -0.087890625 -0.056427002 -0.11621094 -0.08111572
000350 00 c0 46 bd 00 e0 bc bc 00 e0 f2 bd 00 60 e1 bc
       -0.04852295 -0.02305603 -0.11859131 -0.027511597
000360 00 60 c7 bd 00 c0 79 bc 00 c0 16 bd 00 00 77 bd
       -0.097351074 -0.01524353 -0.0368042 -0.060302734
000370 00 60 a3 bc 00 00 80 bd 00 c0 0a bd 00 80 9c bd
       -0.019943237 -0.0625 -0.03387451 -0.076416016
000380 00 20 1b bd 00 20 95 bd 00 20 d4 bd 00 40 a3 bd
       -0.037872314 -0.07281494 -0.10357666 -0.079711914
000390 00 20 2f bd 00 00 17 bd 00 20 8e bd 00 c0 53 bd
       -0.042755127 -0.036865234 -0.06939697 -0.051696777
0003a0 00 00 bf bd 00 e0 10 bd 00 60 84 3c 00 a0 90 3b
       -0.09326172 -0.035369873 0.016159058 0.0044136047
0003b0 00 a0 07 bd 00 00 00 3d 00 40 bd bb 00 20 36 bd
       -0.033111572 0.03125 -0.0057754517 -0.04446411
0003c0 00 80 16 bd 00 40 9d 3c 00 e0 31 3d 00 80 92 bd
       -0.036743164 0.019195557 0.043426514 -0.0715332
0003d0 00 20 eb bd 00 40 6a bd 00 c0 8b bd 00 a0 b4 bc
       -0.11480713 -0.05718994 -0.068237305 -0.02204895
0003e0 00 80 ca bd 00 60 ac 3b 00 20 48 bd 00 c0 35 3d
       -0.09887695 0.0052604675 -0.048858643 0.04437256
0003f0 00 40 46 3d 00 a0 98 3d 00 60 df 3a 00 80 58 bd
       0.04840088 0.074523926 0.001704216 -0.052856445

bias f4 [64]
000000 00 c0 08 be 00 00 87 bf 00 60 30 bf 00 20 86 bf
       -0.13354492 -1.0546875 -0.68896484 -1.0478516
000010 00 e0 74 bd 00 a0 b2 bf 00 00 9b 3e 00 00 1f be
       -0.059783936 -1.3955078 0.30273438 -0.15527344
000020 00 20 24 3f 00 40 1d c0 00 a0 46 be 00 e0 57 be
       0.6411133 -2.4570312 -0.19396973 -0.21081543
000030 00 a0 46 bd 00 a0 00 c0 00 20 f9 bd 00 e0 a3 be
       -0.04849243 -2.0097656 -0.12164307 -0.32006836
000040 00 00 8e bf 00 40 fe be 00 a0 1a be 00 00 23 c0
       -1.109375 -0.49658203 -0.15100098 -2.546875
000050 00 20 7a bf 00 00 3b 3f 00 c0 02 be 00 a0 7c bf
       -0.9770508 0.73046875 -0.12768555 -0.9868164
000060 00 e0 9d bd 00 a0 28 bf 00 e0 c1 bf 00 40 08 bf
       -0.0770874 -0.6586914 -1.5146484 -0.53222656
000070 00 20 27 c0 00 a0 9c bf 00 20 aa 3e 00 80 34 bf
       -2.6113281 -1.2236328 0.3322754 -0.7050781
000080 00 e0 07 be 00 40 15 c0 00 a0 0a bf 00 c0 27 c0
       -0.13269043 -2.3320312 -0.5415039 -2.6210938
000090 00 20 b0 bd 00 a0 14 be 00 a0 0e bf 00 60 6f 3d
       -0.085998535 -0.1451416 -0.5571289 0.058441162
0000a0 00 00 70 be 00 a0 b2 bd 00 e0 9d 3e 00 00 44 3f
       -0.234375 -0.08721924 0.3083496 0.765625
0000b0 00 a0 a7 bc 00 c0 52 3f 00 c0 85 bf 00 60 03 3f
       -0.020462036 0.8232422 -1.0449219 0.5131836
0000c0 00 40 76 be 00 c0 ca bf 00 60 d9 be 00 a0 a1 be
       -0.24047852 -1.5839844 -0.42456055 -0.31567383
0000d0 00 80 a4 3f 00 20 e8 3e 00 60 2d bd 00 e0 c5 bf
       1.2851562 0.45336914 -0.04232788 -1.5458984
0000e0 00 a0 2d be 00 80 19 be 00 60 d4 bd 00 e0 d2 3e
       -0.16955566 -0.14990234 -0.10369873 0.41186523
0000f0 00 e0 bc bd 00 c0 86 bf 00 a0 57 bf 00 a0 04 c0
       -0.09222412 -1.0527344 -0.84228516 -2.0722656

weight f4 [128, 256]
000000 00 00 a9 3c 00 60 7f bd 00 00 13 bd 00 00 7a bc
       0.020629883 -0.062347412 -0.035888672 -0.015258789
000010 00 20 c0 3c 00 20 43 bd 00 60 6f bc 00 e0 32 3a
       0.023452759 -0.04763794 -0.0146102905 0.000682354
000020 00 80 10 bd 00 80 e2 bc 00 00 9e 3c 00 60 29 bd
       -0.03527832 -0.027648926 0.01928711 -0.04135132
000030 00 40 b7 3c 00 a0 0d 3d 00 60 ce bc 00 40 86 bd
       0.022369385 0.034576416 -0.02519226 -0.06555176
000040 00 00 4a 3c 00 20 13 bd 00 c0 86 3c 00 60 7b bd
       0.012329102 -0.03591919 0.016448975 -0.06137085
000050 00 20 80 bd 00 c0 1a bc 00 a0 68 bd 00 40 3d bd
       -0.062561035 -0.00944519 -0.056793213 -0.046203613
000060 00 a0 2c 3c 00 20 db 3c 00 60 65 3d 00 00 97 3d
       0.010536194 0.026748657 0.055999756 0.07373047
000070 00 e0 2c bc 00 80 7c 3c 00 a0 80 bd 00 80 cd bd
       -0.010551453 0.015411377 -0.062805176 -0.1003418
000080 00 40 4b bd 00 60 7b bc 00 a0 82 bd 00 a0 ee 3c
       -0.049621582 -0.015342712 -0.06378174 0.029129028
000090 00 e0 a3 bc 00 60 83 3c 00 20 1a bd 00 80 78 bd
       -0.020004272 0.016036987 -0.037628174 -0.060668945
0000a0 00 e0 4b 3d 00 40 4c 3d 00 20 87 3c 00 60 07 bd
       0.04977417 0.049865723 0.016494751 -0.033050537
0000b0 00 e0 e5 3b 00 e0 4a 3d 00 60 d8 3c 00 80 67 3d
       0.0070152283 0.04953003 0.026412964 0.056518555
0000c0 00 c0 de bd 00 20 b6 bd 00 00 7e bd 00 40 74 bb
       -0.10876465 -0.08892822 -0.06201172 -0.0037269592
0000d0 00 00 e5 bc 00 c0 0b bd 00 e0 87 bc 00 60 ae bd
       -0.027954102 -0.034118652 -0.016586304 -0.08514404
0000e0 00 e0 63 bd 00 20 87 3c 00 80 7b bd 00 a0 17 bd
       -0.055633545 0.016494751 -0.061401367 -0.037017822
0000f0 00 60 a8 bc 00 60 22 bc 00 c0 30 3d 00 20 e5 bc
       -0.020553589 -0.0099105835 0.043151855 -0.02796936
000100 00 20 2f bd 00 40 b9 bd 00 a0 9b bc 00 e0 8f 3a
       -0.042755127 -0.0904541 -0.018997192 0.0010976791
000110 00 80 8c bd 00 c0 73 bd 00 20 31 3b 00 00 d5 3c
       -0.068603516 -0.059509277 0.002702713 0.026000977
000120 00 a0 41 bc 00 80 66 bb 00 20 d6 3a 00 e0 84 3c
       -0.011817932 -0.0035171509 0.0016336441 0.016220093
000130 00 40 d8 bc 00 00 40 ba 00 40 39 3d 00 c0 ba bc
       -0.026397705 -0.0007324219 0.04522705 -0.02279663
000140 00 80 a3 bd 00 c0 f0 bc 00 a0 85 bd 00 a0 00 3c
       -0.079833984 -0.029388428 -0.06524658 0.007850647
000150 00 80 48 3d 00 00 3e bd 00 00 ab bd 00 40 97 bc
       0.048950195 -0.04638672 -0.083496094 -0.018463135
000160 00 e0 28 bd 00 a0 42 bc 00 80 e3 3c 00 40 43 3c
       -0.041229248 -0.011878967 0.027770996 0.011917114
000170 00 80 96 bc 00 c0 18 3d 00 e0 1e bd 00 40 49 bd
       -0.018371582 0.03729248 -0.03878784 -0.0491333
000180 00 a0 12 3d 00 e0 65 bd 00 60 b9 3c 00 c0 46 bd
       0.03579712 -0.056121826 0.022628784 -0.04852295
000190 00 e0 51 bd 00 a0 8a bc 00 a0 69 bd 00 40 41 bd
       -0.051239014 -0.016921997 -0.057037354 -0.047180176
0001a0 00 80 df bd 00 c0 be bd 00 80 92 bd 00 80 3a 3c
       -0.10913086 -0.09313965 -0.0715332 0.011383057
0001b0 00 60 1f bd 00 80 0a bc 00 80 5e bc 00 e0 fb 3c
       -0.038909912 -0.008453369 -0.013580322 0.03074646
0001c0 00 00 95 bd 00 20 3e bd 00 c0 54 bd 00 e0 08 bd
       -0.072753906 -0.046417236 -0.051940918 -0.033416748
0001d0 00 20 b6 bc 00 80 1a bd 00 a0 60 3d 00 a0 ae bc
       -0.022232056 -0.037719727 0.054840088 -0.021316528
0001e0 00 c0 ec bd 00 20 dc bd 00 40 87 bd 00 e0 1a bd
       -0.115600586 -0.10748291 -0.06604004 -0.03781128
0001f0 00 c0 87 bd 00 80 71 bc 00 40 e7 bc 00 c0 81 bc
       -0.06628418 -0.01473999 -0.02822876 -0.015838623
000200 00 20 89 bd 00 c0 55 3d 00 60 91 bc 00 c0 22 bd
       -0.06695557 0.05218506 -0.017745972 -0.039733887
000210 00 e0 96 3c 00 00 d9 3c 00 a0 05 bd 00 40 2f bd
       0.018417358 0.026489258 -0.03262329 -0.042785645
000220 00 80 ec 3c 00 20 35 3d 00 e0 0a bd 00 00 03 be
       0.028869629 0.04421997 -0.03390503 -0.12792969
000230 00 00 c8 bd 00 c0 15 bd 00 00 1c 3d 00 60 f2 3c
       -0.09765625 -0.03656006 0.038085938 0.029586792
000240 00 20 01 3b 00 40 b1 3a 00 00 08 3c 00 40 09 bd
       0.0019702911 0.0013523102 0.008300781 -0.0335083
000250 00 40 75 3c 00 c0 46 3d 00 e0 a2 3c 00 80 0d bc
       0.014968872 0.04852295 0.019882202 -0.008636475
000260 00 40 b4 bd 00 60 1c bc 00 60 7b 3a 00 a0 b0 3a
       -0.088012695 -0.009544373 0.0009589195 0.0013475418
000270 00 c0 2f bd 00 a0 95 bd 00 00 db bc 00 40 56 bd
       -0.042907715 -0.07305908 -0.026733398 -0.05230713
000280 00 80 2f bc 00 e0 1e bd 00 20 ef 3c 00 e0 7b 3c
       -0.01071167 -0.03878784 0.029190063 0.01537323
000290 00 60 61 3b 00 60 e3 3c 00 c0 81 3b 00 00 44 3d
       0.0034389496 0.027755737 0.0039596558 0.047851562
0002a0 00 e0 e7 bc 00 00 46 bd 00 40 52 bd 00 a0 47 3d
       -0.028305054 -0.048339844 -0.051330566 0.048736572
0002b0 00 60 dc bd 00 e0 9a 3d 00 20 e2 bc 00 20 0d bc
       -0.10760498 0.07562256 -0.02760315 -0.008613586
0002c0 00 e0 bb bb 00 a0 83 3d 00 80 1d bb 00 80 92 bd
       -0.00573349 0.06427002 -0.0024032593 -0.0715332
0002d0 00 e0 a1 bc 00 00 db bd 00 60 95 bc 00 80 c5 bc
       -0.019760132 -0.106933594 -0.018234253 -0.024108887
0002e0 00 c0 44 3d 00 e0 d9 bc 00 e0 09 bc 00 20 a3 3c
       0.048034668 -0.02659607 -0.008415222 0.01991272
0002f0 00 60 ac 3c 00 80 27 3d 00 e0 8b 3d 00 a0 58 bd
       0.02104187 0.040893555 0.06829834 -0.052886963
000300 00 c0 d6 3c 00 c0 3b 3d 00 a0 43 bd 00 00 ff bb
       0.0262146 0.045837402 -0.04776001 -0.0077819824
000310 00 c0 28 3b 00 40 6f bd 00 20 0f bd 00 20 c6 bb
       0.0025749207 -0.058410645 -0.034942627 -0.006046295
000320 00 40 ed bd 00 e0 10 3c 00 40 f6 b9 00 e0 75 bd
       -0.11584473 0.008842468 -0.0004696846 -0.060028076
000330 00 00 8b 3c 00 c0 88 bd 00 60 14 bd 00 00 d8 bc
       0.016967773 -0.06677246 -0.036224365 -0.026367188
000340 00 80 b4 bc 00 e0 34 bd 00 00 37 3c 00 80 21 3c
       -0.022033691 -0.044158936 0.011169434 0.009857178
000350 00 a0 0b 3d 00 20 3b bd 00 40 52 bc 00 00 a6 bc
       0.034088135 -0.045684814 -0.012832642 -0.020263672
000360 00 c0 0e 3b 00 80 2f bd 00 a0 77 bc 00 20 9a bd
       0.0021781921 -0.04284668 -0.015113831 -0.07525635
000370 00 20 71 3c 00 40 07 bd 00 c0 c1 bc 00 80 9c bd
       0.014717102 -0.03302002 -0.023651123 -0.076416016
000380 00 80 50 bc 00 80 84 3d 00 80 a3 bc 00 20 82 bd
       -0.01272583 0.064697266 -0.019958496 -0.0635376
000390 00 60 cd bb 00 60 9d bc 00 00 38 3d 00 c0 e8 3c
       -0.0062675476 -0.019210815 0.044921875 0.028411865
0003a0 00 e0 59 3d 00 e0 4f 3d 00 80 66 bd 00 c0 87 bc
       0.05319214 0.050750732 -0.056274414 -0.016571045
0003b0 00 c0 81 bd 00 c0 98 bb 00 a0 37 bd 00 80 7d bd
       -0.06335449 -0.00466156 -0.044830322 -0.06188965
0003c0 00 80 18 3d 00 20 c2 bc 00 00 cc bc 00 c0 25 3a
       0.037231445 -0.0236969 -0.024902344 0.0006322861
0003d0 00 c0 1f bc 00 e0 23 bd 00 80 29 bd 00 60 e2 bd
       -0.009750366 -0.040008545 -0.041381836 -0.11053467
0003e0 00 c0 a0 bd 00 60 23 3d 00 60 8a bc 00 20 58 bd
       -0.07849121 0.039886475 -0.01689148 -0.052764893
0003f0 00 e0 85 3c 00 00 cd 3c 00 80 90 bd 00 80 c7 bc
       0.016342163 0.025024414 -0.07055664 -0.024353027

bias f4 [128]
000000 00 00 83 bd 00 80 de bd 00 40 12 3f 00 00 45 3f
       -0.063964844 -0.10864258 0.57128906 0.76953125
000010 00 a0 33 3f 00 40 02 bf 00 a0 11 3f 00 60 4a bd
       0.70166016 -0.50878906 0.56884766 -0.04940796
000020 00 c0 a3 3e 00 80 17 bf 00 00 32 3f 00 80 07 3e
       0.31982422 -0.5917969 0.6953125 0.13232422
000030 00 a0 a9 bc 00 60 ca bf 00 00 05 be 00 80 a7 bd
       -0.020706177 -1.5810547 -0.12988281 -0.08178711
000040 00 e0 20 3f 00 60 da 3e 00 00 b8 bd 00 40 84 bf
       0.62841797 0.42651367 -0.08984375 -1.0332031
000050 00 a0 87 3f 00 e0 51 3f 00 c0 09 be 00 40 4f 3f
       1.0595703 0.8198242 -0.13452148 0.8095703
000060 00 00 fc bd 00 e0 84 3f 00 e0 ce bd 00 40 85 bc
       -0.123046875 1.0380859 -0.10101318 -0.01626587
000070 00 c0 3a 3c 00 80 cf bd 00 a0 41 3f 00 40 8f 3c
       0.011398315 -0.10131836 0.75634766 0.017486572
000080 00 a0 e8 3e 00 e0 f6 bd 00 a0 cb bd 00 60 9e bd
       0.4543457 -0.12054443 -0.09942627 -0.07733154
000090 00 a0 80 bd 00 20 e0 3e 00 00 3f 3c 00 60 01 be
       -0.062805176 0.43774414 0.011657715 -0.12634277
0000a0 00 20 52 bd 00 00 b5 3e 00 80 14 3f 00 a0 f3 3e
       -0.05130005 0.35351562 0.5800781 0.47583008
0000b0 00 60 3c 3f 00 40 87 3f 00 00 94 bd 00 80 81 3f
       0.73583984 1.0566406 -0.072265625 1.0117188
0000c0 00 e0 91 be 00 20 0d be 00 c0 51 3f 00 a0 b3 3e
       -0.2849121 -0.13781738 0.81933594 0.35083008
0000d0 00 20 ee bd 00 20 c4 3d 00 a0 1f 3f 00 00 8c 3c
       -0.11627197 0.09576416 0.62353516 0.017089844
0000e0 00 c0 4a 3f 00 60 27 bf 00 c0 be bd 00 60 58 3f
       0.7919922 -0.6538086 -0.09313965 0.84521484
0000f0 00 40 14 bd 00 00 d8 bd 00 c0 47 3f 00 e0 23 bf
       -0.036193848 -0.10546875 0.78027344 -0.6401367
000100 00 00 cf bd 00 20 fe 3d 00 20 89 3c 00 a0 db 3b
       -0.10107422 0.12408447 0.016738892 0.006702423
000110 00 e0 bf 3d 00 e0 eb 3c 00 20 d0 bc 00 e0 0e 3f
       0.093688965 0.028793335 -0.025405884 0.55810547
000120 00 40 e2 bd 00 40 57 bc 00 c0 1e 3b 00 20 6c 3f
       -0.11047363 -0.013137817 0.0024223328 0.9223633
000130 00 60 ba bd 00 20 25 3f 00 60 16 bd 00 60 c8 bd
       -0.09100342 0.64501953 -0.036712646 -0.097839355
000140 00 e0 6e bf 00 00 94 bf 00 20 41 3f 00 60 d9 bd
       -0.93310547 -1.15625 0.75439453 -0.10614014
000150 00 c0 50 bd 00 00 47 3f 00 a0 0a 3c 00 c0 7e bd
       -0.050964355 0.77734375 0.008460999 -0.062194824
000160 00 60 72 bd 00 80 e6 bd 00 60 1d bd 00 a0 7b bd
       -0.059173584 -0.11254883 -0.03842163 -0.061431885
000170 00 e0 a5 3f 00 00 a5 bd 00 00 7d ba 00 a0 c4 bd
       1.2958984 -0.080566406 -0.0009651184 -0.0960083
000180 00 40 5a 3f 00 80 c5 3e 00 c0 ff 3e 00 80 bb bd
       0.85253906 0.3857422 0.49951172 -0.091552734
000190 00 c0 36 3f 00 40 7f 3f 00 60 05 bf 00 40 2c 3f
       0.7138672 0.9970703 -0.5209961 0.67285156
0001a0 00 80 fb bd 00 40 60 3f 00 20 e2 bd 00 60 17 be
       -0.122802734 0.87597656 -0.1104126 -0.14782715
0001b0 00 a0 cf bd 00 00 d1 bd 00 a0 34 3f 00 a0 f2 3e
       -0.101379395 -0.10205078 0.7055664 0.47387695
0001c0 00 60 6d bd 00 a0 ad bd 00 a0 c3 3e 00 a0 ab 3c
       -0.05795288 -0.08477783 0.38208008 0.020950317
0001d0 00 40 9a bd 00 a0 86 bd 00 e0 73 3f 00 40 81 3f
       -0.07531738 -0.06573486 0.9526367 1.0097656
0001e0 00 a0 77 bd 00 60 11 3f 00 e0 0a 3f 00 60 89 bf
       -0.060455322 0.5678711 0.54248047 -1.0732422
0001f0 00 60 7f 3f 00 80 06 bc 00 00 85 bc 00 20 5f 3f
       0.9975586 -0.0082092285 -0.016235352 0.87158203

weight f4 [64, 128]
000000 00 20 be bd 00 00 30 bd 00 00 09 3d 00 60 66 3d
       -0.09283447 -0.04296875 0.033447266 0.056243896
000010 00 c0 3a bd 00 a0 92 bd 00 20 33 3e 00 e0 ed bc
       -0.04559326 -0.07159424 0.17492676 -0.029037476
000020 00 e0 e2 3d 00 c0 d4 3d 00 c0 ad ba 00 80 92 3d
       0.11077881 0.103881836 -0.0013256073 0.0715332
000030 00 40 e4 bc 00 20 96 bd 00 60 2e be 00 00 b4 3d
       -0.027862549 -0.07330322 -0.17028809 0.087890625
000040 00 c0 24 3d 00 e0 98 3d 00 20 99 3d 00 a0 c6 3c
       0.040222168 0.074645996 0.07476807 0.024246216
000050 00 60 e5 bd 00 20 c0 bd 00 00 e9 bc 00 a0 8c bf
       -0.11199951 -0.093811035 -0.028442383 -1.0986328
000060 00 00 18 3e 00 20 aa be 00 c0 62 bd 00 20 a6 3c
       0.1484375 -0.3322754 -0.055358887 0.02027893
000070 00 40 52 3d 00 20 c6 bc 00 40 0c bd 00 40 a1 bd
       0.051330566 -0.02418518 -0.034240723 -0.07873535
000080 00 a0 19 3b 00 20 8a bd 00 60 bd bc 00 c0 76 3d
       0.0023441315 -0.06744385 -0.023117065 0.0602417
000090 00 00 66 3c 00 20 4c 3d 00 60 37 bd 00 80 82 bd
       0.014038086 0.049835205 -0.044769287 -0.0637207
0000a0 00 00 ec bc 00 80 20 bd 00 60 a6 bd 00 e0 9b bc
       -0.028808594 -0.03918457 -0.08123779 -0.01902771
0000b0 00 20 a0 3c 00 40 c6 bf 00 80 ef bb 00 00 32 be
       0.019546509 -1.5488281 -0.00730896 -0.17382812
0000c0 00 60 73 3d 00 00 a5 bd 00 00 fb bc 00 c0 9b 3c
       0.059417725 -0.080566406 -0.030639648 0.019012451
0000d0 00 a0 8a bd 00 40 94 bc 00 00 03 be 00 00 b3 3c
       -0.06768799 -0.018096924 -0.12792969 0.021850586
0000e0 00 a0 f6 3c 00 a0 a1 bd 00 a0 28 bd 00 80 cc 3c
       0.03010559 -0.07891846 -0.041168213 0.024963379
0000f0 00 60 a7 bd 00 c0 30 3d 00 60 51 be 00 c0 e6 bc
       -0.081726074 0.043151855 -0.20446777 -0.028167725
000100 00 e0 82 bd 00 20 71 3d 00 e0 5f bd 00 40 28 bd
       -0.06390381 0.05886841 -0.054656982 -0.04107666
000110 00 e0 b1 3e 00 00 77 bd 00 40 bc 3b 00 e0 b4 3d
       0.3474121 -0.060302734 0.005744934 0.08831787
000120 00 20 f0 3c 00 a0 b0 bd 00 60 a0 bd 00 a0 bb be
       0.029312134 -0.086242676 -0.078308105 -0.36645508
000130 00 20 b6 bb 00 60 41 3d 00 a0 47 bd 00 60 ae 3b
       -0.005558014 0.047210693 -0.048736572 0.0053215027
000140 00 00 08 3e 00 e0 59 be 00 e0 0e bd 00 00 ec 3c
       0.1328125 -0.21276855 -0.03488159 0.028808594
000150 00 80 70 3d 00 c0 1b bf 00 60 ad 3d 00 40 e5 3c
       0.05871582 -0.60839844 0.08465576 0.02798462
000160 00 00 f1 3b 00 c0 e6 3c 00 a0 8f bc 00 e0 53 bc
       0.0073547363 0.028167725 -0.017532349 -0.012931824
000170 00 40 3f be 00 e0 01 3d 00 a0 bf bc 00 20 01 bd
       -0.18676758 0.031707764 -0.023391724 -0.03152466
000180 00 a0 e1 3d 00 a0 a6 3c 00 c0 02 3d 00 c0 2a bd
       0.11016846 0.020339966 0.031921387 -0.04168701
000190 00 a0 69 3c 00 40 20 3d 00 00 08 3e 00 80 ad 3c
       0.014259338 0.039123535 0.1328125 0.0211792
0001a0 00 c0 ac 3d 00 e0 1c bf 00 20 c4 bd 00 40 8e 3d
       0.084350586 -0.61279297 -0.09576416 0.06945801
0001b0 00 c0 9c bb 00 c0 32 3d 00 a0 06 3d 00 e0 01 3e
       -0.0047836304 0.043640137 0.03286743 0.12683105
0001c0 00 00 18 3d 00 60 5b 3d 00 a0 3b 3d 00 00 06 bd
       0.037109375 0.05355835 0.045806885 -0.032714844
0001d0 00 00 a4 3d 00 e0 29 bd 00 a0 11 bf 00 00 c0 be
       0.080078125 -0.04147339 -0.56884766 -0.375
0001e0 00 00 a2 bc 00 60 0a bd 00 80 23 3a 00 a0 ac bd
       -0.01977539 -0.03378296 0.000623703 -0.08428955
0001f0 00 a0 ec bd 00 a0 63 3d 00 00 ad bd 00 00 1c bd
       -0.11553955 0.05557251 -0.084472656 -0.038085938
000200 00 80 55 3d 00 60 01 bc 00 20 ef bd 00 80 17 3e
       0.052124023 -0.007896423 -0.116760254 0.14794922
000210 00 60 21 c0 00 a0 58 3e 00 00 5c bd 00 60 20 3c
       -2.5214844 0.21154785 -0.053710938 0.009788513
000220 00 c0 47 3e 00 c0 21 3e 00 c0 f2 bf 00 e0 12 3d
       0.19506836 0.15795898 -1.8964844 0.035858154
000230 00 40 29 bd 00 60 40 be 00 20 e3 bc 00 40 96 bd
       -0.0413208 -0.18786621 -0.02772522 -0.07336426
000240 00 60 8d bf 00 40 8f 3d 00 00 13 bd 00 c0 26 be
       -1.1044922 0.06994629 -0.035888672 -0.1628418
000250 00 a0 23 3d 00 00 35 3d 00 40 b6 3c 00 60 8c bd
       0.03994751 0.044189453 0.022247314 -0.06854248
000260 00 20 8a 3c 00 80 b5 3b 00 80 d3 bc 00 80 31 3d
       0.016860962 0.0055389404 -0.025817871 0.04333496
000270 00 a0 8d bc 00 20 13 3d 00 00 be 3c 00 40 23 bd
       -0.017288208 0.03591919 0.02319336 -0.039855957
000280 00 80 63 bf 00 a0 bb 3d 00 80 66 3c 00 c0 af bd
       -0.8886719 0.09161377 0.0140686035 -0.08581543
000290 00 00 e7 bd 00 c0 58 3e 00 a0 57 3e 00 00 96 3d
       -0.11279297 0.21166992 0.21057129 0.07324219
0002a0 00 a0 b3 3d 00 40 03 3d 00 a0 f4 3c 00 00 b4 be
       0.08770752 0.032043457 0.02986145 -0.3515625
0002b0 00 20 5e 3e 00 80 a2 3b 00 00 f0 3d 00 a0 e3 be
       0.21691895 0.0049591064 0.1171875 -0.44458008
0002c0 00 60 cc bc 00 e0 d9 3d 00 60 91 3d 00 60 8a 3c
       -0.02494812 0.10638428 0.07098389 0.01689148
0002d0 00 80 92 bd 00 40 12 3e 00 20 bf 3c 00 e0 52 bd
       -0.0715332 0.14282227 0.023330688 -0.051483154
0002e0 00 20 19 c0 00 20 3c bf 00 00 d4 3c 00 00 c8 bf
       -2.3925781 -0.7348633 0.025878906 -1.5625
0002f0 00 a0 82 3c 00 20 ee 3c 00 c0 c1 b9 00 80 d8 3d
       0.015945435 0.029067993 -0.0003695488 0.10571289
000300 00 c0 89 3d 00 60 a6 bf 00 a0 66 bb 00 60 c3 bd
       0.06726074 -1.2998047 -0.0035190582 -0.09539795
000310 00 c0 0f bf 00 e0 23 bd 00 40 54 3d 00 00 c0 3d
       -0.56152344 -0.040008545 0.051818848 0.09375
000320 00 20 b6 3d 00 c0 d8 3c 00 e0 1d 3c 00 c0 ca 3d
       0.08892822 0.02645874 0.009635925 0.09899902
000330 00 e0 42 bb 00 c0 f3 3c 00 a0 ba bb 00 80 d5 3a
       -0.0029735565 0.029754639 -0.005695343 0.0016288757
000340 00 80 68 be 00 80 46 bc 00 80 9e 3d 00 e0 9f bd
       -0.22705078 -0.0121154785 0.07739258 -0.078063965
000350 00 20 64 bd 00 c0 08 ba 00 40 3e bc 00 40 bc bc
       -0.05569458 -0.00052165985 -0.0116119385 -0.022979736
000360 00 c0 2c bc 00 00 1c 3e 00 a0 11 3d 00 a0 70 bd
       -0.010543823 0.15234375 0.03555298 -0.058746338
000370 00 20 b3 3d 00 40 3e 3d 00 60 fd bc 00 60 10 3c
       0.08746338 0.046447754 -0.030929565 0.008811951
000380 00 c0 83 3d 00 40 9b bf 00 a0 74 be 00 a0 c0 bc
       0.064331055 -1.2128906 -0.2388916 -0.023513794
000390 00 80 bc bf 00 a0 2d bf 00 80 f0 3d 00 c0 8c 3c
       -1.4726562 -0.67822266 0.11743164 0.017181396
0003a0 00 c0 40 b9 00 00 e7 3c 00 80 cf 3d 00 a0 35 3e
       -0.00018382072 0.028198242 0.10131836 0.17736816
0003b0 00 a0 8a bd 00 c0 63 bd 00 c0 89 bf 00 60 55 3d
       -0.06768799 -0.055603027 -1.0761719 0.052093506
0003c0 00 20 99 bd 00 e0 83 bc 00 40 9c bf 00 60 ee bc
       -0.07476807 -0.016098022 -1.2207031 -0.02909851
0003d0 00 80 1d 3d 00 80 77 3d 00 40 f9 bc 00 c0 85 3d
       0.03845215 0.060424805 -0.030426025 0.06530762
0003e0 00 80 95 bd 00 c0 80 bf 00 60 6b bf 00 20 3e bd
       -0.07299805 -1.0058594 -0.9194336 -0.046417236
0003f0 00 a0 ce 3d 00 20 59 bd 00 40 bd 3d 00 60 13 3e
       0.10089111 -0.053009033 0.09240723 0.1439209

bias f4 [64]
000000 00 40 6a 3f 00 a0 06 3f 00 40 a4 3f 00 c0 89 3f
       0.91503906 0.5258789 1.2832031 1.0761719
000010 00 e0 92 3f 00 60 06 3f 00 e0 22 3f 00 20 2f 3f
       1.1474609 0.52490234 0.63623047 0.68408203
000020 00 40 96 3f 00 20 2d 3f 00 e0 83 3f 00 40 8c 3f
       1.1738281 0.67626953 1.0302734 1.0957031
000030 00 40 a8 3e 00 a0 be 3e 00 80 a1 3f 00 80 3e 3f
       0.32861328 0.37231445 1.2617188 0.7441406
000040 00 80 9e 3f 00 40 67 3f 00 60 98 3f 00 80 32 3f
       1.2382812 0.9033203 1.1904297 0.6972656
000050 00 e0 65 3f 00 e0 95 3f 00 a0 83 3f 00 00 8e 3f
       0.8979492 1.1708984 1.0283203 1.109375
000060 00 00 31 3f 00 00 92 3f 00 00 9e 3f 00 00 94 3f
       0.69140625 1.140625 1.234375 1.15625
000070 00 20 2e 3f 00 a0 86 3f 00 00 5d 3f 00 e0 fe 3e
       0.6801758 1.0517578 0.86328125 0.49780273
000080 00 80 ea 3e 00 20 83 3f 00 00 82 3f 00 00 95 3f
       0.4580078 1.0244141 1.015625 1.1640625
000090 00 80 8e 3f 00 a0 f0 3e 00 20 86 3f 00 60 87 3f
       1.1132812 0.4699707 1.0478516 1.0576172
0000a0 00 60 57 3f 00 40 90 3f 00 e0 84 3f 00 00 3e 3f
       0.8413086 1.1269531 1.0380859 0.7421875
0000b0 00 20 40 3f 00 40 a8 3f 00 a0 33 3f 00 60 58 3f
       0.7504883 1.3144531 0.70166016 0.84521484
0000c0 00 40 69 3f 00 c0 67 3f 00 60 fa 3e 00 40 18 3f
       0.9111328 0.90527344 0.48901367 0.59472656
0000d0 00 80 73 3f 00 a0 96 3f 00 c0 4b 3f 00 60 42 3f
       0.9511719 1.1767578 0.79589844 0.75927734
0000e0 00 60 85 3f 00 40 8a 3f 00 80 88 3f 00 20 09 3f
       1.0419922 1.0800781 1.0664062 0.53564453
0000f0 00 00 67 3f 00 80 7c 3f 00 60 8a 3e 00 60 96 3f
       0.90234375 0.9863281 0.27026367 1.1748047

weight f4 [1, 64]
000000 00 c0 2f 3c 00 40 62 bc 00 80 39 bc 00 60 4b bc
       0.010726929 -0.013809204 -0.0113220215 -0.012413025
000010 00 80 13 bc 00 80 42 3c 00 20 28 3c 00 20 fd 3b
       -0.009002686 0.011871338 0.010261536 0.007724762
000020 00 00 11 3c 00 80 f7 3b 00 e0 6d 3c 00 a0 38 bc
       0.008850098 0.0075531006 0.014518738 -0.011268616
000030 00 a0 0c bc 00 00 2c 3c 00 a0 15 bc 00 40 15 3c
       -0.008583069 0.010498047 -0.009132385 0.009109497
000040 00 60 0c 3c 00 c0 7f bc 00 40 56 3c 00 60 ea 3b
       0.00856781 -0.015609741 0.013076782 0.0071525574
000050 00 a0 08 bc 00 e0 3e bc 00 00 2d 3c 00 00 2a 3c
       -0.008338928 -0.011650085 0.010559082 0.010375977
000060 00 00 41 3c 00 e0 72 bc 00 00 57 3c 00 a0 2d bc
       0.011779785 -0.014823914 0.013122559 -0.010597229
000070 00 a0 12 3c 00 00 3e 3c 00 40 58 3c 00 60 45 bc
       0.00894928 0.01159668 0.013198853 -0.012046814
000080 00 e0 e2 bb 00 60 1c bc 00 80 35 3c 00 80 57 bc
       -0.0069236755 -0.009544373 0.011077881 -0.013153076
000090 00 e0 e5 3b 00 c0 1b 3c 00 00 2d 3c 00 60 2b bc
       0.0070152283 0.009506226 0.010559082 -0.0104599
0000a0 00 60 0a 3c 00 00 34 bc 00 c0 4b 3c 00 80 ef 3b
       0.00844574 -0.010986328 0.012435913 0.00730896
0000b0 00 60 3e 3c 00 40 36 bc 00 00 fa 3b 00 20 2e bc
       0.011619568 -0.011123657 0.0076293945 -0.010627747
0000c0 00 40 d1 3b 00 20 9b bc 00 c0 26 bc 00 c0 bc 3b
       0.006385803 -0.018936157 -0.010177612 0.005760193
0000d0 00 00 29 3c 00 e0 30 bc 00 80 cc 3b 00 e0 44 3c
       0.010314941 -0.010795593 0.0062408447 0.012016296
0000e0 00 20 0b bc 00 00 6a bc 00 60 3b 3c 00 c0 07 3c
       -0.008491516 -0.014282227 0.011436462 0.008285522
0000f0 00 a0 b7 3b 00 20 38 bc 00 c0 60 bc 00 80 2c bc
       0.0056037903 -0.011238098 -0.013717651 -0.010528564
